models/baseline_000049.pth (torch_old, 173832 bytes, 32 tensors)

l1.0.weight f4 [32, 12, 3, 3]
00000000: 59ff bb3d 93f2 4c3c 295b d93c 2014 2f3d
00000010: 952e b5bd 177a 393d d78a 31bd cdbf fe3c
00000020: 7c50 adbc 4800 dc3c 5f2c 973d c511 1d3d
00000030: ed6d 043d fdf8 18bd b3d0 d8bc 9575 0fbd
00000040: a920 22bc f778 27bd e9a8 f23d e9a3 a43d
00000050: 72cb f83b 68ba 76bd 67f4 20bc 32f3 3ebd
00000060: a794 37bd aff6 2bba ef13 1e3d db18 893d
00000070: 2746 9bbd c2d9 8b3d 3994 133c 0e6f 963d
00000080: 0fa9 f63c dc11 dfbd 64d0 e7bd a08d aebd
00000090: 32db d53d 107e c1bc 9a97 ca3c e492 12bd
000000a0: 64ed 9e3d fcf4 8fbd 1494 ae3d a57d a7bb
000000b0: 2d36 91bd 7e5e 983d badf 33bd fcf3 f93c
000000c0: 72ac f3ba 64b1 89bb 2041 d1bd dbbc 6cbb
000000d0: 0ff7 a13d a959 4dbc 8249 a43d 8eed 973d
000000e0: 13ea 83ba 27e3 d1bd 60c1 ed3c 7939 01bc
000000f0: 3526 d3bd 63f3 ed3c ceb4 1f3c daec fb3d
00000100: 00e5 7ebb f6a2 bf3c 0537 c9bb 12b8 993c
00000110: e2ed a5bd eeaa 9fbd f82a 4e3d bc72 16bd
00000120: 88ee 373d 6c89 833c d603 193d 96e9 d6ba
00000130: 67b2 623c 2a02 833c e7c3 f9bd 6adb aa3c
00000140: a053 c2bd 879f 95bd cceb 273c 4de8 27bc
00000150: c6e5 5b3d 344e 5cbd e2be b5bd 3282 883d
00000160: 1c79 51bc bec4 4e3d 5522 bf3c bc17 7abd
00000170: 5039 1e3d e78b 963c a392 70bd 7523 19bd
00000180: e469 cf3c 45c9 e03c e00f 00bd 96a7 39bd
00000190: 3dbd 783d 8bc8 35bd 20c9 5f3d de61 fd3c
000001a0: 8941 9cbd 9c6c 98bd 1913 c93d a2a5 0c3c
000001b0: 395e 753d a8ed a43c eb29 74bc 6f28 ac3d
000001c0: 9391 d43d f0ad c6bd 5d41 063d eb09 a63d
000001d0: e853 343d ec5f cd3d 0dee b0bc 716f 90bd
000001e0: 2c64 cb3b 7e27 9d3d 0348 de3d aad4 8a3a
000001f0: 1c7f e33d 1b90 0ebd edf9 c0bd 992f 15bc
00000200: ad0e d63c 36d2 bf3d 7ba7 2abd b47b f93b
00000210: ff2c ba3d 496e a23d b58f 583d 665a 6e3d
00000220: 3c63 8a3d ef45 553c e654 56bd f266 3dbd
00000230: ac54 d8bc ce87 aa3c 4ace 80bc 16b6 7d3d
00000240: b984 19bd 5f0e aebd a9f7 96bc c2db 66bc
00000250: 5710 5e3c 5639 dc3c b9c9 5dbd 4544 8e3d
00000260: 6ef5 f6bc 17dc 48bd 9cc4 d0bd 849c 89bd
00000270: 28c7 9cbd 471d eabc ad18 a83d 39a2 b3bc
00000280: 177e 13bd 4ebb 933d 0604 803d c4ed 0b3e
00000290: 3609 87bc 4e4d 723d e6db 2a3d 3a9e 583c
000002a0: 135f 46bd 8f7f 873b 03a3 10bc 74ad df3c
000002b0: a8d3 533c 9312 a3bc a581 cb3d 7297 ea3d
000002c0: 0d7b 3e3d 34bb bc3c e9cd 10bd dab9 a73d
000002d0: f6d3 0f3b b09a 623d b82c 01bd 3f66 83bc
000002e0: 4507 39bc 35e6 0b3e 3a01 8ebd c6c1 08bd
000002f0: dd16 4f3d dfca 7abd c0b3 f83c f73b efbc
00000300: cb65 94bd 2c17 8fbc 6286 7f3d 2749 b0bd
00000310: c791 b23c 7ff6 573d a8f6 7a3d 6b07 a9bd
00000320: 1d52 ba3c d967 febd 54dc 473d ea61 38bd
00000330: d56f 3e3c 18ae f1bc 7937 3abc 2ff1 9fbd
00000340: f121 8dbd 9678 9dbc 65a5 aebc 1ebc 453c
00000350: fadc b7bd ceb6 3f3d 5488 b63d bc2c a83d
00000360: 6015 743d 4a41 aebd 0170 0dbd 822e af3d
00000370: 75a3 a8bd 9b34 be3d 5460 aabd e87e a1bd
00000380: 512a 5a3d 9b74 c8bd f0ed 64bd 8663 793d
00000390: 4c3c 603d e12c 793d 638c c6bc d199 d8bd
000003a0: 4482 813d 2987 d5bc ee05 2bbd 8eef ca3c
000003b0: 3912 28bd c451 903d dec1 873d 7360 3abd
000003c0: 5654 aabd 0635 ccbb 7645 8d3d aeb4 d23b
000003d0: 9c81 fbbc bbe7 473d 5077 9fbd 565a 38bd
000003e0: 1987 27bc 5ec1 9a3d 1506 c73d 63af 3d3c
000003f0: 33b3 a8bc 2cad 793d 74f7 873d 1981 82bd
0.09179563 0.012509006 0.026532726 0.042743802 -0.088467754 0.04528245 -0.0433453 0.031097317
-0.021156542 0.026855603 0.0738151 0.038347024 0.032331396 -0.03734683 -0.026466703 -0.035024244
-0.009895482 -0.040886845 0.11848623 0.08039076 0.007592612 -0.060236365 -0.009823895 -0.046618648
-0.0448195 -0.0006559891 0.03859323 0.06694194 -0.0758174 0.068286434 0.009007507 0.07345401
0.03010991 -0.10892078 -0.11319044 -0.085231066 0.10442199 -0.023619682 0.024730492 -0.035784617
0.077601224 -0.07029149 0.085243374 -0.0051114135 -0.07090411 0.07439898 -0.043914534 0.030511849
-0.0018590821 -0.004202055 -0.102175 -0.0036123309 0.07908451 -0.012533584 0.08021833 0.07418357
-0.0010064266 -0.10248404 0.029022872 -0.007887238 -0.10310022 0.02904672 0.009747697 0.12301035
-0.003889382 0.023393136 -0.006140592 0.01876453 -0.08102013 -0.07796274 0.050333947 -0.036730513
0.044905216 0.016056739 0.037357174 -0.0016396518 0.01383648 0.015992243 -0.121955685 0.020856578
-0.094886065 -0.07305818 0.010249089 -0.010248256 0.053685926 -0.053785518 -0.08874299 0.06665458
-0.012785222 0.050480597 0.0233318 -0.06105779 0.038628876 0.018377258 -0.058733594 -0.03738733
0.025319047 0.027439723 -0.03126514 -0.045325838 0.060727347 -0.044380706 0.054635167 0.030930456
-0.07629687 -0.074425906 0.09818096 0.008584412 0.05990431 0.020132855 -0.014902572 0.084061496
0.103793286 -0.09701145 0.03277718 0.081073605 0.04402533 0.10028061 -0.021597886 -0.07052506
0.00620701 0.07673548 0.10853579 0.0010591943 0.111082286 -0.0348054 -0.094226696 -0.009105586
0.026130045 0.093662664 -0.041663628 0.0076136235 0.090906136 0.079311915 0.052871425 0.05819168
0.06757209 0.013017162 -0.05232706 -0.046240754 -0.026407562 0.02081671 -0.015723366 0.06194123
-0.03748009 -0.08498835 -0.01842864 -0.01409048 0.0135537 0.026882809 -0.054147456 0.06946615
-0.030146327 -0.04903802 -0.1019375 -0.06719306 -0.076551735 -0.028578414 0.082078315 -0.02192794
-0.03600892 0.0721346 0.062507674 0.13664919 -0.016483884 0.059155755 0.041713618 0.013221318
-0.048430514 0.004135079 -0.0088279275 0.027304389 0.012928881 -0.019906318 0.09936837 0.11454667
0.04650407 0.023038484 -0.03535262 0.08189745 0.0021946407 0.055323303 -0.031536788 -0.016039966
-0.011293237 0.13662036 -0.06933828 -0.03338792 0.050558913 -0.06122863 0.030359149 -0.029203398
-0.07245978 -0.017467104 0.062384017 -0.08607703 0.021798028 0.05272531 0.061270386 -0.08253368
0.022744233 -0.12422151 0.048794106 -0.045015253 0.0116233425 -0.02950196 -0.011365765 -0.07809674
-0.068912394 -0.019222539 -0.0213191 0.012068776 -0.08977695 0.046805196 0.08912721 0.082116574
0.059590697 -0.08508547 -0.034530643 0.085537925 -0.08234302 0.092873774 -0.083191544 -0.078855336
0.053263012 -0.09787866 -0.055890977 0.06088593 0.054745004 0.060833815 -0.024236863 -0.10576213
0.06323674 -0.026065426 -0.041753702 0.024772432 -0.041033003 0.070468456 0.06628774 -0.045502137
-0.08316867 -0.006231907 0.06898014 0.00643023 -0.030701451 0.04880498 -0.07786429 -0.045008026
-0.010225081 0.07556413 0.09717957 0.01157746 -0.020593261 0.060956165 0.06638995 -0.0637228

l1.0.bias f4 [32]
00000000: 94c1 4d3c 4b27 8bbd e2f1 ffbd b582 673d
00000010: 5cce 4bba faeb 083d 22fa 21bc 4908 593d
00000020: dcd2 89bd 7453 08bd a3ff a9bd de66 9abd
00000030: 3135 6a3d 2e3b a0bc a2f4 5fbd 2661 ffbc
00000040: 4404 02bc 74b7 36bd f665 acbd 5432 753d
00000050: c0b1 2abc 41ea 6ebd a109 a63c 4cb4 cabc
00000060: ef22 1dbd 88fc 92bd 917d c3bd afaf e53c
00000070: 024d aebd 6553 883d 38f2 aebd e9ba 2abc
0.01255836 -0.06794604 -0.12497307 0.056521136 -0.00077745854 0.03342817 -0.0098862965 0.052986417
-0.06729671 -0.033282712 -0.08300712 -0.075391516 0.057179634 -0.01955947 -0.05467666 -0.031174254
-0.007935587 -0.04460855 -0.08417885 0.05986245 -0.010418355 -0.05832887 0.020268263 -0.024744175
-0.038363393 -0.07177073 -0.09545434 0.028037874 -0.08510782 0.06656531 -0.08542293 -0.010420539

l1.1.weight f4 [32]
00000000: f8d9 673f 4a55 6c3f 6db0 6c3f 385a 803f
00000010: a5fd 683f d223 873f 592f 883f 76bd 853f
00000020: 0651 623f 132d 8a3f 34a8 8b3f 5a7b 6a3f
00000030: 0bd7 7d3f acff 863f 7812 743f 49ab 6e3f
00000040: 3c31 7f3f 7e3f 873f eac8 803f b301 703f
00000050: c652 853f 7276 883f 3158 763f 3f01 713f
00000060: d9b1 7e3f 98d2 843f fbe4 8c3f 3532 813f
00000070: 1c1f 703f 7a68 803f 1da8 853f b1ad 7f3f
0.9056697 0.9231764 0.92456704 1.0027533 0.9101203 1.0557806 1.0639449 1.0448444
0.8840488 1.0795006 1.0910707 0.9159447 0.99156255 1.0546775 0.9534068 0.9323011
0.996845 1.0566251 1.0061314 0.9375259 1.0415885 1.0661147 0.9622832 0.94142526
0.99490124 1.0376768 1.1007379 1.0093447 0.9379747 1.0031884 1.0441929 0.9987441

l1.1.bias f4 [32]
00000000: dcee 04bd d417 893c 5579 09bd 6bda bc3c
00000010: 69be 3ebc 1cf6 ef3d fed1 333d b3ee e2bd
00000020: a3a3 233a a80d b83d 8aab cc3d d310 bc3d
00000030: 9e94 843c c3bb 203e adc2 80bc 001c cb3c
00000040: f1fc 913d c653 a53d aeba 263e 4f8e ed3c
00000050: c9b0 383d c92b 883d fd6c a8bd 87e4 85bd
00000060: e2e4 d5bd 5a64 333e 485d 143d 1574 9ebd
00000070: fb9e 27bd 4012 343e 4217 ec3c 3726 8b3d
-0.032454357 0.016734995 -0.033562977 0.023053369 -0.011642077 0.117168635 0.043901436 -0.110806845
0.00062423403 0.0898698 0.09993656 0.091828965 0.016184147 0.15696625 -0.015717829 0.024793625
0.07128323 0.08072619 0.1628215 0.028998522 0.04509047 0.06648976 -0.08223913 -0.06537729
-0.104440466 0.1751875 0.036221772 -0.07736985 -0.0409231 0.17585087 0.028819684 0.06794398

l1.1.running_mean f4 [32]
00000000: 4e36 e73b 3430 35bf 6734 a3be 6bd3 803e
00000010: 92f8 4fbf 8dd2 333e 458d e83e 28a3 5e3e
00000020: 4b8d d5be 0fc6 213f fffb 263e 5342 0ebf
00000030: f547 a63f 0aec 1e3e 92ef 6dbf fa2f 1fbe
00000040: facb 933d 1d30 293e 03e7 003d ae3c c3be
00000050: a437 ae3e 57ef 9f3e 0e7d 1f3e 166f 403f
00000060: c1c1 93be b1a5 0fbe 725f 053f 8405 8e3f
00000070: 3672 d9bd d662 ac3d 3c03 c03e 447c 433e
0.007056034 -0.7077668 -0.31875917 0.251613 -0.81238663 0.17560787 0.4542028 0.21741927
-0.4170936 0.6319284 0.16307066 -0.5556995 1.299071 0.1551973 -0.9294368 -0.15545645
0.0721664 0.1652226 0.03147031 -0.38132232 0.34026825 0.3123729 0.15575048 0.75169504
-0.2885876 -0.1402805 0.52098763 1.1095433 -0.10617487 0.08417289 0.37502468 0.19090372

l1.1.running_var f4 [32]
00000000: 5ee6 9a3c ab5f b33d e679 b73c 9991 723c
00000010: 7b97 8d3d 540e 103d b71a 813d be7d 563c
00000020: 6e6a 623d 2974 b53d b93b bc3c bb60 d03d
00000030: d6ed b53e be1b d43c 6ea0 3e3d d833 9d3c
00000040: cc75 3a3c 1276 f13c e78a b23c bae3 8e3d
00000050: 49e3 243d b180 283d 40d5 143d 859d b93d
00000060: 87bc 4a3d 18a7 093c 9755 643d f293 013e
00000070: 078b 523d baa6 4d3c 9d1c 043d 0f12 8f3c
0.018908676 0.087584816 0.022396993 0.014805221 0.06913658 0.035169914 0.063039236 0.013091503
0.05527728 0.088600464 0.022977697 0.101747 0.35533017 0.025892135 0.046539716 0.01918976
0.011380624 0.029475246 0.02179475 0.06977029 0.04025582 0.041138355 0.036336184 0.090632476
0.0494962 0.008401655 0.055745687 0.12654093 0.051402118 0.012551958 0.03225385 0.017464666

l2.0.weight f4 [32, 32, 3, 3]
00000000: 902a e2bc 3aa6 c9bc 253f 8dbc eb1f e2bc
00000010: c4b3 dabb c388 463b 560b c2bb 6f17 243d
00000020: 36eb 37bc 154e 1ebc 61cc 873c d991 213d
00000030: 640e 473d 8ce5 8dbd fa08 74bd e973 6439
00000040: e09d a2bc 1f45 b73c 61af 523d 90e9 0bbd
00000050: 738a 243d 2c97 053d 1ad6 0a3d 26ac a8bc
00000060: f16a 4d3d 5471 24bd f614 623c 9eaf f93c
00000070: a3bb 66bc e056 86bd c602 433b 180f 5b3d
00000080: b992 b9bc 8e39 68bd 3685 b6bb 1787 14bd
00000090: 7621 d93b 5fb0 9d3a ee8e 423d 0b18 2dbd
000000a0: 25cb 2dbd 8cbd 453d 4195 3dbb 1e5e 5abd
000000b0: 0c16 c23c 545e 1abd a110 813c 8203 943d
000000c0: bafc 4bbc bbf5 9cbc af74 443d 95d0 27bc
000000d0: 3409 513a b312 7d3d c4bd 39bc 0f83 343c
000000e0: 7e89 33bd ccea 83bd 9e94 70bd 02b0 513d
000000f0: 534d 32bd 399b f33c d678 0f3d bc86 acbd
00000100: 8591 82bc cdf6 86bd 2622 ba3c bf34 803c
00000110: 9b18 b2bc 7559 c13c 5fb5 71bc 427b f8bc
00000120: b251 b73c f327 f5b9 eb56 5cbc e5cd f53b
00000130: 9c12 d5bb 545b 923d fb80 8b3d e032 30bd
00000140: 07fb d6bc 531c dabc 4f3c 3dbd 4916 433c
00000150: 6493 c53c aa62 cf3c 2aa0 483d d1f3 3dbc
00000160: de02 09bd e08a 1dbb abad c5bc f027 58bc
00000170: 0e1b 11bd 743c 783d dd2e 37bc 585b 07bd
00000180: e2bf 9cbc b7a6 cc3b e6db 8d3c 68ab 1ebb
00000190: 01b0 1d3d 1d93 453c f04d b7bc 7985 bc3c
000001a0: c9b4 53bd 5195 bbbc 4315 4bbc b9c8 f3bb
000001b0: c050 88bd 631f 0cbd 05f1 61bc 8d05 81bd
000001c0: b869 8bbd eaca c3bd 634f c2bd e376 d8bd
000001d0: 4934 4cbd 5fe1 f1bd eb1c bebd 08da b1bc
000001e0: 4388 0dbe 76b1 31bd b3cf 8dbd 291c e7bd
000001f0: a9c9 d8bc dc1e 80bc b5bb 28bc fdeb 633c
00000200: f74e 13bc 11f0 30bd d516 fc3c 6298 043d
00000210: f4c3 713d 2941 0bbd cc0b 2dbc 4140 f13c
00000220: 7b8a 08bd 7217 3b3d 76ba 5fbb c29f 0f3c
00000230: a493 493c 162c d73c ef65 013c 7949 40bd
00000240: bed8 683d e82a b6bc 61c9 8a3c 3810 27bd
00000250: a015 24bc 16e1 833d 79bc 253b 0955 933b
00000260: 6e90 8fbc 017e acbd dabd 433c 2ecd 95bd
00000270: b893 213d 96cf efbc 131e 463d 5959 2f3c
00000280: 4c06 01bd f621 863d 3044 b53a c64b c8bd
00000290: ee68 c4bd fd34 bebb 71a0 37bc 1cad 4e3c
000002a0: 1794 31bd 4d9f 843c 24e8 0b3d ebbc 8c3c
000002b0: 1872 16bd 9af1 423d 2aa0 acbc 0332 cfba
000002c0: d706 48bd 620d ab3c d7cb 8bbd 4b04 2f3c
000002d0: 29ce a9bd 0e6e c5bd 809a 66bd 7db4 ee3c
000002e0: d3f1 bb3c c3eb 3bbd 6fb7 ab3c 81fa c1bb
000002f0: 639a 71bc 8fb3 bfbd f388 54bd 5098 613d
00000300: 7edb 71bd 6084 e03c 46a9 62bc 4124 9dbd
00000310: 3122 71bd f5eb 123c f875 eabc 8bd4 60bd
00000320: c047 96bd 609b a0bd 40c1 91bd 4cbd 96bd
00000330: 6942 8fbd 4847 c7bc ade5 f0bc ef74 163c
00000340: 2a38 e13c ab82 8cbd 7614 97bd c45e eaba
00000350: 9e27 783c 7840 67bd 1968 0abd 4968 f0bc
00000360: b573 30bc 6dd4 07bd baf6 1bbc 2995 4a3c
00000370: 434d 263d 1f42 a7bc 0df5 a83c 4518 233d
00000380: a826 5839 1dc0 423d 0a57 0f3d 2caa 57bd
00000390: c565 acbc eaeb 1d3d 98f7 30bc d51f 03bc
000003a0: 003a e3b9 bef8 dbbc 57ec 48bd 4a74 49bd
000003b0: b9d8 78bd 576c 8abd 7b1b b1bd 16b9 2a3c
000003c0: 974c 003c e6b0 afbd 1f60 d3bd c0b3 41bd
000003d0: 2e58 76bd d93d 90bd 106d b0bd 6321 7c3c
000003e0: e524 15bd 3fe8 7fbb 2d22 93bc e791 00bd
000003f0: 3400 8dbd 3f3d 4d3b b793 48bd c674 9abd
-0.027608186 -0.024615396 -0.017242024 -0.02760311 -0.0066742618 0.0030293919 -0.0059217615 0.04006141
-0.011225512 -0.009662171 0.016576948 0.03944573 0.04859771 -0.06928548 -0.059578873 0.00021786954
-0.019850671 0.022371827 0.051436786 -0.03415829 0.040171098 0.03261487 0.03389559 -0.0205899
0.050150815 -0.04014714 0.013798943 0.030479249 -0.014082822 -0.06559539 0.0029756292 0.05348119
-0.02265297 -0.056695513 -0.005570079 -0.036261644 0.0066263033 0.0012030712 0.04749959 -0.042259257
-0.04243006 0.04827647 -0.0028928074 -0.053312413 0.023692153 -0.037687615 0.015755 0.072272316
-0.012450391 -0.019160142 0.04796284 -0.010242601 0.00079740887 0.06178541 -0.011336748 0.011017575
-0.043832295 -0.06441268 -0.058735482 0.051193245 -0.043530773 0.029737102 0.035027348 -0.08424136
-0.01593853 -0.06590042 0.022721361 0.015650151 -0.021740248 0.023602227 -0.014752715 -0.030332211
0.022377823 -0.00046759806 -0.013448457 0.007501351 -0.0065024626 0.07146326 0.068117104 -0.04301727
-0.026242746 -0.026624834 -0.046200093 0.011907169 0.024118133 0.025315601 0.04898087 -0.011593775
-0.03345 -0.0024039075 -0.024130663 -0.013193116 -0.035426192 0.060604528 -0.011180607 -0.033046097
-0.019134466 0.00624546 0.01731677 -0.0024211053 0.03849793 0.012059 -0.02237603 0.023012863
-0.051686082 -0.022898348 -0.012395206 -0.0074396995 -0.06656027 -0.03420962 -0.013790374 -0.06299887
-0.068072736 -0.09560187 -0.09487798 -0.10569551 -0.04985455 -0.11810564 -0.092828594 -0.02171041
-0.13821511 -0.04338213 -0.06924381 -0.11284668 -0.026463347 -0.015639715 -0.010298659 0.013911244
-0.008990995 -0.043197695 0.030772606 0.032371886 0.059024766 -0.03399769 -0.010561895 0.029449584
-0.03333519 0.045676656 -0.003413824 0.008766117 0.012303267 0.026266139 0.007897838 -0.04694507
0.056847326 -0.022237256 0.016941728 -0.04078695 -0.010014921 0.06439416 0.002528934 0.004496221
-0.017524924 -0.08422471 0.01194712 -0.073145255 0.039447516 -0.02927379 0.048368525 0.0107024545
-0.031500146 0.06549446 0.0013829526 -0.09780078 -0.09590326 -0.0058046565 -0.011207686 0.012614515
-0.04335412 0.016189242 0.034156933 0.017179927 -0.036729902 0.04759369 -0.021072466 -0.0015807751
-0.048834648 0.020880405 -0.06825989 0.010682176 -0.08291275 -0.09640132 -0.056299686 0.029138798
0.02294246 -0.045879137 0.020961491 -0.005919755 -0.014746281 -0.0936042 -0.051888417 0.055076897
-0.059047215 0.027406871 -0.013834303 -0.076729305 -0.058870498 0.008967389 -0.028620705 -0.054890197
-0.07337904 -0.078421354 -0.07116938 -0.07360324 -0.069950886 -0.024325982 -0.029406393 0.009183153
0.027492601 -0.068608604 -0.073769495 -0.0017881026 0.015146164 -0.056457967 -0.03379068 -0.029346602
-0.010769774 -0.03316157 -0.009519273 0.012364664 0.040601026 -0.020417271 0.020624662 0.039818067
0.00020613766 0.047546495 0.034995116 -0.052652523 -0.021044621 0.038555063 -0.010801218 -0.008003195
-0.00043340027 -0.026852008 -0.049053516 -0.049183168 -0.060753558 -0.067589454 -0.086478196 0.0104201045
0.00783076 -0.085786626 -0.10321068 -0.047290564 -0.06014269 -0.070430465 -0.08614552 0.015388819
-0.03641214 -0.0039048342 -0.017960632 -0.031389143 -0.06884804 0.0031317023 -0.048968997 -0.07541804

l2.0.bias f4 [32]
00000000: c285 d6bc ecf4 703d 1a31 1e3d 10a7 29bc
00000010: 1d21 77bb 6f4c 9b3c cb34 d23c 7485 4dbd
00000020: 4c6a 61bd 9b30 483d ec19 20bd 1595 b0bc
00000030: 7406 4f3d d754 50bc 2a56 4d3d ee1e 4abc
00000040: e1da 84bb 7633 e0bc 56e9 063d 8e67 493d
00000050: 0515 35bd 8c4e c3bc 5e80 8dbc 9cfb f33c
00000060: ad0a 78bd 2a0b f33c c6de 053c 620d ae3b
00000070: e962 3b3d 3f33 c33c 50ba cebc d9ef 6dbc
-0.026186828 0.058827326 0.038621046 -0.010354772 -0.0037708946 0.018957345 0.02565994 -0.0501761
-0.055033013 0.04887448 -0.03908722 -0.021555463 0.050543264 -0.01271554 0.050131 -0.012336476
-0.0040544127 -0.027368288 0.03293737 0.049171023 -0.0442095 -0.023841165 -0.017273124 0.029783063
-0.060557056 0.02966841 0.008170789 0.005311654 0.045748625 0.023828147 -0.025235325 -0.014522516

l2.1.weight f4 [32]
00000000: 960a 753f f51d 7a3f ca5a 883f 49ad 763f
00000010: b3fc 803f 55de 733f e557 6b3f f303 7a3f
00000020: 21e7 893f f8a5 7d3f 134e 7e3f ebb5 7a3f
00000030: 528f 833f 8fcd 7a3f 821d 7c3f 5cf2 803f
00000040: 7356 843f 028a 833f c592 823f 4d13 743f
00000050: 5a29 753f 3dbb 7f3f 6dca 7d3f bd06 763f
00000060: 8a31 813f 4d33 7a3f 7074 6d3f 520f 913f
00000070: 288e 7a3f 5bb3 843f e218 8a3f fbd5 743f
0.9571928 0.9770196 1.0652707 0.9635816 1.0077118 0.95261127 0.9193099 0.97662276
1.077366 0.99081373 0.9933788 0.97933835 1.0278113 0.9796991 0.98482525 1.0073962
1.0338882 1.0276492 1.020104 0.9534195 0.9576622 0.9989508 0.99137 0.9610403
1.0093243 0.9773453 0.92755795 1.13328 0.97873163 1.0367235 1.0788844 0.9563901

l2.1.bias f4 [32]
00000000: 7889 1bbc ea1e 1abd ca7d d1bd 8293 8fbc
00000010: 1963 69b8 1df5 71bc 92f2 2cbd f1c1 383c
00000020: 1862 a23d 4713 31bb 27bb 08be 2a2e 9bbd
00000030: 7f82 a8bc 868b 9abc 6f53 a9bd 70f9 dbbd
00000040: c091 cebd ed64 c9bc e773 7bbd 1c21 8abd
00000050: 8e79 77bd dec2 0fbd db53 12bd 9b7e 5abd
00000060: a6fc bfbd 99b1 7dbd 2fd2 4bbc 90f3 c33d
00000070: be17 8ebd 6d06 90bc 6f30 26be fcba 07bd
-0.009493224 -0.03762714 -0.102290705 -0.017526392 -5.564382e-05 -0.014767912 -0.04222352 0.011276708
0.07928866 -0.0027019547 -0.13352643 -0.075771645 -0.020570038 -0.018865358 -0.08267867 -0.10740936
-0.10086393 -0.024584258 -0.06138983 -0.06744596 -0.060418658 -0.03509795 -0.035724502 -0.053343397
-0.09374361 -0.06193695 -0.012440248 0.0956794 -0.06938122 -0.017581189 -0.16229413 -0.033137307

l2.1.running_mean f4 [32]
00000000: 0ded c8bf 715d f6be 5db3 a4bd 0b29 19bf
00000010: 3395 b23e c5fb d7be 7df4 513f 21ba 393f
00000020: c0d1 9d3d 0512 103e f998 e4bd b3ef 06bf
00000030: 61d3 883d 12d4 33bf f9a3 373d 25d9 2c3e
00000040: dccb 513e 8402 8b3d 3ed7 9f3e eb3f 5abe
00000050: 24fa 8fbe 08c5 7cbd fb9b 193e d449 ae3d
00000060: 6fd5 8a3f 4c81 0f3f 7817 06be 8472 053e
00000070: 0c63 a43e dd29 f33d 1427 1c3c 2443 1dbd
-1.5697342 -0.48118165 -0.08042023 -0.5982825 0.34879455 -0.42184272 0.82013685 0.72549635
0.07706022 0.14069374 -0.1116199 -0.527095 0.06680942 -0.7024547 0.04483411 0.16879709
0.20487922 0.06787589 0.31218904 -0.21313445 -0.2812053 -0.06171134 0.15000908 0.08510175
1.0846385 0.56056666 -0.1309489 0.13031965 0.32106817 0.11873219 0.009530801 -0.03839411

l2.1.running_var f4 [32]
00000000: e482 d93f 245f ec3e a80a 073e cc2c ca3f
00000010: f474 d83e 7372 bb3e cfb2 873e d97b 793e
00000020: ae4a 103e 1078 633e ee1a 143e f304 803e
00000030: 94e6 303e 9377 583f 97e1 493e 90aa 923e
00000040: 4051 6c3e 4125 543e 171c 563e 151b fc3e
00000050: a5a7 1f3f 7360 0f3e 46ed 4e3e 3069 a93e
00000060: abcc af3e 4eba 743e 637c 543e 91bc 833d
00000070: 4fcc 8f3e b94a 543d 01cd ee3d df87 903e
1.699307 0.46166337 0.13187659 1.5794921 0.42276728 0.36610755 0.26503608 0.2436365
0.14090988 0.22213769 0.14463398 0.25003776 0.17275459 0.84557456 0.19714962 0.28645754
0.2307787 0.20717336 0.20909153 0.49239412 0.6236518 0.14001636 0.202077 0.33088064
0.34335837 0.23899195 0.20750575 0.064324506 0.28085563 0.051829074 0.11660195 0.2822866

l3.0.weight f4 [32, 32, 3, 3]
00000000: 170f 69bc f712 0d3c 833f 863b 7a6b 34bd
00000010: c666 ec3a 2c92 a43a 5e0b 05bb 2562 01bd
00000020: 0141 c33c cb8d 233d 7449 0bbd db7d cc3b
00000030: d078 1aba 7409 ebbb 90a1 643d 2587 403d
00000040: e36a 883b b1d6 eb3b 27e5 72bb ab89 8cbd
00000050: 542e d4bd d2ec 72bd 870b bbbd 6a38 a1bd
00000060: 5a6f 11bd 9949 86bd 0599 dc3c 10a4 173d
00000070: e82c 813d c9e8 8b3b 8be4 373d 877f 793d
00000080: e76e fc3b 36ad 953d 411e af3c 88d2 30bd
00000090: 912c 3c3c 7391 8e3d 8d5a a63c 3d13 85bd
000000a0: e7b5 84bc d8d7 88bd 82cd 3bbd 5b9f 6abd
000000b0: 66c1 e5bd 4c89 333d 1951 eebc bc5c 0cbc
000000c0: 939a adbc 11a9 a3bc db35 323d fb1a 403d
000000d0: 99ac a63d 4677 0abd 0a9b 42bd 2999 00bd
000000e0: 367e a03b 1697 1c3d e699 00bd 632d 02bd
000000f0: 3c8a 56bc 0363 ea3c 696b 423d ca34 b73c
00000100: 911c b73c 4760 833d cbcf 853c fb43 eebc
00000110: 5c2a ce3c cca6 813c d826 0dbd 3d07 653b
00000120: f251 1bbd 5b59 1b3d 4a68 eb3c 2d22 273d
00000130: 18f7 4e3d 10ce b03d bd12 b53d 6103 9b3d
00000140: 3960 b03d 6ff1 6ebd fdf7 f63c 04da 313d
00000150: 5005 343d 90f0 b03c 7cce deba 2361 24bd
00000160: d34d 143d a63c 43bc e244 af3c 83de fc3c
00000170: 6d87 633d 96f6 4f3d cf9b 5cbb f429 cc3c
00000180: f293 363d c9c4 4c3d 8a81 4b3d 6828 86ba
00000190: 72f5 6fbd b18a 113d d6f2 f33c 0a2f 0ebd
000001a0: 4f32 483d 411c 553c 1257 c23b 2204 15bc
000001b0: 82e1 b5bc e142 483d 91b0 643d af81 7c3c
000001c0: f456 03bc fed9 f3bc 9e58 9c3d 38d5 f53c
000001d0: d515 8b3d c5c3 423d 0b56 24bd a324 07ba
000001e0: 22ba 9f3c e842 003d 7df5 4e3c 5c94 da3c
000001f0: 92f5 993c 92ef 0dbb ee8a 49bd 414f 81bc
00000200: 8daa dc3c fc14 eb3c b761 9bbb 3343 633b
00000210: 4717 2ebd 9f8e 8b3d d9f5 86ba 81c8 6ebc
00000220: 12bb 00bd 6d17 c5bb f9d3 3abd dbc2 5f3d
00000230: d3fa 853c d0db 1d3b c661 4cbd f768 3fbb
00000240: c8d0 f8bc 2ffd 27bd dd10 65bc 91b8 e5ba
00000250: b22b b13a 6d13 1e3d 44bf 423d 9708 9cba
00000260: 1285 f13c 50af 94bd b080 39bd da06 38bd
00000270: e134 0abe 18fe 34bd be6e 1cbd 6a93 f2bc
00000280: 6b2b ebbc 97b7 423d 39c1 f3bc ea4e 13bb
00000290: d66e 2abd 9ad6 663d cce5 ddbb 9585 e53c
000002a0: d3f8 b3ba 46c0 4a3d dc98 48bd 8052 793d
000002b0: bf34 fabb 5a2d da3c 9e49 7dbc 32a3 963d
000002c0: 8a3b 6f3d ae5b 5dbd ba61 59bd 8913 ecbc
000002d0: 45c6 b0bc 140d 2cbd fc42 0a3c c9c1 33bb
000002e0: d1a3 d03a b3df 00bd 8a69 3d3c 2ff1 753d
000002f0: 180d 203d 395b 163d 221e 073d c95b 663c
00000300: 6b49 0e3d e2a0 ee3c b6a3 75bc 6286 013d
00000310: 49ee 24bc 2fca 71bb f66d e1bd 957d a8bc
00000320: 8913 f0bc 66e0 9fbd cf68 30bd 63f4 833b
00000330: 1fa7 53bd adb6 8a3c 6718 fdbc 80ed bf3c
00000340: 5fd6 6a3d 9b17 273d a390 ca3c 7317 ae3b
00000350: 760d 9c3c ee79 9d3c 6dc4 ba3c 1baf 55bd
00000360: 6dfd ecbc 6da4 3ebc 4774 bd3d b89e a1bd
00000370: a917 32bd 9790 433d f1b9 ec3b f0cd ffbc
00000380: 740d 1ebd 13ab 263d 940d 86bc 6a00 a43d
00000390: f411 ccbc 5f45 8f3d bc98 673c 6897 ed3b
000003a0: ef83 8439 b06e 4e3c 8a59 efbc 7080 2d3d
000003b0: 05c4 8abc 4f3e 0ebd c13b 0dbd 0e9a 44bc
000003c0: 18cb d73b c3a7 913c 7fa0 80bd 0b02 0a3d
000003d0: 0f11 5fbc 8457 73ba be4b a4bd 070d 8abd
000003e0: 1622 0a3d 1de7 ccbd 9437 d7bc cd5e 4dbd
000003f0: da4e cd3c 7a0e 8fbd 347b 16bc a2fe 43bd
-0.014224789 0.008610479 0.0040969267 -0.04404781 0.0018036 0.001255577 -0.0020300965 -0.03158774
0.023834707 0.039930146 -0.034005597 0.006240589 -0.0005892636 -0.0071727578 0.05581814 0.047003884
0.0041631325 0.007197224 -0.0037062855 -0.068621956 -0.10360399 -0.05930788 -0.09133058 -0.07872088
-0.035506584 -0.065570064 0.026928434 0.037021697 0.06307393 0.0042696935 0.04489569 0.060912635
0.0077036503 0.07308428 0.02137673 -0.04316953 0.011485235 0.06961336 0.02030685 -0.0649781
-0.016200019 -0.06681794 -0.045850284 -0.05728088 -0.112185284 0.04383211 -0.029091405 -0.0085670315
-0.02119187 -0.019978078 0.04350839 0.04690073 0.08138389 -0.033805154 -0.047511138 -0.031396065
0.004897858 0.038230024 -0.03139677 -0.031781565 -0.013094481 0.028611666 0.047465716 0.022364039
0.022352489 0.06414848 0.016334435 -0.02908515 0.025166683 0.015826605 -0.034460872 0.0034946941
-0.037919946 0.037927013 0.028736252 0.040804077 0.050528616 0.08633053 0.08841465 0.07569004
0.08612103 -0.058335718 0.030147547 0.043420807 0.04395038 0.021599084 -0.0016998793 -0.0401317
0.03620703 -0.011916315 0.02139515 0.03086782 0.055549074 0.050772272 -0.0033662205 0.024922349
0.044574685 0.049992356 0.049684085 -0.0010235431 -0.058583684 0.035532657 0.02977888 -0.03471283
0.048876103 0.013007225 0.0059307897 -0.009095224 -0.022202257 0.048891906 0.05583245 0.015411778
-0.008016337 -0.029767033 0.0763409 0.030008897 0.067912735 0.04754998 -0.04012112 -0.00051553006
0.019497935 0.031313807 0.012631771 0.026682071 0.018793855 -0.0021657688 -0.04920476 -0.015784862
0.026936794 0.02869653 -0.004741873 0.0034677505 -0.042502668 0.06814312 -0.0010296657 -0.014574171
-0.031428404 -0.0060147555 -0.04561231 0.054629188 0.016354954 0.0024087317 -0.04989793 -0.002920685
-0.030372992 -0.04101294 -0.013981071 -0.0017526319 0.001351705 0.038592745 0.047545686 -0.0011904415
0.029482398 -0.07260001 -0.04528874 -0.04492841 -0.13496734 -0.044187635 -0.03819155 -0.029611308
-0.028707227 0.047538366 -0.029755222 -0.0022477456 -0.041609608 0.056357004 -0.0067717787 0.028017798
-0.0013730772 0.049499772 -0.048973903 0.060869694 -0.0076356824 0.026632953 -0.015459446 0.07355346
0.05840639 -0.05404251 -0.053071715 -0.028817909 -0.021578917 -0.04200466 0.008438822 -0.0027428737
0.0015917962 -0.031463336 0.011560807 0.060044464 0.039074987 0.03670809 0.03298772 0.014059969
0.034737986 0.02912945 -0.014992645 0.031622298 -0.010066577 -0.0036894192 -0.110073015 -0.020567695
-0.02930619 -0.078064725 -0.043068703 0.004026936 -0.05167305 0.01693281 -0.030895425 0.023428679
0.057333346 0.040793996 0.024727171 0.005312854 0.019049387 0.01922318 0.022798741 -0.052168947
-0.028929437 -0.011635882 0.09250694 -0.07891601 -0.043479595 0.047745313 0.0072243144 -0.031226128
-0.03858705 0.040690493 -0.016363896 0.080078915 -0.024910904 0.06995653 0.014135536 0.007250715
0.000252753 0.012599632 -0.0292175 0.042358816 -0.016939173 -0.03472739 -0.034480814 -0.01199962
0.00658549 0.01778019 -0.06280612 0.033693355 -0.013614907 -0.0009282755 -0.08022259 -0.06740766
0.033723913 -0.10005019 -0.026271619 -0.050139237 0.025062013 -0.06985183 -0.009184647 -0.04785026

l3.0.bias f4 [32]
00000000: d9b2 05bd 07ae 403d 2eba 0f3d c12b 67bc
00000010: fbf7 2fbc cab7 ab3c 3255 d3bc c31a 3a3d
00000020: 34ab 443d 6694 313d 22b0 b83c 1cdb ab3c
00000030: 9dc9 cbbc 5ee8 16bd 174d 3e3d c487 62bd
00000040: 7599 03bd 8a76 2bbc cc6b d33c 000b f83c
00000050: 4c48 78bd 69f7 b7bc 5a58 44bc 5e87 60bd
00000060: 8c22 953c f79a acbc 7b89 4ebb e6b2 3a3c
00000070: ba32 c43c ff95 c23c 7ab8 e6bb e766 153d
-0.032641266 0.047040965 0.035089664 -0.014109553 -0.0107402755 0.02096166 -0.02579746 0.04543568
0.048014835 0.043354414 0.022544924 0.020978503 -0.02487641 -0.036842696 0.046460237 -0.055305257
-0.03212877 -0.010465274 0.025808237 0.030278683 -0.060615823 -0.022456842 -0.011983955 -0.054816596
0.01820495 -0.021069987 -0.003151505 0.011395192 0.02394997 0.023753164 -0.0070410343 0.03647509

l3.1.weight f4 [32]
00000000: 58ed 813f 9007 793f c036 7c3f 8b8a 753f
00000010: 8293 763f 5e5a 813f 1cf7 823f 020e 803f
00000020: 41b6 7d3f e6bd 7f3f ba83 7b3f 93f4 763f
00000030: a951 703f ec98 763f 8ef2 7f3f e9ce 763f
00000040: b093 7c3f b5df 7a3f e6c2 7e3f d319 7d3f
00000050: 287d 813f 3f19 843f 32cb 7a3f 295b 7e3f
00000060: 9bfe 843f 0a39 803f b93e 833f a112 793f
00000070: a6b7 7f3f 2d01 793f 730d 853f b634 7c3f
1.0150557 0.97277164 0.9852104 0.95914525 0.9631883 1.0105703 1.0231662 1.0004275
0.9910622 0.9989914 0.98247874 0.9646694 0.93874604 0.9632709 0.99979484 0.9640947
0.98662853 0.979976 0.9951614 0.9886753 1.011632 1.0320204 0.979663 0.9935785
1.03902 1.0017407 1.0253516 0.9729405 0.998896 0.9726742 1.0394729 0.9851793

l3.1.bias f4 [32]
00000000: e0e0 5abd 0064 f5bd 5891 dfbd 959f eabd
00000010: 1c70 cbbd b52a 13be 3d27 e3bd d38b cdbd
00000020: 6614 18be 50d1 42be 2215 cfbd 1b29 e7bd
00000030: 9a5d f8bd b3ea 22be 0cae cbbd 594b 35be
00000040: 2842 14be 98ac 27be c031 0fbe 4e1a 17be
00000050: 475e 58be eabf 40be b1bb 34be a22c d5bd
00000060: 652c e5bd 411b 84bd 85f0 28be 35e0 1cbe
00000070: f547 3abe 2f03 f4bd 374b a3bd 9a59 08be
-0.053437114 -0.11981964 -0.10916394 -0.11456219 -0.099334925 -0.1437176 -0.110914685 -0.10036435
-0.14851531 -0.19025159 -0.10111453 -0.11287137 -0.12127228 -0.15909843 -0.09945306 -0.17704524
-0.14478362 -0.16374433 -0.13983822 -0.14756128 -0.21129714 -0.1882321 -0.17649724 -0.10408904
-0.11190108 -0.06450511 -0.16498001 -0.15319903 -0.18191512 -0.1191467 -0.079733305 -0.1331543

l3.1.running_mean f4 [32]
00000000: 6ec4 d83c 42ea a83e b1ff 4bbe 9f6e 203e
00000010: 0be6 ecbe 3775 a53e 7ae4 23bd 66ad 993e
00000020: 7621 c63e adf8 81bd 6602 d93d 254c 9cbe
00000030: 3691 d63b f5c3 073f 727b 5d3d c26a 0f3f
00000040: 1b56 ab3e bdf9 dfbd 57c0 0a3f a3ba e73e
00000050: 25ce f43d 68d9 89be 9f4c 683c 4e47 b3be
00000060: 248b 543d 62bd c23d 67c8 b33e f89d d03e
00000070: de8f 2c3f 59c1 6abe 0c5b 74be 70bf 833b
0.026460852 0.32991225 -0.19921757 0.15667199 -0.4626926 0.3231599 -0.040012814 0.30015105
0.38697404 -0.06346259 0.105961606 -0.30526844 0.006548072 0.5303338 0.054072805 0.56022274
0.3346413 -0.10936306 0.5419974 0.4525958 0.119533814 -0.2692368 0.014178424 -0.3501534
0.051890507 0.09508778 0.35113832 0.4074552 0.67407024 -0.22925319 -0.23862857 0.004020624

l3.1.running_var f4 [32]
00000000: f390 b73e 7384 813e 58b8 863e e695 223e
00000010: c97c a93e 7378 af3e a72a 493e 484f 933e
00000020: 8723 213e 5533 a13e d209 493e 7cd5 993e
00000030: 236f 8f3e a99c 163e 3b6a 973e 10e5 a23e
00000040: 1f7b 9c3e 2df2 c83e 9352 523e 467f bc3e
00000050: 8f1e b33e 0608 763e bdd3 7b3e 091f b93e
00000060: c669 8d3e 2eea 8e3e e6a6 cf3e b05b 2b3e
00000070: 4ab5 ad3e 28cc 083f 33ac 8c3e 675e 523e
0.35852775 0.25296363 0.26312518 0.15877494 0.33103016 0.34271583 0.19645177 0.28771424
0.15736209 0.31484476 0.19632652 0.30045688 0.28014478 0.14708199 0.29573235 0.31815386
0.30562684 0.39247265 0.20539312 0.36815852 0.34984252 0.24026498 0.2459249 0.3615649
0.2761976 0.2791304 0.4055702 0.16734195 0.33927375 0.5343652 0.27475128 0.20543824

l4.0.weight f4 [32, 32, 3, 3]
00000000: 5cfb 9cbc b36b 7fbd 422a 9ebd e9d7 52bd
00000010: 3f72 6dbd 706b 563d 019d 0f3d f020 47bc
00000020: 7dea 64bc 11d7 e03c d9bc 81bb 833e e1bc
00000030: 815a 003c aefc 4f3c dad0 cbbb dd39 753c
00000040: a0d1 75bd 5883 8d3d f256 08bd 02c5 123c
00000050: 85e2 863d 7c38 b0bd 509b f2bb 005f ed3c
00000060: 5ac3 c73c 4762 5dbd 9f9a 693d 1443 ad3c
00000070: 23c9 ddbc 18e9 1fbd 4f7b 2abd 4fad ce3c
00000080: 9ae7 35bd 9a5a 9c3d 7c10 e33c 8333 e23c
00000090: 5918 9a3d ef17 dbbc 88ff 0cbd 39f5 303d
000000a0: 200e 2abd c271 023d 6086 013c cdad cdbc
000000b0: aad7 fdbb ec24 ec3c 42f1 2fbc 9116 f9bc
000000c0: 2a23 a9bd 94ce 273d e72a 1b3d 1da6 87bd
000000d0: 85f3 c0bb 26c0 69bd 4a3d 95bd bc09 043b
000000e0: 1ca6 0e3d e8fa cb3c dc79 ea3c 1d6e d43c
000000f0: 7c6d 41bd 9ac2 bd39 3356 8ebc 88da 29bd
00000100: 8038 9f3d 8a06 023c 627a 003c e1e2 7bbd
00000110: 4456 e3bc df33 94bc af92 b43c 7d33 5cbd
00000120: aa46 8bbd e674 6e3d 4bd8 1bbb f8ef 8c3a
00000130: c5e5 1e3d 069e d9bb ed82 84bc 0089 083d
00000140: 0196 d73d 7f11 193d 4e02 9cba f9a8 8abd
00000150: 8ad0 eabb a18b df3c 404b eebc c0dd 1bbd
00000160: e6e2 99bc 4de9 f7bc 9ad8 4fbd 9b72 423b
00000170: 42fd 8abd 7a0d 933d aac1 493d f448 5cbd
00000180: 3a70 903d 13d2 a4bc fe48 a9bb 6315 633d
00000190: 575b 6d3d d2d2 03bd e9ed 0a3d 1368 eabb
000001a0: bf40 70bc 5a74 aebb be28 133d 17b5 83bd
000001b0: c460 cb3c c5d5 343d a17c 4bbd 3c91 353d
000001c0: 5f9a dcbb a53d d5bc c4ca 083c 2cab 503c
000001d0: 2bae 113c b517 303d 7489 1c3d 2d53 80bb
000001e0: 12cd 39bd 4d8b d63c 80b4 453c 9ad1 8dbc
000001f0: 789c fdbb 95b9 543c c4fe 453d bcd7 353d
00000200: b635 afbc 2495 10bd f601 d4ba bf3f 3e3d
00000210: 0ecf 10bd 6c33 4fbd 015b 813c 5165 35bd
00000220: d458 40bd c28c 813d 4a0c 1abd 791a 8cbd
00000230: f182 373c a55e e7bb 85cd 43bd 1b02 503d
00000240: 8e22 3e3d 493d 4dbc dc9a c7bc e99b d3bc
00000250: 7e80 4a3d 9306 3e3c 4109 16bd 616f 423d
00000260: 2a4f 24bd aa3f 8ebc 216f 9abd 5a2c f8bc
00000270: e114 8c3d 0549 75bd 1877 91bd cbfb 06bc
00000280: 5b41 9f3d be87 463d 8b73 fdbc 148b 023d
00000290: aa1c 3fbd 440c 613c 07cf 77bd e86c 59bd
000002a0: ce35 983d 3b63 aebb 1639 be3d 4bf6 e63c
000002b0: 3731 bbbd 014e d0bb 6a85 29bd d0c5 65bd
000002c0: 5748 24bc f060 303d 5c8e 703c 4780 e83d
000002d0: 395c bcbc 7d6a 91bd 4721 04bd 95b5 84bd
000002e0: 32f9 fe3c 5994 a83c 407b 143c 3a52 1fbc
000002f0: 2e8d 3ebd 24cd 80bc e388 2c3d a79d 3ebd
00000300: c92b 4cbd 216f 74bc 1f58 84bd 96fc 93bd
00000310: 7b5e 723d daaa 663c 56f5 a33c 8dc6 283d
00000320: a3e5 03bc f2b1 28bc 96f8 583d 3f0f 173c
00000330: c787 c3bd 2261 893c 5f42 e8bc 6c53 a0bd
00000340: 8282 273c 0696 94bd 1f6a 65bd 06c7 38bd
00000350: 2b3c 0e3b cdbf 953c c526 ba3c 994e 0cba
00000360: 6c14 8abc b5d8 05bc 5327 1ebc 4a13 b93c
00000370: 7832 6ebd b842 8d3c 85e4 16bd 0242 173d
00000380: 54d1 bdbc a97a 803d a51d 2f3c eb06 453d
00000390: e38b a73c 26ee 6bbc 32e7 4cbd 6bc6 99bc
000003a0: a0de 35bd aef0 4ebd 2773 273b 3ef6 2f3c
000003b0: 2b9c 603d ef14 b4bc a0cd 97bd 88ed 6a3d
000003c0: 0257 aabb 07e3 87bd 6b54 513c b3cf ec3c
000003d0: 3b0a 17bc 860d 1bbd a5a6 edbc fcf4 1abb
000003e0: 4f66 4abd 0060 343d 887b cb3c e07f 913c
000003f0: 4132 a0bd 981b 733d be18 85bb 7f44 4abc
-0.019162826 -0.06235857 -0.07722904 -0.05147544 -0.05797028 0.052348554 0.03506184 -0.012153849
-0.013971922 0.027446302 -0.00395928 -0.027495628 0.007834078 0.012694521 -0.0062199654 0.014967409
-0.060014367 0.069098175 -0.033286043 0.008958103 0.06586174 -0.086045235 -0.0074037686 0.028975964
0.024385143 -0.054048803 0.057032224 0.02115015 -0.027073449 -0.039040655 -0.041621502 0.025229124
-0.044410326 0.076344684 0.027717821 0.027612453 0.07524175 -0.02674481 -0.03442338 0.043202613
-0.041517377 0.03184677 0.007905573 -0.025107289 -0.0077466564 0.0288262 -0.010738673 -0.030406268
-0.0825866 0.040968493 0.03788271 -0.066234805 -0.005888405 -0.057068013 -0.072870806 0.0020147404
0.034826383 0.024899915 0.02862256 0.025931412 -0.047223553 0.0003619388 -0.017375087 -0.041468173
0.077744484 0.007936129 0.007841678 -0.061495665 -0.027751096 -0.01809114 0.0220426 -0.05376004
-0.068005875 0.05821695 -0.0023780044 0.0010752669 0.038793344 -0.0066411523 -0.016175712 0.03333378
0.10526658 0.0373702 -0.0011902542 -0.0677051 -0.007165973 0.02728826 -0.029088616 -0.038053274
-0.018784951 -0.030262614 -0.050743677 0.002967036 -0.06786586 0.07180305 0.049256958 -0.05378051
0.070526555 -0.020119702 -0.005166172 0.055440318 0.057948437 -0.032183476 0.033918295 -0.00715352
-0.014663874 -0.005323929 0.035927527 -0.064310245 0.024826415 0.04414918 -0.049679402 0.04432796
-0.0067322697 -0.026030371 0.008349124 0.012736123 0.008891623 0.04299136 0.038217023 -0.0039161653
-0.045361586 0.02618947 0.01206696 -0.01731186 -0.0077396 0.012983699 0.048338667 0.044395193
-0.021387916 -0.03529848 -0.0016174901 0.04644751 -0.035353713 -0.05058615 0.015790464 -0.044286076
-0.046959713 0.063256755 -0.037609376 -0.06840987 0.011200652 -0.007060843 -0.04780342 0.050783258
0.046419673 -0.012526819 -0.024365835 -0.02583118 0.049438946 0.011598247 -0.03662992 0.0474695
-0.04011456 -0.017364342 -0.075407274 -0.030294586 0.0683992 -0.05988409 -0.071027935 -0.008238743
0.077761374 0.048469298 -0.030938884 0.031870916 -0.046658196 0.0137358345 -0.06050017 -0.053082377
0.074321374 -0.005321888 0.09288232 0.028193614 -0.09140246 -0.006356955 -0.041387 -0.05609685
-0.010027013 0.043061197 0.014682379 0.11352592 -0.022993194 -0.07100389 -0.0322583 -0.064799465
0.031124685 0.02057855 0.009062588 -0.009724194 -0.04652136 -0.015722819 0.042122733 -0.046537068
-0.049846444 -0.014919073 -0.0646212 -0.07225911 0.059172135 0.01407882 0.020014446 0.041204978
-0.008050355 -0.010296332 0.052971445 0.009219944 -0.09547382 0.01676995 -0.02835196 -0.078284115
0.010223987 -0.07255177 -0.056009408 -0.04511168 0.0021703343 0.018279934 0.022723565 -0.0005352288
-0.016855441 -0.008169343 -0.00965293 0.022592206 -0.0581536 0.017243728 -0.036839027 0.036928184
-0.023171104 0.062733956 0.01068822 0.0481023 0.020452445 -0.014400041 -0.050025173 -0.01877137
-0.044401765 -0.0505225 0.0025550814 0.010739861 0.054836433 -0.021982638 -0.07412267 0.057355434
-0.0051983604 -0.06635099 0.0127764745 0.028907632 -0.009218748 -0.037854694 -0.029010126 -0.0023644557
-0.049413975 0.044036865 0.024839178 0.01776117 -0.07822085 0.059352487 -0.0040617874 -0.012345432

l4.0.bias f4 [32]
00000000: dd5d 4dbc 4ccf d9bc de21 efbc a154 ed3c
00000010: 1520 0b3d 7546 05bc 1524 d33c f155 363b
00000020: db15 59bb dc1a 333d b31a 87bc 06a1 6cbd
00000030: ac74 f13c 27f5 dabc bc05 60bb ac4d f2bb
00000040: a49b da3c 67f1 73bb 5002 2bbd e587 1a3c
00000050: ccce 14bd 68b2 a4bc 6312 9bbb af76 5ebd
00000060: 11ab b83c 859b 33bd a967 63bd cb3f b03c
00000070: b242 26bd f6a9 783c b8c0 41bd e415 d5bb
-0.012534586 -0.026588105 -0.029190954 0.028971018 0.033966143 -0.008134474 0.025774041 0.002782222
-0.00331246 0.043726787 -0.016492223 -0.05777075 0.029474579 -0.026728226 -0.0034183105 -0.007394513
0.026685543 -0.0037222744 -0.041750252 0.009431814 -0.03633003 -0.020104602 -0.0047324165 -0.054312404
0.022542508 -0.043849487 -0.05551878 0.021514794 -0.04059095 0.015177241 -0.04730293 -0.0065028537

l4.1.weight f4 [32]
00000000: 583d 863f 3a7e 8a3f a38a 743f 539c 813f
00000010: c030 813f d797 853f ff5d 6e3f 8aaf 7c3f
00000020: 351b 843f 1c25 803f 98c6 783f d5dd 843f
00000030: 04c0 843f 6fd6 813f 6d17 763f c201 803f
00000040: efa1 843f 0f36 7c3f 31ac 803f 2c48 843f
00000050: 2144 7b3f e131 823f 6df8 773f 94bd 7e3f
00000060: 2afc 803f 8118 7c3f 8e0d 7f3f afb5 803f
00000070: 5866 813f 0179 683f f7f3 7b3f 2b76 793f
1.0487471 1.0819771 0.9552404 1.0125831 1.0093002 1.0436963 0.93112177 0.9870535
1.0320803 1.0011325 0.9717803 1.0380198 1.0371099 1.0143565 0.96129495 1.0000536
1.0361918 0.98519987 1.0052549 1.0334525 0.9815083 1.0171472 0.9686344 0.99508023
1.0076954 0.9847489 0.9963006 1.0055445 1.0109358 0.9080964 0.98419136 0.97445935

l4.1.bias f4 [32]
00000000: 4ea1 873d 27b8 ff3d 2d76 07bd f02e 5abd
00000010: b3fa 9bbc 6127 02bc 93f3 82bd 6731 b7bd
00000020: f63d 833d 5fe3 56bd f231 1dbd 2f0d 61bd
00000030: 21dd d63c 0efc d5bc 9609 d8bd 9f9b 8cbd
00000040: 3f04 0ebc 6880 45bd 368e 28bd 2f56 153d
00000050: 34fa 95bd e794 4e3b 628c e83c f596 1ebd
00000060: 55f9 39bd 64cf 6fbd b34f babd 4457 46bc
00000070: 5eda fa3c b5fb 63bd 6723 50bd a867 133c
0.06622563 0.12486296 -0.033071686 -0.05326742 -0.019040441 -0.007943959 -0.06394114 -0.089449696
0.064083025 -0.05246293 -0.03837771 -0.054944213 0.02622849 -0.026121166 -0.10548703 -0.0686562
-0.008668005 -0.04821816 -0.041151248 0.036459144 -0.07323113 0.0031521858 0.028387252 -0.038718183
-0.045403797 -0.058547392 -0.09097233 -0.012105767 0.030621704 -0.05565997 -0.050815012 0.008996882

l4.1.running_mean f4 [32]
00000000: d6aa 90be 0f74 18bf d935 fbbd c14e 1dbf
00000010: d122 28be a693 d839 e1c6 473e 7923 98be
00000020: bf94 62bd 7c89 2ebf 99ec 20bf 020e dcbe
00000030: 645d 45be 361b d6bd e334 febe bcf0 8fbe
00000040: 5001 4dbf 762d 023e 874d 2cbf c9e4 41bf
00000050: cd3f c6bd 0921 28bf d148 66bf 7a79 a5be
00000060: a124 e7be 7b73 cbbe 6037 cebe fec8 433e
00000070: 5028 433e 578b fdbe 34f0 12bf 925b 703e
-0.28255337 -0.5955209 -0.1226613 -0.61448294 -0.16419531 0.00041308737 0.1950946 -0.29714563
-0.055317637 -0.68178535 -0.6286102 -0.42979437 -0.19273907 -0.10454409 -0.49649724 -0.28113353
-0.8008013 0.12712654 -0.673058 -0.75739723 -0.09680138 -0.6567541 -0.8995486 -0.32319242
-0.45145133 -0.39736542 -0.40276623 0.19119641 0.19058347 -0.4952037 -0.5739777 0.23472431

l4.1.running_var f4 [32]
00000000: dc27 103f 7375 993f f040 0e3f 6289 0a3f
00000010: b0d9 a13e 5a9c 913e 424c 423f 5281 0240
00000020: 68a9 c63e 686e 433f e256 d33f 0eec 5b3f
00000030: 3fa5 123f 919c 653f a958 ca3f 0592 b43f
00000040: 8829 3d40 8942 183f 69cf e33f 5af5 b73f
00000050: ec70 7f3f a92c ab3f 88d9 4e40 5200 cd3f
00000060: f83e b73f ab32 563f e5e4 f03f 970f cd3e
00000070: adc7 bd3e 1bc8 2e3f c1aa 003f 4f03 783f
0.5631082 1.1988968 0.55567837 0.5411588 0.31611395 0.284396 0.7589761 2.039143
0.38801122 0.7634034 1.651089 0.85907066 0.57283396 0.89692026 1.5808307 1.4107062
2.9556599 0.59476525 1.7797672 1.437175 0.9978168 1.3373004 3.232027 1.6015723
1.4316092 0.83671063 1.8819853 0.40050957 0.37066403 0.68274087 0.5026055 0.9688005

l5.0.weight f4 [32, 32, 3, 3]
00000000: 432b f43b e90d 6d3d 1f7c ef3c 3a0d c73b
00000010: 4d49 433d a5a5 b33c d562 20bd 4f39 093d
00000020: 204a 3d3a ede9 cc3b 9893 02bd 9c70 a8bc
00000030: 5191 1b3c 921c 2a3d 49f8 7bbc 02b7 86bd
00000040: e903 fabc 8f55 1dbd 7271 3fbc 75a5 c93a
00000050: 71bb ccbb 5494 c63c 6f21 173d 6cf6 80bb
00000060: 1ef8 a7bc f797 c8bc 164b abbb b056 cd3c
00000070: a241 493d cbeb 303d 956d e23c d0a9 893c
00000080: 7af6 e23b 344a 8fbc ad90 3a3d 2821 d1bc
00000090: dbee b2bc cf34 593d 45c0 bf3b e754 723d
000000a0: e83c 973d 0fa0 34bb 6ddf 53bc 9ef2 1fbd
000000b0: be2c 553c d499 eabc 0002 65bb 734d e73c
000000c0: 0859 513c 99d0 6e3c b4bd 98bc 9677 b8bd
000000d0: 8344 76bc 3502 833c 47aa 553d c3fd 693d
000000e0: 1b1e 1b3d 6e82 ce3d 470b c13d aaed 7d3d
000000f0: 308f 1a3d 61c9 893d 0852 843c e475 9cbc
00000100: 3b89 63bb 386f 05bd dec9 933d ef1d cf3c
00000110: 499d 223d 1dfb 893d b5e7 083d 0072 8d3b
00000120: 06e1 e1bc 8c58 8fbd c966 dbbd 0451 483d
00000130: 6556 09bd 2016 74bd 31a2 f4bc bc12 e2bc
00000140: 0a48 75bd e6fb 1b3d d762 d53c 0b5d 9abb
00000150: 982b e03c 7b22 023d 0b43 df3c 950a d8bc
00000160: 930c 043d 6a55 13bc 9ac8 0fbd df48 73bd
00000170: 2dad d5bc 8967 e43c 0594 c9bc 5a4b 8c3c
00000180: b20b 3c3c 0882 a53b 34e5 d33c 6dd2 933b
00000190: 025a 8d3d 24ad c33c 9ba0 7a3c 87d5 80bb
000001a0: d048 8cbc e6f1 cfbc 7230 2d3d ed84 a3bd
000001b0: 1a8a 4b3d 281d 0cbd 57ee 6abc 787d b53b
000001c0: fbf7 00bd e7ae 0ebc 3834 ecbb b558 4cbd
000001d0: f486 283d accf 133d f41d cf3c 46c2 323d
000001e0: b30a 85bb a887 92bc 0b30 1e3d ae6a 493d
000001f0: b285 773d 86c3 04bd 989f c73b 2a86 5a3d
00000200: 9314 693d 9a69 81bb 7d30 9bbc c436 723c
00000210: 3ee8 e03c eb95 0e3d 759e 45bd f86b aa3c
00000220: 604e 7b3a 7ffe 56bd 266f 1abb dce2 1cbc
00000230: f998 80bc 18b8 3d3d e2de 9fbb 4596 10bd
00000240: df5e 593d 6375 603c 161f 14bc 8bd4 22bb
00000250: 90e8 273d e517 313d 63bb 40bd add2 e63b
00000260: 253f 2b3d 20dd 64bd 8000 01bd 00f3 a0bd
00000270: 92a9 a7ba 0513 97bc bf24 52bd ddb3 be3c
00000280: 9117 a3bb aef3 803c 0f2d 6d3d a1c6 b5bc
00000290: ca47 dd3c 710a 963d 62d5 c3bc bb1a d43c
000002a0: 069b 383d f512 9b3b add5 9b3c 2d2c 5cbd
000002b0: bc84 1d3b 7988 41bd 91be 663c 9b08 8abd
000002c0: 7a5f 8bbc d737 bdbd e465 3abd d229 a3bc
000002d0: 25ec 063d b36a 31bb 6fd4 ea3c 0b4e 243d
000002e0: dba8 56bd 62d7 043d a1f3 a73d 3bad 523d
000002f0: 022a e03c 4054 50bd 86b1 9fbc bea2 3ebd
00000300: 4560 bf3c f6b9 3a3d 8b70 8cbc 4f80 ccbb
00000310: ba80 0a3a 1f6b 49bc f20b d83c dd45 4e3c
00000320: 04d3 d9bc 77fe 96bc 9ca3 bdba 16da 01bd
00000330: 8f36 893d 87a7 df3c 3966 733d 2439 60bd
00000340: 4220 663b ef1f 6abd af22 7e3c dc42 a3b9
00000350: 9bd3 76bd 6d2f 6b3d f052 393d 9d97 ce3c
00000360: 1efb b13d 8fbb 063d dd25 a33d 7d74 573d
00000370: dfc2 173b 529f e33b 43a6 853c 76d2 393d
00000380: e55f ad3d aa09 fc3c c0fd 103b 7b45 1b3d
00000390: 0125 3f3c e84f 0cbc e7af 68bc e9d2 81bc
000003a0: de45 eb3c 307d bcbc 13ab 083c 04a9 4d3d
000003b0: 771a 093d 46d5 c13c 5313 613c 0839 c73c
000003c0: d12f 823d 72cf a53d fe4a 3f3d 4290 863c
000003d0: 8140 11bd 21db 87bb 4927 5bbc 5749 0d3d
000003e0: 3875 bc3c 90a2 ed3c 907b 4cbc 6f80 5b3d
000003f0: 1528 2dbc 45b5 4fbd a9a1 553c 170d 78bd
0.0074514463 0.057874594 0.02923399 0.006074575 0.047677327 0.021929571 -0.039156754 0.03350192
0.00072208233 0.006253472 -0.031879038 -0.020561509 0.009495095 0.041531153 -0.01537902 -0.06577875
-0.030519443 -0.038411673 -0.011684762 0.0015384393 -0.0062479307 0.02424065 0.03689712 -0.003935626
-0.020504054 -0.024486525 -0.005227457 0.02506575 0.049134858 0.04319362 0.027640143 0.016804606
0.006926355 -0.017491437 0.04554813 -0.025528505 -0.02184241 0.053028878 0.0058517777 0.059163
0.07384664 -0.0027561223 -0.012931687 -0.039049737 0.013011156 -0.028637804 -0.003494382 0.028235173
0.012777574 0.014576101 -0.018645145 -0.09007184 -0.015030983 0.015992263 0.052164342 0.05712677
0.037870508 0.10083471 0.09425979 0.061994232 0.03773421 0.06727863 0.016152397 -0.019099183
-0.0034719247 -0.03257677 0.072162375 0.025282828 0.03970078 0.06737349 0.033424098 0.0043165684
-0.02757312 -0.06999311 -0.10712964 0.048905388 -0.033529658 -0.059591413 -0.029862495 -0.027596824
-0.059883155 0.038082026 0.026048107 -0.0047107986 0.027364537 0.031771164 0.027253648 -0.026372233
0.032238554 -0.008992532 -0.035103418 -0.059395667 -0.026083553 0.0278814 -0.024606714 0.017125774
0.011477398 0.0050509013 0.025866129 0.0045111687 0.06901933 0.02388627 0.01529708 -0.0039317044
-0.017124563 -0.0253839 0.04228253 -0.07984338 0.04969225 -0.034207493 -0.014339051 0.0055386387
-0.031486493 -0.008708692 -0.0072083734 -0.049889285 0.041144326 0.036086723 0.025282837 0.043642305
-0.0040601133 -0.017886952 0.038620036 0.049174003 0.060430236 -0.03241303 0.006092023 0.053350605
0.056904387 -0.0039493563 -0.01894402 0.014783565 0.027454492 0.03481094 -0.04824682 0.020803437
0.0009586569 -0.0524888 -0.0023564785 -0.009575572 -0.015697943 0.046318144 -0.0048788646 -0.03529956
0.05306899 0.013699862 -0.009040615 -0.0024845924 0.040993273 0.04323568 -0.047053706 0.0070441575
0.041808266 -0.055874944 -0.031494617 -0.078588486 -0.0012791625 -0.018441686 -0.051304575 0.023279125
-0.0049771746 0.015741196 0.0579043 -0.02218944 0.02701177 0.0732621 -0.02390546 0.025891652
0.045069717 0.0047324845 0.019022787 -0.053753067 0.0024035415 -0.04724929 0.0140835205 -0.067399226
-0.0170133 -0.09239166 -0.045507327 -0.019917402 0.03294005 -0.0027071654 0.02866575 0.04011349
-0.052407127 0.032431968 0.082007654 0.051434737 0.02736378 -0.050861597 -0.01949383 -0.04654192
0.023361335 0.045587502 -0.017143508 -0.0062408815 0.0005283464 -0.012293606 0.026372883 0.012589899
-0.026589878 -0.018431885 -0.0014468315 -0.031702124 0.06699859 0.027301563 0.05942366 -0.054741994
0.0035114442 -0.05715936 0.015511199 -0.00031139597 -0.060260396 0.057418276 0.04524511 0.02521878
0.08690475 0.032893714 0.07966206 0.052601326 0.0023156924 0.0069464827 0.016314631 0.045366727
0.08465556 0.030766327 0.0022123903 0.03790806 0.011666537 -0.008563973 -0.014202095 -0.01584764
0.028719839 -0.023008913 0.0083415685 0.050210014 0.033472504 0.023661267 0.013737517 0.024319187
0.063567765 0.08096208 0.046702377 0.01642621 -0.035461906 -0.0041459952 -0.0133760655 0.03449377
0.023005113 0.02900818 -0.0124806315 0.05358928 -0.010568638 -0.05070998 0.013039031 -0.06055936

l5.0.bias f4 [32]
00000000: 2697 6a3d 378e 853c c2b7 6abd 4b79 25bd
00000010: 2fac 36bc 6779 353d f06a 0fbd ca4b 21bd
00000020: 625a 12bd 153e 96bc c360 0a3c 591e 373d
00000030: 6246 02bd 90f1 3d3d 59b1 c0bc da26 55bd
00000040: c738 5bbd 4a8b 513d cca1 70bd 11dd 55ba
00000050: 4580 733b 5b55 dc3b f69b 0a3c ddc3 323d
00000060: cd47 87bc cf78 0e3d 6f7b 873c 1599 7f3b
00000070: a8d7 0fbc 1412 d4bc 41d7 40bd c169 273d
0.057273053 0.016303165 -0.05730415 -0.040398877 -0.01114945 0.04430523 -0.035014093 -0.03937892
-0.035730727 -0.01834015 0.008445921 0.044706676 -0.031805404 0.04637295 -0.023522066 -0.052039005
-0.053520944 0.051158227 -0.05874805 -0.00081582466 0.0037155312 0.0067240424 0.008460036 0.04364382
-0.01651373 0.03478318 0.01653835 0.0039001156 -0.008779444 -0.025887527 -0.047080282 0.04087234

l5.1.weight f4 [32]
00000000: b222 7e3f 66d4 863f e936 983f 7da3 893f
00000010: 1efc 823f 3de1 7e3f 71ca 823f 6fb3 853f
00000020: 59b8 7e3f 835f 803f d21e 823f a83e 833f
00000030: b1bb 823f ada6 843f 0d2a 843f be79 823f
00000040: d2af 883f 0618 803f 6421 813f d34e 813f
00000050: f886 933f 4f72 833f 702a 833f 24e5 863f
00000060: 95e1 823f 11dd 863f 422c 803f 6e34 833f
00000070: 83b1 8b3f 205d 833f b7a1 873f 7bed 853f
0.9927169 1.0533569 1.1891757 1.0753018 1.023319 0.99562436 1.021803 1.0445384
0.9950004 1.0029148 1.0165656 1.0253496 1.0213529 1.0363365 1.0325333 1.0193403
1.0678656 1.0007331 1.0088315 1.010218 1.1525564 1.0269259 1.0247326 1.0538678
1.0225092 1.0536214 1.0013506 1.0250375 1.0913547 1.0262794 1.0596226 1.0463098

l5.1.bias f4 [32]
00000000: 186a 43bd 3fca f83d 14e8 2a3e 4b56 d0bc
00000010: 7e26 fe3c 7f3c 483d 0349 803d f57c c43c
00000020: be32 713d 5cf8 5cbd a87d aebb ab9a 123d
00000030: 09a5 723c 50eb de3c fc70 f93d 0b02 633d
00000040: bdee 0fbd 1898 513d fe94 6b3d a791 593c
00000050: 79b5 2c3e 5eef be3b cdf1 103c ada8 b23d
00000060: fd0f 643d 88d7 10bc 699a db3c b580 823d
00000070: 1a35 2f3e 3207 883d 20d7 a63c 4616 f33c
-0.0477086 0.121479504 0.16690093 -0.025431773 0.031024214 0.04888582 0.06263926 0.023985365
0.058886282 -0.05394779 -0.005325038 0.035792034 0.014809855 0.027211815 0.12179753 0.05542187
-0.035139788 0.05117044 0.057515137 0.013279355 0.16866101 0.0058268746 0.008846712 0.087235786
0.05567931 -0.008840449 0.026807027 0.06372205 0.171101 0.066419974 0.020366251 0.029673707
