models/bs32_000049.pth (torch_old, 173832 bytes, 32 tensors)

l1.0.weight f4 [32, 12, 3, 3]
00000000: 1a38 a53d 6ded a1bb b068 8d3c f2d0 7b3d
00000010: d7ca 8dbd dd11 9e3d bcae 72ba f965 8d3d
00000020: fae1 143d 6aea 233c 1958 683d b65b 193d
00000030: 62ae 2d3d dcce adbc 9f3f 363c 5958 c53b
00000040: 6e99 013d 53a2 ca3c 7d02 c83d 0a07 443d
00000050: 5775 53bc e3f3 71bd 79e1 25bc 2389 f5bc
00000060: 7182 a2bc 66f6 943c 7079 a53d 09be 483d
00000070: 9d67 cabd 5cf0 7a3d 87b5 5a3c f2ff a33d
00000080: ac39 693d 1656 abbd 49bc b6bd 4040 0cbd
00000090: d3a4 853d 2463 23bd 641b d13c 763b 8dbd
000000a0: 7a6c 903d 90b8 60bd 79bf 883d 7e3b 8bbb
000000b0: 22dd 2fbd 19ce 4c3d 3219 81bd 05fc c93c
000000c0: 3f00 0bbd ee0d ccbc aff9 c9bd 2eb0 ecbc
000000d0: 8a4e 743d f778 60bb f91f cc3d 82bf 9d3d
000000e0: c39d 083c 178a 9cbd 6aec 363d 3f33 cf3c
000000f0: 70a1 64bd 1cd1 793d b2d7 8d3d b629 ca3d
00000100: 4042 1fbd 27f3 0b3c f9e4 15bb a0af 9e3c
00000110: 380f 6fbd 6411 53bd 6ed0 933d 1cd3 0f3c
00000120: b2ea 893d 6ce7 2c3c bb18 313d 85d6 c03b
00000130: 1b34 353b 0b62 c73c 39b2 b6bd f960 d73c
00000140: cf99 90bd d847 8dbd 30e6 2e3b ff23 7ebc
00000150: f3b0 533d b0c9 86bd d71e babd 27d4 903d
00000160: 1a75 b5bc 6eca 583d 4161 1a3d 532c 95bd
00000170: d090 c03c ce87 b63c ab28 94bd 16bf 49bd
00000180: ee3e 153d f86c 453c 6de1 22bd 4ff2 58bd
00000190: 04e8 743d a4ff 2abd 9450 733d 1007 3c3d
000001a0: 3ad4 79bd 7086 85bd 7101 e73d f771 843c
000001b0: 4583 533d 4b44 3f3c 4342 8a3c 02f2 9d3d
000001c0: 2ff4 c93d 72ec 7cbd 401b b53c 2f25 a63d
000001d0: 8d06 a43d f17a a03d 58b7 38bd ee83 73bd
000001e0: 4b22 acbc fc1f 563d babb f63d b8c9 babc
000001f0: c89c bc3d 93a9 b8bc b6d4 cdbd 74b3 a9bc
00000200: 03d0 373d a7bb bb3d 9bf2 43bd 72a9 c23c
00000210: 7e47 ae3d 560f 983d 4122 8b3d 83d7 873d
00000220: c88f 8f3d ed93 143d eed1 50bd aaaa 68bd
00000230: d45b b4bc 5f16 173c 9cbd 03bd b70e 7d3d
00000240: 8902 6ebc cf15 62bd 5003 863c dee0 82ba
00000250: 4076 003d e94e 463d 5d8c 4cbd 0f17 a43d
00000260: 0665 4cbc d284 65bc 3d89 a5bd 7434 1abd
00000270: 4942 77bd 96b2 02bd 6a28 b93d bc2f b0bc
00000280: a833 4fbd 57e3 8c3d e1b5 613d 5d12 d73d
00000290: 97f8 43bc 118e 5d3d 2910 693c aa39 a33c
000002a0: b8ba 35bd fd89 943a bb03 3a3c 08fb ec3c
000002b0: 8469 533c 1be8 603c 149e bf3d e242 c03d
000002c0: b801 7b3d 4667 4f3b 2b33 7ebd 42b1 a53d
000002d0: 90b1 d6bb 29ba d93c f4b6 62bd 28c3 7ebc
000002e0: 2580 1fbd 347a d23d 93f6 97bd 3adb 52bd
000002f0: 12f3 c43c 40f4 64bd 30b3 023d a778 23bd
00000300: 3f3c 78bd 6ec7 0cbc 0954 6a3d 46a6 99bd
00000310: b703 1e3d 0ef2 733d 78f1 9e3d 8830 93bd
00000320: bd77 ae3c 093f c1bd d2c0 8b3d 7e26 40bd
00000330: a3fb 193d 475f 3bbc c493 41bc 9223 c5bc
00000340: 2d4a 09bc 831d 103d 466a e13c c18a 5a3d
00000350: 160b 5bbd 2c46 a73d f0b8 e33d c14b db3d
00000360: 6edd 873d 2556 9abd 30fd b2bc 47f1 873d
00000370: 4bd9 c4bd 6d8e a53d 8160 d8bd a05c d1bd
00000380: dd9a f23c 5fc8 a1bd 4970 3fbd 357c 873d
00000390: aa12 433d cded 3b3d b4cb 2abd 1301 ecbd
000003a0: beac 313d 7840 43bd a84f 0bbd f94a 533c
000003b0: 8a67 63bd 6294 633d 6bca 0c3d b154 a3bd
000003c0: 8ac2 c0bd 5c10 0cbd c604 0d3d ceb7 a23c
000003d0: 58e2 26bd 2eec fa3c f401 c4bd 9b16 b9bd
000003e0: bd99 7abd 8359 433d 9f4a 413d fe3b 1bbd
000003f0: 6c07 413c 892c 513d 2567 a43c 1bea 1dbd
0.08067341 -0.0049416334 0.017261833 0.061478563 -0.06923454 0.07718251 -0.0009257605 0.06904215
0.03634832 0.010004619 0.05672464 0.037440978 0.042402633 -0.021216802 0.011123567 0.0060224948
0.031640463 0.024735605 0.097660996 0.047858275 -0.012906394 -0.05907048 -0.010124558 -0.029972618
-0.01983759 0.018183898 0.08079803 0.049009357 -0.09883044 0.06126438 0.013348944 0.08007802
0.056939766 -0.08366029 -0.08922631 -0.03424096 0.06525578 -0.03988947 0.025525756 -0.06896107
0.0705194 -0.054863513 0.066771455 -0.0042490354 -0.042935498 0.050001238 -0.06303634 0.024656305
-0.03393578 -0.024908986 -0.098620765 -0.028892603 0.059645213 -0.0034251788 0.09967036 0.07702543
0.008338395 -0.07643526 0.044659056 0.02529299 -0.05581802 0.060990438 0.06925906 0.09871237
-0.03888154 0.008541859 -0.0022872074 0.019370854 -0.058364123 -0.051530257 0.07217489 0.00877836
0.06734218 0.010553222 0.043236475 0.0058849477 0.0027649465 0.024338743 -0.08920712 0.026291357
-0.07060587 -0.06898469 0.0026687495 -0.015511512 0.051682424 -0.065814376 -0.090879135 0.07071715
-0.022150565 0.052927427 0.037690405 -0.07283845 0.023506552 0.022281554 -0.07234319 -0.0492545
0.036436968 0.012049906 -0.039765764 -0.05296546 0.05979158 -0.041747704 0.059403017 0.045905173
-0.06099341 -0.065197825 0.11279572 0.016167624 0.05163886 0.011673997 0.0168773 0.07712175
0.098610274 -0.06174893 0.02210772 0.08112561 0.08009062 0.07835949 -0.045096725 -0.05945199
-0.021012446 0.052276596 0.12047525 -0.022801265 0.09209591 -0.022541797 -0.10050337 -0.020715453
0.04487611 0.09166651 -0.04783879 0.023762438 0.0850973 0.074248 0.06793643 0.066329025
0.07009846 0.036273886 -0.050981455 -0.056803383 -0.022016443 0.009221642 -0.032163247 0.06178161
-0.014526972 -0.05519658 0.016359001 -0.0009985229 0.031362772 0.0484151 -0.04993855 0.080122106
-0.012475258 -0.014008718 -0.08082817 -0.03764768 -0.06036595 -0.031908594 0.090409115 -0.021507137
-0.050586373 0.06879299 0.055105094 0.105015494 -0.011961124 0.054090563 0.014225044 0.019924957
-0.044367522 0.0011332628 0.0113534285 0.028928295 0.012903575 0.013727213 0.09356323 0.09387757
0.061280936 0.003164725 -0.062060516 0.0809045 -0.006551929 0.026578026 -0.05535026 -0.015549459
-0.038940568 0.10277215 -0.07420077 -0.051478602 0.024041686 -0.055896997 0.031909168 -0.039909985
-0.06060433 -0.00859247 0.05720905 -0.07502417 0.03857776 0.059557013 0.077609 -0.07186991
0.02129733 -0.09435851 0.06823887 -0.04691171 0.037593495 -0.01143629 -0.011815015 -0.024064813
-0.008379501 0.035184395 0.027516495 0.053354982 -0.05347737 0.08167681 0.111192584 0.10707808
0.06634031 -0.07535962 -0.021849245 0.06637817 -0.09611758 0.08083806 -0.10565282 -0.10222745
0.02961486 -0.07899546 -0.046737943 0.066154875 0.04762522 0.04588108 -0.041698173 -0.115236424
0.04337763 -0.047668904 -0.034011513 0.012896293 -0.055518664 0.05556143 0.03437273 -0.07975138
-0.094121054 -0.03419529 0.03442838 0.019863036 -0.040743202 0.030630197 -0.09570685 -0.09037515
-0.061181773 0.047692787 0.047190305 -0.03789901 0.011781555 0.051067863 0.020068714 -0.03855334

l1.0.bias f4 [32]
00000000: beab 613c 37f5 89bd aee1 bcbd 3282 5c3d
00000010: ec3c 7dbb 46ea 223d 7922 94bb f0fa 733d
00000020: 0c5e 93bd 4a94 73bd 7bea b9bd b38b a8bd
00000030: 8323 8c3d 34d1 48bc 0427 37bd 6f70 00bd
00000040: 788c f8bb b2f6 b0bc ddfe b5bd 6687 823d
00000050: 5327 cdbb f6f7 95bd 3578 d83c c70f 98bc
00000060: a0ba a6bc 7371 a6bd 5146 c3bd fbd9 ed3c
00000070: d1da b3bd b0e3 773d 0b01 95bd c453 fabb
0.013773857 -0.06736224 -0.092227325 0.0538351 -0.0038641049 0.0397742 -0.004520711 0.059565485
-0.071956724 -0.05946759 -0.09077927 -0.082297705 0.06842711 -0.012256909 -0.044714943 -0.031357225
-0.0075851046 -0.021602008 -0.08886502 0.063734815 -0.0062607913 -0.073226854 0.026424507 -0.01856221
-0.020352662 -0.081271075 -0.09534896 0.029034605 -0.0878197 0.060519874 -0.072755896 -0.00763938

l1.1.weight f4 [32]
00000000: b9bd 793f f4a5 763f 4e33 813f 4d27 7f3f
00000010: f429 793f d72b 7a3f 42e2 803f 25b6 803f
00000020: 7817 743f 09bc 853f 116c 823f d44a 763f
00000030: d3a1 7d3f 1df8 813f 645d 793f ee27 7c3f
00000040: 1b85 813f 29e8 7f3f 81e7 813f bdcb 7b3f
00000050: 62d6 833f f06a 843f 39ff 813f a6f5 793f
00000060: 0890 7c3f 4584 7e3f f6d1 853f dfad 853f
00000070: a165 7e3f 67ce 7b3f cd4d 823f a29b 7b3f
0.9755512 0.96346974 1.0093782 0.99669343 0.9732964 0.97723144 1.0069048 1.0055586
0.9534831 1.0448009 1.0189229 0.9620793 0.9907505 1.0153843 0.9740813 0.9849843
1.0118746 0.99963623 1.0148774 0.98357755 1.02998 1.0345135 1.0156013 0.97640455
0.98657274 0.9942058 1.04547 1.0443686 0.99373823 0.9836182 1.0179993 0.9828435

l1.1.bias f4 [32]
00000000: 97fe 74bc 134a 0ebc 1009 3bbc 2e8b 9b3c
00000010: f48f 5e3b 4e56 c8bc 9c5b ba3c 649c 64bd
00000020: b2c2 0cbd b137 5f3d 8f43 5a3d 671d bd3a
00000030: 41af 52bc 7ac5 9f3d 2bbf 6cbb 2a2b db3b
00000040: 4e3c b53c 3523 35bd 6747 9e3d c2ce 363d
00000050: c73c 2e3d cb8c 923c 76fd b3bc 0dad bcbc
00000060: 6352 543a 6385 ad3c 64a3 283c 3517 0c3c
00000070: 6659 d3bb 56a6 013e 16af e93c 9b3f 23bc
-0.014953277 -0.008684653 -0.011415735 0.018987264 0.0033960314 -0.024455216 0.02274876 -0.05581321
-0.034365363 0.05449647 0.053287085 0.0014428318 -0.012859167 0.078013375 -0.0036124687 0.006688495
0.022123482 -0.04422303 0.07728463 0.044630773 0.04253843 0.017889401 -0.021971446 -0.023031736
0.0008099435 0.021181768 0.010292862 0.008550455 -0.006449866 0.12661108 0.02852587 -0.009963895

l1.1.running_mean f4 [32]
00000000: 1fe4 bdbe 7ba5 34bf 9780 b53e b334 5f3e
00000010: 28ff 1cbf 0a08 233e 018f 063f 0b2f 093e
00000020: d453 76bf e200 f63e 1de1 083d 29a7 02bf
00000030: 4c00 5a3f 10b6 7b3e c804 41bf 35be 803e
00000040: cd4a b9be 3f0e e63e 810e 33bd a2c4 15be
00000050: 444d a23e ddb6 1f3e 001b 4d3e 1404 183f
00000060: 8108 bbbe ae0b b2be 3dfc e03e e750 513f
00000070: 2598 8f3e de68 f93d 89ed e13e c840 053e
-0.37088105 -0.70565003 0.3544967 0.21797447 -0.6132684 0.15921035 0.52561957 0.13396852
-0.9622166 0.4804755 0.03341781 -0.51036316 0.85156703 0.2458117 -0.7539792 0.25145116
-0.3618988 0.44932744 -0.043715004 -0.1462579 0.31699574 0.155971 0.20029831 0.5938122
-0.36529925 -0.34774536 0.43942443 0.8176407 0.28045765 0.12178205 0.44126537 0.13012993

l1.1.running_var f4 [32]
00000000: 4d13 343d 553b 223e cb3a e73c c2fa 363c
00000010: c059 ef3d ae61 db3c b418 a23d 4dc5 393c
00000020: dd69 923d 55fa 643d 4558 013c b869 c63d
00000030: f5ac 153e 0d8b aa3c acfa c93c d0d0 6e3c
00000040: 24fc 243d 4ac7 113d 15f9 143c 1f9b 6b3d
00000050: 5b13 cf3c 13a9 c73c b21b 103d 4cfb 8b3d
00000060: 0cbb 363d 1b1b a43c e383 5b3d 9b50 893d
00000070: c10f bc3d 4322 3a3c 8577 353d b496 483c
0.04396372 0.15842946 0.028226277 0.011168184 0.1168704 0.026779976 0.07914868 0.011338544
0.07149098 0.055902798 0.00789458 0.09688133 0.14616759 0.020818258 0.024655662 0.014576152
0.040279523 0.035590447 0.009092589 0.057520982 0.025277784 0.024372613 0.035182662 0.068350405
0.044611976 0.020032456 0.053592574 0.067048274 0.09182692 0.011360708 0.044303436 0.012242962

l2.0.weight f4 [32, 32, 3, 3]
00000000: fd86 20bd 145b 28bd 0c9c 13bd fbca 80bd
00000010: 1837 2abd 5cfe f2bc 678f 13bd d786 363c
00000020: d04f 22bd 8ac3 93bc 911e 973c 3400 2e3d
00000030: 0cf8 273d d149 86bd 2002 67bd 0ccd 1e3b
00000040: 5ee1 22bc 0d59 f13c 2406 af3c 80a7 4abd
00000050: 830f 133d c114 af3c 959c 363d 6259 56bb
00000060: da5c 753d fede 83bc 34a3 373d 06e2 4b3d
00000070: 6474 423c ead3 12bd 31e3 03bc 34ef 173d
00000080: 6525 4abd a730 4abd 085e 91bc b99f 6dbd
00000090: 0a9b 1ebc ade5 1fbc 2975 0e3d 8065 65bd
000000a0: 6182 51bd ab56 2d3d 2b83 a2bc 2b8a 81bd
000000b0: ba54 863c 1692 6fbd ee89 6abc 1d25 de3c
000000c0: 1614 80bd b732 87bd 0e0e 37bc 7c54 9bbc
000000d0: 91ad 9bbb 3ab8 4e3d b925 10bb cac7 2b3c
000000e0: f444 28bd 65f2 46bd d59e 49bd 98af 8a3d
000000f0: a923 11bd e0f2 2a3d 84a8 6c3d 1935 45bd
00000100: dab4 c83c a6ca b2bc ef82 b93c 65e0 f53c
00000110: 045a 583b 303e f73c c685 863c 28bb 8e3c
00000120: 20e2 95ba b8db 16bc 0f17 04bd 149d 17bd
00000130: f47e fdbc 4c67 0c3d c621 563d 3c5c 2cbd
00000140: 6bf8 0dbd c08c ffbc af84 7bbd df17 abbb
00000150: 7a05 9f3c 3546 603b ece9 cb3c 9508 6e3b
00000160: 0130 0bbd 4ebe a7bb 266f 23bd a6e7 61bc
00000170: 167c 2ebd 36eb 1f3d 89dc 48bc 27be 17bd
00000180: e4a9 89bd ecf3 c6bc 9dca c1bb bbc0 053a
00000190: 9167 3c3d 893a a53c cb9b cebc 774a bf3c
000001a0: e9d8 44bd 61bd 84bc 3e4f d7bb 3b1c 3db9
000001b0: 512a 90bc 76d1 153c 370b f23c 937b 59bb
000001c0: 5fe1 5abc f488 2fbd 9d1b 04bd 7599 46bd
000001d0: 0306 e23b e359 72bd 37fc ebbc 5185 ce3c
000001e0: 127a 76bd 335d 203d 50f4 0cbb ecda 22bd
000001f0: 091e 463d 99da 393d 13a6 dabc 081d 6d3c
00000200: 5703 a4bc 8f2e 8dbd 9b32 c03c 00d1 843c
00000210: feeb 2b3d f118 f6bc 3aa7 78bc 4fa0 843c
00000220: 7de7 72bd b031 e03c d95f 4cbc d42a 39bc
00000230: d57e bebb 81c8 f83b 7719 55bc b09d 83bd
00000240: 4f4f 3c3d 4154 02bd 993d febb 1bbc 8ebd
00000250: 49f0 14bd 052f a03c c5c9 983b 57bc 133b
00000260: 71b8 20bd ed73 67bd 0a37 133d 7c6a 0cbd
00000270: 0faa 2e3d add3 c6bc 2eca 863d d9a9 0b3c
00000280: 0348 eabc 5ff2 a03d 08ab 7e3d f1e6 20bc
00000290: fc01 b8bc 393e 04bc 10c4 3c3a 0a3f ed3c
000002a0: fb61 c93b 616a 983d fc51 9d3d 0a4f 063d
000002b0: 85b0 00bd 65fb 2d3d d901 87bc b5e8 cbbb
000002c0: bef1 96bd 69aa 013d c4c1 6cbd 3849 103a
000002d0: e751 44bd 419b 94bd 01ff 42bd 1c65 513d
000002e0: fb23 d43c b8f9 3abd a19b f03c 7674 3ebc
000002f0: 21b2 dfbc c638 99bd 5c37 35bd ec66 333d
00000300: cee3 3dbd f772 ef3c 9aa1 bcbc 33b2 44bd
00000310: 3ae4 0bbd 2d66 bc3c 8def ef3c bf09 c53c
00000320: fe21 b03c a05b e7bc eb68 c63a 6b71 6a3c
00000330: 1343 83bb c480 733d 3964 823d 87e2 463d
00000340: ef6b 473d 53be 5ebd 381f c1bc cf56 053d
00000350: dabe 2b3d 177d 43bb 2f0e 0e3c 444e 8d3b
00000360: f868 eebc 206c 28bd 0854 5cbc 679b 97bc
00000370: 14cc b83c a97d 11bd 4775 2a3c bae9 343d
00000380: 13d9 763c 9f85 173d b26b a03c caef 98bd
00000390: 1ba5 42bd d5ae 4b3c ebcf 33bd 57c9 09bd
000003a0: 43c5 01bd cd4e 8dbd 767f 5cbc 6cb8 a7ba
000003b0: 9ed9 85bc ef71 42bd 1c68 53bd e786 283d
000003c0: 16e9 173d e89b 22bd b3df 52bd 8782 eabc
000003d0: 3092 2dbd 556e 52bd e11f 3fbd 0d71 6c3d
000003e0: 2663 e33b e638 243d ffdb fe3c d11f a63c
000003f0: e795 8cbc 8e3b 3e3d b802 04bc 1bac 01bd
-0.039191235 -0.041102484 -0.03603749 -0.062887155 -0.041556448 -0.029662304 -0.03602543 0.011140547
-0.039626896 -0.018037576 0.018447192 0.042480662 0.04100804 -0.06557048 -0.05639851 0.0024231104
-0.009941427 0.029461408 0.021365233 -0.049476147 0.035903465 0.0213722 0.044582922 -0.0032707085
0.059903003 -0.016097542 0.044833377 0.0497761 0.01186857 -0.03584663 -0.008049772 0.037093356
-0.04935207 -0.049362805 -0.017745033 -0.05801365 -0.009680519 -0.009759349 0.0347797 -0.056005
-0.05114973 0.04231898 -0.019837936 -0.063251816 0.016397823 -0.058488928 -0.014315112 0.027117306
-0.06253831 -0.0660147 -0.0111727845 -0.018961184 -0.0047509153 0.05046866 -0.002199514 0.010484645
-0.041081384 -0.04857101 -0.04922374 0.06771773 -0.0354344 0.04173553 0.057777897 -0.04814634
0.0245003 -0.021825146 0.022645442 0.030014226 0.0033012638 0.03018102 0.01642121 0.017423227
-0.0011435188 -0.0092076585 -0.032248553 -0.037015036 -0.030944325 0.0342782 0.052278303 -0.04208015
-0.034660738 -0.031195045 -0.061405834 -0.0052213515 0.019411791 0.0034221534 0.024891816 0.0036321033
-0.033981327 -0.0051191216 -0.03990092 -0.013788139 -0.042598806 0.039042674 -0.012259611 -0.037046578
-0.06721857 -0.024286233 -0.005914046 0.00051022664 0.045997206 0.020169513 -0.025220772 0.023350937
-0.048058424 -0.016203584 -0.0065707257 -0.00018034961 -0.017598303 0.009144178 0.029546363 -0.0033185228
-0.013359397 -0.042855218 -0.032252897 -0.04848619 0.0068976893 -0.059167754 -0.028806789 0.025210055
-0.06017501 0.03915138 -0.0021507926 -0.03975956 0.048368488 0.045374487 -0.026690518 0.014472254
-0.020021124 -0.06893646 0.02346163 0.01621294 0.041973107 -0.03004119 -0.015176589 0.016189722
-0.059302796 0.027367443 -0.012474024 -0.011301715 -0.0058134594 0.0075922613 -0.01300656 -0.06426561
0.045974072 -0.031818632 -0.007758808 -0.06969472 -0.036361966 0.01955367 0.0046627247 0.002254268
-0.039238397 -0.05650704 0.03594116 -0.03428124 0.04264265 -0.024270857 0.065815315 0.008524382
-0.028598791 0.078587286 0.062174827 -0.009820686 -0.022461884 -0.008071476 0.00072008464 0.028960723
0.0061457134 0.07442165 0.07681653 0.03279022 -0.031418342 0.042476077 -0.016480373 -0.006222809
-0.073703274 0.031656656 -0.057801977 0.00055040745 -0.04792967 -0.07256175 -0.047606472 0.051121816
0.025896063 -0.045648307 0.029371085 -0.011624446 -0.027306618 -0.07481532 -0.044242248 0.043799326
-0.04635983 0.029229624 -0.023026276 -0.048021507 -0.0341532 0.02299794 0.029289031 0.024052499
0.021500584 -0.028241932 0.0015137469 0.0143092675 -0.0040057986 0.059448972 0.06366772 0.048555877
0.048686918 -0.054380726 -0.023574457 0.03255349 0.041930057 -0.0029829198 0.008670374 0.0043123085
-0.029102787 -0.04111874 -0.013447769 -0.018506719 0.02255825 -0.03552023 0.010403938 0.04416821
0.015066403 0.036992665 0.019582603 -0.07467611 -0.047520738 0.01243182 -0.043899458 -0.03363928
-0.031682264 -0.06899796 -0.013458123 -0.0012796051 -0.01633912 -0.047471937 -0.05161296 0.041144278
0.037087522 -0.039699465 -0.051482867 -0.028626693 -0.042375743 -0.051374752 -0.04666126 0.057725
0.0069393096 0.040093325 0.031110762 0.020278843 -0.017161323 0.046443515 -0.008057289 -0.031658273

l2.0.bias f4 [32]
00000000: 91f7 e9bc 4e4c 753d 5b17 233d 6ef2 29bc
00000010: 9c7d 2aba 2e68 9b3c 39b3 bf3c 0a21 50bd
00000020: 3385 75bd 62df 403d 3a7e 3abd 4c55 a4bc
00000030: 7a54 533d 6b98 68bc dbc1 593d 91a4 a5bc
00000040: 708c e4bb 92ee cebc 1242 093d 447b 503d
00000050: 516a 2fbd c0f3 98bc 50bb 5bbc da9c f13c
00000060: ad59 4fbd f168 053d 96c2 f53b 62ae 44bb
00000070: c353 463d ce53 c53c 4aab b0bc 7d95 9dbc
-0.028560432 0.059887223 0.039817195 -0.010372741 -0.00065037026 0.018970575 0.02340089 -0.05081276
-0.05994148 0.047088034 -0.045530535 -0.020060204 0.051594235 -0.0141964955 0.05316339 -0.020220073
-0.0069747493 -0.025260244 0.033510275 0.050898805 -0.042826 -0.018670917 -0.013411358 0.029493738
-0.05062263 0.032570783 0.007500003 -0.0030011167 0.048419725 0.024087813 -0.021566052 -0.01923632

l2.1.weight f4 [32]
00000000: 1948 773f a6da 813f 1a85 823f e892 803f
00000010: c57b 813f 69c2 7b3f a005 7e3f 043e 763f
00000020: 7e43 793f 5147 823f 8121 803f 8c36 803f
00000030: e45c 7d3f 6593 7f3f 193f 803f c32b 7f3f
00000040: 5081 823f 48e3 813f 8492 803f c22e 7d3f
00000050: 35c8 7c3f 536a 803f b477 7b3f e453 7c3f
00000060: fc18 8a3f 12b7 7c3f 6a34 793f da46 7e3f
00000070: fe9b 763f d333 853f 86a3 843f c992 7c3f
0.9659439 1.0144851 1.0196869 1.0044832 1.0115896 0.9834352 0.99227333 0.9618838
0.9736861 1.0178014 1.0010225 1.0016646 0.98969865 0.9983428 1.0019256 0.9967615
1.0195713 1.0147486 1.0044713 0.9889947 0.9874299 1.0032448 0.9822953 0.98565507
1.0788875 0.98716843 0.973456 0.9932686 0.96331775 1.040644 1.0362403 0.98661476

l2.1.bias f4 [32]
00000000: 960b 65bd fcb7 9d39 7046 dc3b effd 9d3c
00000010: ed69 28bd 5055 6a3c d90e 04bd 3049 36bd
00000020: 751d 0cbd 95e9 033d 55fa 8ebc 6870 c1bb
00000030: d86a 15bd fc76 db3b 9e19 a1bc e0e8 08bd
00000040: ece2 8dbd c4c9 53bd 8c42 d1bc cc4d ccbc
00000050: 6201 60bd 4b81 f93b deeb 8cbd 3213 7939
00000060: fc31 9c3d 9183 08bd 05c8 2e3b 35fc 5fbd
00000070: 8eeb 56bd db47 b63b c55a 77bd 5eb0 d63b
-0.055919252 0.00030082453 0.006722264 0.019286124 -0.041116644 0.014302567 -0.032240722 -0.04450339
-0.03420778 0.032205183 -0.017453352 -0.0059032924 -0.036478847 0.0066975337 -0.019665536 -0.033425212
-0.069280475 -0.05170609 -0.025544427 -0.02493944 -0.05468882 0.00761429 -0.068809256 0.00023753641
0.07626721 -0.033328597 0.0026669514 -0.054683883 -0.052470736 0.005562765 -0.0603893 0.0065517863

l2.1.running_mean f4 [32]
00000000: b9c9 f0be deb7 c7bc ee91 72bf 2b8a 8e3c
00000010: 5181 3b3e 33b7 aebd 382e 893d a80b 31bc
00000020: 8b42 83be b239 8ebd a522 acbc 2b78 b6be
00000030: a37b 35bd fe93 3ebe a416 bdbe 1632 5bbd
00000040: ca2e 063c 94ce 74bd be3d b8bc b16c c0bb
00000050: 954b 683d cdae c0be 2b52 2d3f a7d1 b3be
00000060: b4e9 873d c1be d53e cb4e 9bbc dc87 1a3c
00000070: a100 a83d c1ed 3c3e 8076 85bd ee5b 583f
-0.47028902 -0.024379667 -0.9475392 0.017399868 0.18311049 -0.08531036 0.06698269 -0.010806002
-0.25636706 -0.06944598 -0.021012614 -0.35638556 -0.044307362 -0.18611142 -0.36931336 -0.053514563
0.008189866 -0.05976732 -0.022490378 -0.005872332 0.056712706 -0.37633362 0.67703503 -0.3512089
0.06636372 0.41747096 -0.01895847 0.009431805 0.08203245 0.18450071 -0.06516743 0.84515274

l2.1.running_var f4 [32]
00000000: 4d98 123f b37c d33d b1a6 fa3e 8049 d63f
00000010: 5cec 0c3e 56c7 253e 2ee8 8e3e 6bf3 2c3e
00000020: 88e4 743e 5c4f ca3d e9a2 c03d aea6 1c3f
00000030: e9cb 3f3e 80b4 2c3e ae47 413e cba0 083e
00000040: c08b be3d c05a e63d ced4 2a3e 5797 803e
00000050: 4d86 e63e 54a3 c53e 621d 133e 531b ce3e
00000060: 82de 883d b816 013e 5647 2f3e e08d f43d
00000070: e79f 183e 7d9e 6f3d 1703 8f3d 353f af3e
0.5726364 0.10326519 0.489553 1.674118 0.13762039 0.16189322 0.27911514 0.16889732
0.23915303 0.09878418 0.09406073 0.61191833 0.1873013 0.1686573 0.18875 0.13342588
0.09303999 0.11247778 0.16682741 0.25115463 0.45024338 0.38601172 0.14366677 0.40255222
0.06683065 0.12606323 0.17117056 0.11941123 0.14904748 0.058500756 0.06983011 0.3422791

l3.0.weight f4 [32, 32, 3, 3]
00000000: 9c15 903c 29d6 0c3d 00f6 b33c c28a 1abd
00000010: 4553 b43b f1c4 1e39 aa8f 9abc 20ee 49bd
00000020: 8062 bc3b 10ce bd3c b315 47bd c120 bdbb
00000030: 59eb 92bc 5744 d2bc 5ff7 163d 5f11 d73c
00000040: bdcd d4bc c18b e2bc 2eef dd3c caf2 223c
00000050: 1f4e b1bc d233 a3bc 50d0 32bd 02bf 52bd
00000060: 8935 133c 3647 b2bc f2c7 093d 6d22 ad3c
00000070: 5d97 493d 0e1b 6fbc c9b2 1d3d 3f88 653d
00000080: 61d2 57b8 97d5 963d 4d1b dd3c ba92 1dbd
00000090: 40c6 c0bc 583d 0e3d 99ba 833c b086 afbd
000000a0: b66d 25bd c6d5 23bd 1836 cdbd c373 dbbd
000000b0: 24f5 8cbd e8cd 203d 02aa 0ebd 2116 e8ba
000000c0: ae4f 48bd 535f 20bd 363a 233d 5245 41ba
000000d0: 619f 323d 8ebc 74bd 3389 0dbd 10a7 d4bc
000000e0: 304d da3b 404b 7a3d be23 a9bc 1dee f2bc
000000f0: 60b1 283c d4db 1d3d 60a9 403d 5771 4ebc
00000100: a33b 89bb d56c 413d 1f39 02bb 2d8e 1fbd
00000110: b3f4 ba3c e305 a7ba c65f 35bd 34cc 2ebb
00000120: 98f9 62bd 4453 c03c 49d6 833c c237 293d
00000130: c6b2 073d 444a 6f3d 06e1 3c3d 67ef 563c
00000140: 155c 083d cb07 8fbd 28ce 013c 7a97 9c3b
00000150: 8025 473d 5899 6a3b efd0 0dbd e931 0bbd
00000160: 1db4 953c 3a37 22bd 8b1d 0d3c 638a 23bc
00000170: c40a 71bc 11ed 393d b51a d2bc d6c1 01bd
00000180: 33a4 413d 4763 5a3c 6066 84bc 7d9c 5bbc
00000190: 2960 8ebd 8390 fc3c 4c06 ce3c 5549 61bd
000001a0: 1b9c 9c3c 6788 5d3c 5f6e 34bc fffc 1dbd
000001b0: a33f 39bd 2b1a 013d 419d 6c3d d693 a23a
000001c0: 0405 ebbc 6f25 27bd 25b1 563d edd9 0e3b
000001d0: 20ba 493d 711c 463d a030 2bbd 8481 013b
000001e0: 346a 9e3c 440e e33c 121e 193c d657 e53c
000001f0: a501 563c 94c4 5abc f3f1 39bd 186c 94bc
00000200: 6bcb 3a3d b796 053d 502f e0bb 66bd 4c3c
00000210: e163 3abd b1d8 6a3d 5061 e4bb fcfb 87bc
00000220: a315 43bd 5629 043c cd62 43bd 87e0 fc3c
00000230: a543 533c 2517 7fbc 4d5a b8bd 0921 96bc
00000240: 70f0 4ebd dfa6 69bd a151 4ebd 4a49 0abd
00000250: caa3 e9bc f601 1ebc cb4e 73bc 92a7 a3bd
00000260: 3e2f 27bd 02a8 54bd 28a6 f6bc 3809 14bd
00000270: 1f7d a7bd 0b66 e4bb 2bdc 9ebc ec51 933c
00000280: 4145 a1bb 21b6 ef3c 8ef9 7abc 9181 a8bb
00000290: c44d 993b f460 223d 3ba3 04bd 3cde 443d
000002a0: ee57 7abc 6043 1e3d 6249 37bd e022 823d
000002b0: 963c 33bc b7c9 d33c 5e25 4cbc b28c 913d
000002c0: 2852 703d 2ba6 2fbd 6379 3ebd da48 96bc
000002d0: 9836 15bc 0d9e 09bd a5a7 c43c 2ec6 013c
000002e0: c15c 163c f8c2 9cbc 4e18 5a3c a007 793d
000002f0: 0c3a 353d 4784 023d ee4a 933c ab96 2abd
00000300: 424d 1e3d 840c bf3c 247b 86bd 1991 273d
00000310: 4254 64bc 484f 69bd 3044 48bd 06a5 5b3c
00000320: 7f39 0e3c 0714 10bd 471f 8ebc f18f 0f3d
00000330: f7a7 9fbc 0d59 6f3d 9a52 f23c 7cf9 743c
00000340: 722e 163d d261 5e3d 73e5 ab3c df50 c7bb
00000350: c86f 4f3d e96c 993c 91e7 873c 02d1 b0bc
00000360: 4c78 71bd 1af4 64bd 8916 443d 345d 9ebd
00000370: 736a 55bd f0c2 493d 2140 db3c 14a6 bebc
00000380: 61de efbb 748a 1c3d 0cdb 24bd d1f0 603d
00000390: 35d5 dfbc e6f5 2a3d 244a a4bc dde2 a33c
000003a0: 3cbf edbb c722 21bc 28c2 09bd 7e95 2a3d
000003b0: 36f1 94bc 7663 d2bc e297 abbc d55c 933c
000003c0: b0f8 fb3c 8fa9 293d e787 1dbd b926 263c
000003d0: 913c 59bc fc76 c9bc a0f9 83bd 37a8 66bd
000003e0: 0550 a43c 3257 b2bd 4603 7fbc 6fb8 8ebd
000003f0: 4c0b fc3c 9abd 8ebd 353f 1f3b 7953 62bd
0.01758843 0.034383927 0.021967888 -0.037729986 0.0055030906 0.0001514142 -0.018867332 -0.04929936
0.005749047 0.023169547 -0.04860468 -0.005771727 -0.017934488 -0.025667353 0.036857005 0.0262534
-0.02597701 -0.02765453 0.027091589 0.009945581 -0.021643696 -0.01992217 -0.043655694 -0.05145169
0.008984932 -0.021762472 0.03363795 0.02113458 0.049216617 -0.014593853 0.03850058 0.056038138
-5.1455925e-05 0.07364958 0.026990557 -0.038470007 -0.023532033 0.03472647 0.016080188 -0.085706115
-0.04038783 -0.039998792 -0.10020083 -0.10715439 -0.06882694 0.039258868 -0.0348301 -0.001770679
-0.048904113 -0.03915341 0.039850436 -0.0007372695 0.043609027 -0.059750132 -0.03455467 -0.025958568
0.0066620335 0.06110692 -0.020646926 -0.029654557 0.010296196 0.038539723 0.04703653 -0.0126002645
-0.0041880175 0.04722293 -0.0019870473 -0.03895395 0.02282176 -0.0012742843 -0.04428079 -0.0026672008
-0.055413812 0.023477204 0.01609339 0.04131294 0.033129476 0.058420435 0.046113037 0.013118601
0.03329094 -0.06983908 0.007922687 0.0047787996 0.048619747 0.0035796966 -0.034623083 -0.033983145
0.018274361 -0.03960345 0.008613001 -0.009981724 -0.014712039 0.0453921 -0.0256475 -0.031678997
0.047275733 0.013329334 -0.016162097 -0.013404009 -0.06951935 0.030830627 0.025149487 -0.055001575
0.019117406 0.01352129 -0.011012643 -0.038571354 -0.045226704 0.031519096 0.057767157 0.0012403678
-0.028688915 -0.040807184 0.052415032 0.0021797374 0.04924977 0.048366968 -0.04179442 0.0019761035
0.019337751 0.027716763 0.009345548 0.027995985 0.0130619155 -0.013352532 -0.045396756 -0.01811795
0.04560415 0.032614436 -0.0068415776 0.012496328 -0.04550541 0.05733556 -0.0069696084 -0.016599648
-0.047628056 0.008066496 -0.047701646 0.030868782 0.012894546 -0.015569483 -0.090015985 -0.0183263
-0.050522268 -0.057043906 -0.050370816 -0.0337613 -0.028520484 -0.009644022 -0.014850329 -0.07990946
-0.040816538 -0.051918037 -0.030108526 -0.036141604 -0.08178162 -0.0069701723 -0.019392094 0.0179834
-0.004921586 0.02926165 -0.015318288 -0.0051423986 0.00467846 0.039643243 -0.03238223 0.0480635
-0.015279753 0.038638473 -0.044747718 0.06354308 -0.010939738 0.025853021 -0.012460081 0.071069136
0.0586721 -0.04288308 -0.046502482 -0.018345285 -0.009107254 -0.033597995 0.02400572 0.007920785
0.009177388 -0.019135937 0.013311459 0.060798287 0.04424481 0.03186443 0.017980065 -0.041647594
0.038647898 0.023321398 -0.06566456 0.04090986 -0.013936104 -0.056960374 -0.048893154 0.013406044
0.0086807 -0.03517535 -0.017348899 0.035049383 -0.019489272 0.058434535 0.029580403 0.01495206
0.036665387 0.054292507 0.020983433 -0.0060826386 0.050643712 0.01872869 0.016589912 -0.021584038
-0.058952615 -0.055896856 0.047873054 -0.07732621 -0.05210347 0.049258173 0.026763977 -0.023272552
-0.007320211 0.038217977 -0.040247962 0.05491716 -0.027323345 0.041738413 -0.020054884 0.020005638
-0.007255463 -0.009834952 -0.033632427 0.041646473 -0.018181425 -0.025682192 -0.020946447 0.017988602
0.030758232 0.04142147 -0.038459685 0.010141068 -0.013259069 -0.024592869 -0.064440966 -0.056312766
0.020057688 -0.087080374 -0.015564745 -0.06968772 0.030767106 -0.069697574 0.002429915 -0.055255387

l3.0.bias f4 [32]
00000000: dbed 02bd a112 413d 099b 123d b02c 84bc
00000010: 8306 17bc 4f8c ae3c 9137 ddbc 60f1 473d
00000020: 8a1a 453d 59ca 393d b4c7 aa3c 556e b23c
00000030: 5106 c6bc c66b 1ebd e3b5 413d 0bad 57bd
00000040: e449 f0bc 96bc 32bc c3f8 f03c 77ca 103d
00000050: 6c17 71bd 4c02 b2bc 695c 43bc 9dff 58bd
00000060: 9f3f 6f3c 1e12 a7bc 4123 4c3a c022 7a3c
00000070: 8e42 ba3c 9b5e ca3c 5686 53bb db9a 223d
-0.031965118 0.047136907 0.035792384 -0.01613459 -0.009217861 0.021307139 -0.027004035 0.048814178
0.048121013 0.04535899 0.020847179 0.021781126 -0.024172934 -0.038677 0.0472926 -0.05265526
-0.029332109 -0.01090922 0.029415494 0.035349336 -0.058860227 -0.02172961 -0.011923888 -0.052978147
0.014602571 -0.020394381 0.00077872357 0.015267074 0.022736814 0.024703315 -0.0032276115 0.039698463

l3.1.weight f4 [32]
00000000: b664 813f babd 773f c15a 843f cc6d 803f
00000010: 585f 7b3f 837d 823f 23a0 7f3f 44c8 7d3f
00000020: 1e24 7c3f 45f4 823f 80fd 7f3f a868 753f
00000030: 5340 7f3f a9ad 763f c112 813f 1a17 7b3f
00000040: ab71 783f d40d 7f3f 1ac9 7c3f cda7 823f
00000050: 14b9 833f e7d6 7f3f ae49 783f b726 7e3f
00000060: b22a 813f 6e98 793f d89e 843f eafc 7b3f
00000070: e02e 813f 76b8 7e3f 8a2e 803f 9b9a 7f3f
1.010886 0.96773875 1.0340196 1.0033507 0.9819236 1.0194553 0.99853724 0.99133706
0.9849261 1.0230795 0.99996185 0.9586282 0.99707526 0.96358734 1.0083848 0.98082125
0.97048444 0.99630475 0.98744357 1.0207459 1.0290856 0.9993729 0.96987426 0.99277824
1.0091155 0.97498214 1.0360975 0.9843279 1.009243 0.99500215 1.0014203 0.99845284

l3.1.bias f4 [32]
00000000: bcc8 0cbd a90e 7dbd 2865 e7bd fd5a 6bbd
00000010: 326f 51bd 9b56 f7bc 38ea 0fbd a305 03bd
00000020: f11a a3bd 7ce1 cbbd ef0c d0bd 6cfd b1bd
00000030: 07d6 77bd 2d00 8fbd af5c 6fbd df3a c3bd
00000040: e8e5 44bd 6d07 84bd 00d9 74bd 4092 abbd
00000050: a4cd 87bd 3d2f 62bd d254 b6bd fcfd bdbd
00000060: 552a acbd 8cff 8ebd 20e9 97bd 1ddf 10be
00000070: be4a c3bd 417c 24bd dcf3 1fbd 8719 57bd
-0.034371123 -0.06178156 -0.11298591 -0.05745982 -0.051131435 -0.030192664 -0.035135478 -0.031987797
-0.07964123 -0.09955117 -0.10158717 -0.086909145 -0.060506847 -0.069824554 -0.058438 -0.09532713
-0.04807082 -0.06446729 -0.05977726 -0.08377504 -0.0663102 -0.05522083 -0.08902897 -0.09276959
-0.08406512 -0.069823354 -0.07417512 -0.14147611 -0.0953574 -0.04015756 -0.03905092 -0.05251458

l3.1.running_mean f4 [32]
00000000: 7f31 9fbe 8fd8 463e 866a d8bc 8ec7 0f3e
00000010: 2f43 d6bd 5276 59be 572e 9fbc e3c0 273e
00000020: b018 003f 6159 973e ea89 eb3e 8ae5 8e3d
00000030: 945f bf3d 42d0 943e 702e 6c3e ba8c 683e
00000040: e705 8dbc c59e a73e 6def b63e 6c3c 153d
00000050: eb1c 203d 4197 a73b 5d6f 9cbe 3227 783e
00000060: bd35 893e 57f1 f5bc b297 283e e51f 833e
00000070: 385e c13e 69ec 21bd 9403 7c3d a4a9 a6bd
-0.3109245 0.19418548 -0.026417982 0.14040968 -0.10462033 -0.21236542 -0.019431276 0.16382174
0.5003767 0.29560378 0.46003658 0.06977375 0.09344402 0.29065138 0.2306459 0.22709933
-0.017214729 0.3273832 0.35729542 0.036434576 0.03909008 0.0051144664 -0.30553713 0.24233702
0.26798812 -0.030022306 0.16464117 0.2561027 0.37767196 -0.0395321 0.06152685 -0.08137825

l3.1.running_var f4 [32]
00000000: 01c9 8f3e c31d 1a3e c881 d43d b651 233e
00000010: 992a 8d3e cea5 983e 9556 3f3e fb7b c33e
00000020: 1383 0d3e 9f4a ad3d afbc 083e f5bc b73e
00000030: 2017 093e 77d8 503e 12ed 613e c266 183e
00000040: 12e7 6b3e 3e93 073e 9aca 143e ec79 1c3e
00000050: 81bc ed3d dc39 363e ff09 883e 96e7 113e
00000060: b8cd c93d 4e10 053e 2a39 853e 2fb1 0a3e
00000070: 52dd 323e 373f 8e3e 3eae 313e f416 4e3e
0.2808304 0.15050416 0.10376316 0.15949139 0.27571562 0.29814 0.18685372 0.38180527
0.13819532 0.084614985 0.13353227 0.3588635 0.13387728 0.20395075 0.22063091 0.14882949
0.23037365 0.13239762 0.14530411 0.15280885 0.1160822 0.17795509 0.26570126 0.142485
0.09853691 0.12994501 0.26020175 0.13544153 0.1746724 0.27782604 0.17351624 0.20125943

l4.0.weight f4 [32, 32, 3, 3]
00000000: fd09 d73c 11f8 c1bb 4708 20bd f00e 3fbd
00000010: daaa c5bc 2273 8b3d 873f 87ba b4ab 85bc
00000020: aa7b f0bc 968f c53c 5609 0f3c 17bc 37bd
00000030: 8b5f 393c 5bd2 203d 76ad 3dbc 61e2 343c
00000040: fcc7 2fbd 6add 3d3d ccc3 a4bc f3bf 393b
00000050: 29fa 5c3d 9a8a 83bd ef0f 4cbc 5497 9c3c
00000060: 202c a93d 3a0d a3bc b45a a93d 2d3c 353d
00000070: b950 21ba a871 16bc 4045 2cbd 4d37 ce3c
00000080: d2b8 0dbd a72d 4a3d 3470 f03b 40cc 033d
00000090: 48a8 223d b1aa 05bd 4b9b 02bd 0d27 a63c
000000a0: b3c6 0bbd 8066 593d 3165 28bc 6b99 0fbc
000000b0: 2b2c db3c c2cf c73c d322 91bc eb10 6abd
000000c0: 74d5 94bd 3452 323d 9f57 593c c904 afbb
000000d0: aab3 d23c 9fc1 80bd 975e 8ebd 7d32 263c
000000e0: bc60 3e3d 9893 2f3d 6024 2f3d 57a2 333d
000000f0: 51af dabc 493d 743c 7c73 23bc 8bcc 7dbd
00000100: 4381 653d 6db0 90bc 4062 b33c 5934 3cbd
00000110: e467 ecbb a1cb 97bc 43ab 0e3d f705 cebc
00000120: e7f4 88bd 1a5b 2c3d b361 81bc 4973 7b3c
00000130: 1d8c 183d b4f0 1dbc c9ca 2dbc 5d80 523c
00000140: 6ed7 a53d 0834 583d 10ab dc3c c81e ccbc
00000150: bf78 193b 461c 443d 1052 783b 8ffa 43bd
00000160: 1685 dbbc 5099 02bd e0d9 73bd 38d2 18bc
00000170: 4ecd 7cbd d6a3 973d 4813 203d 2777 37bd
00000180: a783 cd3d 0fa9 9fbb a056 b23c 45d6 323d
00000190: c100 6d3d b7b9 c4bc 9183 973c 8851 3bbc
000001a0: c5e4 35bc 357a 07bc f231 483d 6ba7 28bd
000001b0: e80a ab3c 03bc 6e3d 0d58 eabc aab6 d33b
000001c0: d641 c1bc b87b f7bc a86d 03bd c429 8ebb
000001d0: f2de a83b 74c3 013d b05c 8b3c e3b2 23bd
000001e0: c61b 85bd 632d 8e3c 00b7 f2bb e706 06bd
000001f0: d288 19bc 2e55 cb3b 03c8 0f3d 1e02 c33c
00000200: 3620 3ebd 07a7 5ebd 081e 7fbc d0cd 2b3d
00000210: a31e d1bc 7ee6 34bd ca2a ca3c 90e0 d73c
00000220: bb10 a1bc 12a7 883d 151c 183c 74a3 37bd
00000230: f124 993b 619b f5bb 3f43 51bd 6dbf 653c
00000240: 0008 833c e748 25bd 1bfc 4dbd ebb1 f4bc
00000250: a6ac 553d 2b20 973c bdfd 1ebd a1e4 743d
00000260: 027d 43bc 012f 27ba 4809 39bd 4d50 00bc
00000270: 4727 3d3d 3eac 76bd 96b9 55bd f757 a1bc
00000280: 21bd a83d feef 9e3d 613b 1cbd f56b cc3c
00000290: ca4d 33bd 111f 0f3d d6a7 35bd 232b 2fbd
000002a0: aa22 943d 0ea4 d5bb 5568 9d3d f659 5d3d
000002b0: 82c7 97bd bd75 0b3b b75e e4bc f05c 1bbd
000002c0: 3d40 93bb 4c2a 0b3d 9d5d b23b e7f6 b83d
000002d0: 48c4 303c acc3 5ebd e1bf 05bd 70d1 a1bb
000002e0: 8eba 8c3d 5ca9 d93c 6a25 3d3d 8d07 2b3c
000002f0: 2c24 7cbd a3e4 3d3d a09e 8c3d 8da1 bcbc
00000300: f768 e6bb 3c12 3f3b 5e56 50bd 28d2 90bd
00000310: abd5 ec3c 8d38 92bc ca70 7abc 94ae 8d3b
00000320: 0d34 a3bc d4f0 66bc ef97 163d c324 a83b
00000330: 4da0 43bd 5135 e83c 0afb b4bc 0eb9 57bd
00000340: 71a5 2d3d 113a cdbc 02fb 21bd cb69 efbc
00000350: 37d6 233d 3465 573c b97a 873c d27f 213c
00000360: a807 aabc 9374 12bd 455b 3cbd 132c 8b3d
00000370: 99ff 30bd dbff f13a a164 3d3c 390c 693d
00000380: eca2 04bd a93a 303d 4199 f6bb 78e7 033d
00000390: 5e25 d63c 4bae f8bb c0ef 39bd b1e8 623b
000003a0: 5502 86bc 7402 7cbc 32ba 29bc 1ae6 113c
000003b0: 351c e23c aaf8 7b3b 9f41 46bd 185d 103d
000003c0: 73a0 bb3b 0f6e 3cbd c04d e6ba 2696 5e3d
000003d0: 75f7 a83c 1127 49bd a642 91bb ab75 b33c
000003e0: 2bed 6fbd d99b 8f3d 8a6b 113d 2381 83bc
000003f0: b14c 62bd 49e8 123d 6b22 ef36 08cc fd3b
0.02624988 -0.0059194644 -0.039070394 -0.046645105 -0.02412932 0.06809069 -0.0010318615 -0.016317226
-0.029355843 0.024116319 0.008730253 -0.04485711 0.011314283 0.03926311 -0.011577001 0.011040301
-0.04291533 0.046353735 -0.020112894 0.002834317 0.05394951 -0.064229205 -0.012454971 0.019115128
0.08260369 -0.019903768 0.082692534 0.04424684 -0.0006153691 -0.009182371 -0.04205823 0.025172854
-0.034600087 0.049359944 0.0073375944 0.03217721 0.039711267 -0.032633487 -0.03188638 0.020282293
-0.03412504 0.053076267 -0.010278032 -0.008764605 0.02675446 0.024391059 -0.0177168 -0.05714504
-0.072672755 0.043535426 0.013265519 -0.0053411466 0.025720436 -0.0628693 -0.06951635 0.010143873
0.04647897 0.042865366 0.0427593 0.04385599 -0.026694926 0.01490719 -0.009976264 -0.061962646
0.056031477 -0.017662251 0.021897435 -0.04594836 -0.007214533 -0.018529715 0.034831297 -0.025149329
-0.066873364 0.04207907 -0.015793657 0.01534731 0.037242997 -0.009639908 -0.01060743 0.012847987
0.080977306 0.052783996 0.026937038 -0.024917021 0.0023417918 0.047878526 0.003789071 -0.047846373
-0.026796859 -0.03188449 -0.059533954 -0.009327464 -0.06171923 0.07404296 0.039080888 -0.044791367
0.10034876 -0.0048724483 0.021769822 0.043661375 0.057862047 -0.024014337 0.018495353 -0.011433013
-0.011101906 -0.0082688825 0.048875757 -0.041175287 0.020879224 0.05828477 -0.028606439 0.0064609842
-0.023590963 -0.03021036 -0.032087 -0.004338475 0.0051535303 0.03168054 0.01701197 -0.03996552
-0.06499438 0.017355626 -0.007407069 -0.032721426 -0.009370999 0.0062052226 0.035102855 0.02380472
-0.046417437 -0.05435851 -0.015571125 0.041944325 -0.025527304 -0.044165127 0.024678607 0.026352197
-0.019661298 0.06672491 0.009284039 -0.044833615 0.004673593 -0.0074953292 -0.05108952 0.01402269
0.015995026 -0.04035273 -0.050289255 -0.029869994 0.052166604 0.018447956 -0.038816202 0.05978835
-0.01193166 -0.00063775486 -0.045174867 -0.007831645 0.046180036 -0.060222857 -0.05217894 -0.019695265
0.082391985 0.077606186 -0.038142566 0.024953822 -0.043775357 0.034941737 -0.044349514 -0.042765748
0.07233174 -0.006519801 0.076859154 0.05404087 -0.074111 0.0021279894 -0.027877195 -0.03793043
-0.004493742 0.033975884 0.0054432885 0.09031468 0.010788985 -0.054385826 -0.032653693 -0.004938297
0.0687152 0.026570015 0.04617826 0.010438812 -0.061557934 0.046360623 0.06866193 -0.023026252
-0.0070315558 0.0029155156 -0.050863616 -0.07071334 0.028910479 -0.017849231 -0.01528568 0.00432379
-0.01992228 -0.014095504 0.03676599 0.0051313355 -0.047760297 0.028345736 -0.022092361 -0.052666716
0.042394105 -0.025052102 -0.03954602 -0.02922525 0.039999213 0.013146687 0.01653801 0.009857135
-0.020755604 -0.035755705 -0.04598548 0.06795516 -0.043212507 0.0018463092 0.011559636 0.056896422
-0.032381937 0.043024693 -0.0075255935 0.032203168 0.026140865 -0.0075891367 -0.04539466 0.0034623558
-0.016358534 -0.015381444 -0.010359334 0.008904958 0.02760134 0.0038447776 -0.048402425 0.03524503
0.005725914 -0.046003398 -0.0017570779 0.05434241 0.02062581 -0.049109522 -0.004432994 0.021906694
-0.05857579 0.070121475 0.035502948 -0.016052788 -0.05524892 0.035866056 7.126762e-06 0.0077452697

l4.0.bias f4 [32]
00000000: 736d 63bc d9ed d5bc 082b f7bc 4881 f03c
00000010: d67d 0b3d 7104 f8bb abcd ed3c 5752 813b
00000020: 9016 f8ba 7077 343d cabf 94bc e0d5 70bd
00000030: aa93 f13c c1d9 cdbc 7c83 4dbb 3e1a bcbb
00000040: 70df cd3c 01cb bdbb be22 32bd 222b 103c
00000050: 34e3 16bd 34f3 a0bc c39e a9bb b7ab 5dbd
00000060: 587d ba3c 72da 33bd e494 65bd b75c b53c
00000070: be5d 29bd f83a 743c b120 43bd df5d efbb
-0.013881075 -0.026114391 -0.030171886 0.029358521 0.034055553 -0.007568889 0.029028734 0.0039465833
-0.0018927623 0.044059217 -0.018157858 -0.058797717 0.029489357 -0.025128247 -0.0031358888 -0.005740433
0.025130957 -0.005792022 -0.043490164 0.008799346 -0.03683777 -0.019647218 -0.0051763966 -0.05411884
0.022764847 -0.043909498 -0.056050196 0.022138936 -0.041349165 0.014906637 -0.0476386 -0.0073048915

l4.1.weight f4 [32]
00000000: f876 803f 233b 833f 16ee 793f 8c30 833f
00000010: f182 7b3f 5d72 813f 693d 793f d637 823f
00000020: 12de 7f3f 9e38 803f 6069 7d3f ccf8 7c3f
00000030: fa7c 7e3f d775 823f 50b9 7c3f ac2b 7d3f
00000040: bd6b 803f 73fd 803f a4cf 803f f9fe 843f
00000050: 9f0a 833f 0f69 7b3f 93d1 753f 67a4 803f
00000060: 6dcf 833f 7219 823f f86e 7d3f 8af5 7e3f
00000070: aa23 823f 1aff 803f b230 823f 55de 803f
1.0036306 1.0252422 0.97628915 1.024919 0.98246676 1.0113026 0.9735933 1.017329
0.9994823 1.0017278 0.98988914 0.98817134 0.9940945 1.0192212 0.98720264 0.98894763
1.0032879 1.0077347 1.0063367 1.0390311 1.0237616 0.9820718 0.9602291 1.0050172
1.0297676 1.0164015 0.9899745 0.9959341 1.0167134 1.0077851 1.0171111 1.006785

l4.1.bias f4 [32]
00000000: d74a 5a3c 5c1b 353d 887d a2bc 7fe1 f23c
00000010: 3409 27bd ca85 a53c a0d5 e23b 8999 883c
00000020: 2f5a 87bc 6a66 d2bc 2a7c f0bc 9d29 10bc
00000030: 1fbf 9dba f8a1 8b3c 7102 03bd cac4 1d3b
00000040: 1591 80bc d597 93bc cfa8 1dbd 6a8f c53c
00000050: 9af2 d0bc cfc7 e63c a840 17bd 9bae fabc
00000060: 19ec 163d 2a89 7d3a 91cb b6bc 4495 00bc
00000070: 222c 283d 629f bf3c 6065 dbbc 785e 573c
0.013323507 0.044215545 -0.019835249 0.02964854 -0.04078026 0.020205397 0.0069224387 0.016674774
-0.016522495 -0.0256836 -0.029356081 -0.008798984 -0.0012035108 0.017045006 -0.03198475 0.0024073594
-0.01569418 -0.018016735 -0.038491067 0.024116237 -0.025506306 0.028171448 -0.036926895 -0.030600837
0.036846254 0.0009671623 -0.022313865 -0.007848088 0.041057713 0.02339143 -0.026781738 0.013145082

l4.1.running_mean f4 [32]
00000000: 095a 9cbb 7300 d8be 0b3b 24be cd7d d4bd
00000010: 3bb0 ad3d 6450 de3c b62e 9f3e dc3f aebe
00000020: 77b1 173e bb2f 2ebf c67b 69bf 32f4 4ebe
00000030: 1733 15be 2be8 60be 0506 aebe d5a2 9ebd
00000040: ffa6 bfbe 9a4d 563e 31da 70be 4226 88bd
00000050: 34f4 9bbd 3475 87be 9972 5b3d 4935 48be
00000060: 6e7d 57bf 1ee8 65be 9cb3 13be 37c7 8cbe
00000070: e7f4 b2be 0d09 2e3d 8728 39be 3878 a7be
-0.004771475 -0.42187843 -0.16038148 -0.10375557 0.08480879 0.027137943 0.31090325 -0.34033096
0.14813791 -0.6804158 -0.9120449 -0.2021034 -0.1457027 -0.21963565 -0.33988968 -0.077459015
-0.37432095 0.2092804 -0.23520733 -0.06647922 -0.076149374 -0.26456606 0.053576086 -0.19551577
-0.84175766 -0.22451827 -0.14423984 -0.2749574 -0.3495247 0.0424891 -0.18081866 -0.32708907

l4.1.running_var f4 [32]
00000000: e595 3c3e 7875 533f 64ba a43e 7d00 bc3e
00000010: 3c49 5b3e e398 d23e cac4 153f 7bb7 aa3f
00000020: d673 373e 31a0 d03e 6ef8 c43f 297e 443f
00000030: 198c 053f 550e c13f 8fea 3c3f be01 8f3f
00000040: bd04 8b3f 63c5 cb3e a40b 833f d71b f93e
00000050: 143e 0e3f e3d1 9b3e 0ecc 093f 0190 9d3f
00000060: 19e7 bd3f 5f25 253f e3d7 543f 1f83 fe3e
00000070: 2ac8 293f 696a c23e 9de0 ac3e 493a 563f
0.18416555 0.8260112 0.32173455 0.36719123 0.21414655 0.41132268 0.585034 1.3337244
0.17915282 0.40747216 1.5388315 0.76755005 0.521669 1.5082499 0.7379541 1.1172407
1.0860821 0.39799032 1.0237927 0.48654053 0.55563474 0.30433568 0.5382699 1.2309572
1.483615 0.6451015 0.83141917 0.49709412 0.6632105 0.3797181 0.33765116 0.83682686

l5.0.weight f4 [32, 32, 3, 3]
00000000: 2cd0 15ba 6a41 f33c c0b0 a73b c78d f33c
00000010: a9e0 413d 02f4 9b3c aab5 a83b 559b 313d
00000020: 8e51 953a 5e2c 0a3d 9a4a cabc 38ec 0ebd
00000030: 93fe 7a3c 9a1c fa3c 5d07 38bd aef0 8fbd
00000040: 58f7 45bd 71e0 76bd d605 fd3b 83e4 083d
00000050: c91e 093d 75cd 013d abfc 613d eedf e13c
00000060: 95d1 043c e81b 513c 133f 393d 56cb 8a3d
00000070: 24b4 993d c2d1 183d 45a0 923d 4b26 1d3d
00000080: 3c9a fb3a 8239 2f3d 892d bb3d 486c 8ebb
00000090: 17e4 bdbc 5bd4 113d fc60 3abc 6f18 793d
000000a0: 3ae2 6a3d c065 c5bc 56b2 14bc ba64 5abd
000000b0: 4e05 f337 6184 e3bc d548 c6bc ef40 3c3c
000000c0: 5ed0 c73c 0f31 f5b8 84b4 d2bc b7ba 34bd
000000d0: 2c4e 2f3c cbeb 743d b6c7 523c 90ae ae3c
000000e0: d775 4bbb 3894 6c3d 8e17 543d bc28 723c
000000f0: d358 98bc 141a 1e3c e438 27bd adbc 7fbc
00000100: b84d 75bb 759d 1bbd 13c1 993d 3adb a53c
00000110: 9a7e ed3c 19b8 8c3d 9da8 ee3c 182c fcbb
00000120: 141c b4bc aa3d 28bd 6565 4ebd df7b e23c
00000130: f54c 17bd bf83 31bd cdda 45bd 05d4 23bd
00000140: 738b 32bd b77d b63c 91c2 683c e63c 89bc
00000150: bae8 823c 97f1 bc3c b546 a93c d026 03bd
00000160: 07eb f43c cf00 c6bb 5f00 123c 2e87 bdbc
00000170: afed 443b ccd3 5b3d a202 64bb 033f 113d
00000180: 7a72 db3c c25a a23c 3206 223d 7b1d 2bbc
00000190: bd6e 3f3d 791d df3c d45b 823c 1bdc 15bc
000001a0: 5282 eabb 67bb e6bb 76dc 7f3d ac23 2abd
000001b0: d439 8a3d bf1f d6bc d559 bebb 71c0 f73c
000001c0: d8ae afbc 5e38 5139 9ad0 d93c a496 00bd
000001d0: ce91 733d e8c2 0c3d 119b ed3c f9ec 553d
000001e0: b91a b3bb 6a88 8abc d69b 3f3d 2d3e 493d
000001f0: 609b 813d 9ac6 96bc 4053 29bb db55 193d
00000200: cd05 3f3d 9bce a8bc 8494 15bd 5b2d c33b
00000210: 7a75 213c 7e1e b73c 0232 5cbd c75e 713c
00000220: 8540 8cbb 0fe1 62bd 174a 20bc 0c9f 9bbc
00000230: c7ee c4bc 0d71 293d 14d8 6bbc f1d9 2abd
00000240: 0749 353d 022a 67bb 954b 17bd d2fc 10bc
00000250: 01c1 e23c c193 b83c 7362 59bd 0db4 7fbb
00000260: 6aa4 cc3c f15c eebc d1d9 f6b9 0d17 cabc
00000270: 3305 d73c 8cae 073c c8ae 53bb d1b1 1d3d
00000280: 210e 593c bb30 413d 36cd 833d 0c10 a8bc
00000290: 656d fc3c e4c1 963d 3290 01bd c449 c63c
000002a0: 6806 343d 06bf bbba 6296 c13c f342 23bc
000002b0: 5c2c 403d 2a6d 9ebc 8770 6c3d 72b9 dcbc
000002c0: f832 2e3c 51ce 30bd 0446 3fbb 0e44 f43b
000002d0: 2316 f33c b37b 0dbb 227b e73c 0f47 123d
000002e0: eb13 62bd 10ca df3c ca8a a03d 441e 4e3d
000002f0: 5cdb d03c a939 37bd 5134 8bbb 47f8 f8bc
00000300: 69bc 2c3c b41d 293d 04e2 82bc 0e2a 37bd
00000310: 37ac bebc 550f 0cbd db0e a73c b9a4 073b
00000320: df33 15bd 4195 e1bc 7021 3fbc 8c37 2fbd
00000330: 791c 7a3d 3f86 bb3c 9b0b 553d ea7e f8bc
00000340: d7ed f73c eb03 fdbc 2323 133d 4538 b13c
00000350: 2e23 0fbd af9f 9b3d 4718 8a3d bc51 5b3d
00000360: 125a 003d 85ed a2bc 48af 903c 5cdb 8abb
00000370: 9018 4bbd 9f58 4ebd 516e 4cbd 0741 8ebc
00000380: 7ea5 873c bfc8 d33c d83e 0bba 7b20 ed3c
00000390: 42c4 443c 4691 adbb 3d9a 7ebc c343 1ebc
000003a0: ec96 1c3d 82ff 9dbc ec85 80bc adea da3c
000003b0: a1a9 a83c a0bc e2ba b0d3 58bc dff5 ea3b
000003c0: bfd0 6a3d f83e 943d 3dbc 363d 6423 173d
000003d0: c966 e3bc 1a7c 483c 6f1e 483b c1f6 3d3d
000003e0: e4d3 1e3d f687 113d ea82 22bc 5470 7f3d
000003f0: 7dfe 9d3c 1464 f2bc f54c 193d 9808 0bbd
-0.0005714919 0.029694278 0.005117506 0.02973069 0.047333393 0.01903725 0.005148609 0.043361027
0.0011392103 0.033733718 -0.024693776 -0.034893245 0.015319484 0.030531216 -0.044928897 -0.07028328
-0.04833159 -0.060272638 0.007721643 0.03342105 0.033476625 0.03169008 0.055172604 0.027572598
0.008106609 0.012763001 0.045226168 0.067770645 0.07505062 0.037309416 0.07159475 0.038366597
0.0019195746 0.042779453 0.091395445 -0.004346404 -0.02318005 0.03560291 -0.011375662 0.060814317
0.057344653 -0.02409637 -0.009075722 -0.053318717 2.8970328e-05 -0.027773084 -0.02420465 0.011490091
0.02439135 -0.00011691648 -0.025720842 -0.044123378 0.01069979 0.059795182 0.012864998 0.021323472
-0.003104558 0.05775854 0.051780276 0.01478022 -0.018597042 0.009649772 -0.04082574 -0.015608949
-0.0037430357 -0.03799196 0.07507529 0.020246137 0.028991032 0.06871051 0.029133135 -0.007695686
-0.021986045 -0.041074432 -0.050389666 0.027646957 -0.036938626 -0.043338533 -0.048304368 -0.03999712
-0.04359002 0.022276742 0.0142065445 -0.016752671 0.015980113 0.023064418 0.020663599 -0.032019436
0.029897226 -0.006042577 0.008911221 -0.023135748 0.0030048897 0.053668782 -0.0034791608 0.035460483
0.026787985 0.019818667 0.03955669 -0.01044404 0.046736468 0.027235733 0.015912928 -0.0091467155
-0.0071566487 -0.007041383 0.062466107 -0.041537926 0.06749311 -0.026138185 -0.0058090487 0.03024313
-0.021445677 0.00019952792 0.026588727 -0.031393662 0.059465222 0.034365565 0.029004605 0.052227948
-0.005465832 -0.01691075 0.046779476 0.04913156 0.063284636 -0.018405247 -0.0025836974 0.037435394
0.04663639 -0.02060633 -0.03651859 0.0059563345 0.009854669 0.022353407 -0.05375863 0.014732069
-0.0042801523 -0.055390414 -0.009783289 -0.018996738 -0.02403964 0.04136758 -0.014394779 -0.04171175
0.044259097 -0.0035272841 -0.036937315 -0.00884934 0.027679922 0.022531392 -0.053072404 -0.003901723
0.024980742 -0.029097052 -0.00047083062 -0.024669195 0.026247596 0.008281361 -0.0032300223 0.038499657
0.0132479975 0.047165614 0.06435625 -0.020515464 0.030813882 0.073612005 -0.031631656 0.024205096
0.043951422 -0.0014323897 0.023631278 -0.009964692 0.046917304 -0.019339163 0.057724502 -0.026943896
0.010632269 -0.04316551 -0.002918602 0.007454402 0.029673642 -0.0021588623 0.028256956 0.035712298
-0.055194777 0.02731803 0.07838972 0.050321832 0.025495224 -0.044732723 -0.00424818 -0.030391825
0.010542967 0.041288093 -0.015976913 -0.04471784 -0.023275478 -0.03419431 0.020392826 0.0020697548
-0.03642642 -0.02753699 -0.011665687 -0.042777583 0.06106231 0.022891162 0.05201302 -0.030333955
0.030264778 -0.030885657 0.03592218 0.021633277 -0.03494566 0.075988166 0.06742912 0.053544745
0.031335898 -0.019888649 0.017661706 -0.0042375755 -0.04958397 -0.050377484 -0.049909893 -0.017364992
0.016558405 0.02585256 -0.00053117936 0.028946152 0.012009682 -0.005296859 -0.015539703 -0.00965971
0.038229868 -0.019286875 -0.015688859 0.02672323 0.020588698 -0.0017298646 -0.013234064 0.0071704234
0.057327982 0.07238573 0.04461311 0.036898986 -0.027758973 0.012236619 0.0030535718 0.0463779
0.038776293 0.035530053 -0.009918908 0.062362984 0.019286389 -0.029588737 0.037426908 -0.033943743

l5.0.bias f4 [32]
00000000: aad2 7f3d ae66 403c 359d 6fbd b50c 6cbd
00000010: b36c 70bb 0843 c53c de33 82bd aac7 36bd
00000020: 3bd7 80bd 2151 63bc 3450 88bc de9b 04bc
00000030: 7875 3abd adf5 623d 17cd 11bd 0303 3fbd
00000040: 1199 57bd 46a9 c33b 7580 c4bd 4900 813b
00000050: 7fa2 983c 4f0a 743c f7fa 583c 3a05 233d
00000060: 9359 10bd b61b 273d d61f a1bc 2266 88bc
00000070: 1079 1bbc 521c 35bd cc29 33bd 90fd 613d
0.062456764 0.011743231 -0.058499534 -0.057629306 -0.0036685884 0.024079815 -0.06357549 -0.04462401
-0.06291052 -0.013874323 -0.016639806 -0.008093802 -0.045522183 0.055410076 -0.03559598 -0.04663373
-0.05263621 0.0059711067 -0.09594814 0.0039368016 0.018632172 0.014895036 0.013243428 0.039799906
-0.035241675 0.04079791 -0.0196685 -0.016650263 -0.009489313 -0.04421646 -0.043741032 0.055173457

l5.1.weight f4 [32]
00000000: 8685 823f 718f 8d3f 1371 963f 1962 823f
00000010: 608e 823f 6948 843f cd2c 863f a691 883f
00000020: 6799 803f aee7 833f f34f 813f b120 833f
00000030: d550 883f ff6b 873f d7ba 883f 64f1 873f
00000040: b21e 863f 1217 853f 2119 843f a70b 823f
00000050: e371 8f3f e8a4 853f 5d8f 843f bab3 893f
00000060: 61a8 843f 51d3 853f f227 823f 3b75 853f
00000070: 4372 943f 0f23 853f 3dd0 853f bb99 843f
1.0196998 1.10594 1.1753258 1.0186187 1.0199699 1.0334598 1.0482422 1.0669448
1.0046815 1.0305078 1.0102524 1.0244352 1.0649668 1.0579833 1.0682019 1.0620542
1.0478117 1.0397666 1.0320169 1.0159806 1.120663 1.044095 1.0356251 1.0757973
1.0363885 1.0455114 1.016844 1.0426401 1.159737 1.0401324 1.0454174 1.0359415

l5.1.bias f4 [32]
00000000: 81e7 cfbc 360d 043e 2024 0f3e 7933 f73c
00000010: 4949 3f3c aebb 903d cb5d 873d 1ab8 8a3d
00000020: ca58 5c3d 590e c7bc 5977 9b3a 8166 e53c
00000030: 3e87 973d 5a50 9a3b b64f c63d cf35 693c
00000040: 16c9 c4bc 9970 583d f47a 7e3d 58d1 a3ba
00000050: b274 04bd 75d8 a6bc 39ce 71ba b9ac bf3d
00000060: 3c81 863d 6df5 85bc f099 363d 0559 8b3d
00000070: f4ad 1b3e 9138 913d ee9a 30ba 1167 8b3a
-0.025378944 0.12895665 0.13978624 0.030175911 0.011675187 0.07067047 0.066096865 0.06773396
0.053795613 -0.024298834 0.001186113 0.02800298 0.07398842 0.0047092857 0.096831724 0.01423402
-0.024021666 0.052841756 0.062128976 -0.0012498302 -0.03233785 -0.020366887 -0.000922415 0.09359116
0.06567618 -0.01635238 0.0445804 0.068040885 0.15203077 0.07090867 -0.00067369535 0.0010635575
