models/bs64_000049.pth (torch_old, 173832 bytes, 32 tensors)

l1.0.weight f4 [32, 12, 3, 3]
0	0x3d791be0	0.0608176
1	0xbcbb5e1b	-0.022872021
2	0x3b04eae9	0.002028162
3	0x3d5045ca	0.050847806
4	0xbd9cb3ec	-0.07651505
5	0x3d92fb16	0.07176797
6	0xbc71ba62	-0.01475391
7	0x3d7eba89	0.062189613
8	0x3ce06df5	0.027396182
9	0xba5ad8c9	-0.00083483435
10	0x3d3548af	0.04425877
11	0x3cc268b7	0.023731573
12	0x3d26249d	0.04056226
13	0xbcc1209d	-0.023575122
14	0x3bc9fbe1	0.0061640595
15	0xbb4f05d2	-0.0031589163
16	0x3cdc0be1	0.026861133
17	0x3c607b6b	0.0137013
18	0x3db3e9cc	0.087848276
19	0x3d286f8c	0.041122004
20	0xbcbb9995	-0.022900382
21	0xbd762142	-0.06009031
22	0xbc1d6a47	-0.009607858
23	0xbd0f0a83	-0.034922134
24	0xbd01219e	-0.0315262
25	0x3c451163	0.012028071
26	0x3d85fdd9	0.06542558
27	0x3d6adc6f	0.057339128
28	0xbdad27fd	-0.08454893
29	0x3d8bb306	0.068212554
30	0x3cd280fc	0.02569627
31	0x3dc12041	0.0942998
32	0x3d81f5aa	0.06345685
33	0xbdae6c44	-0.08516744
34	0xbdb1afc8	-0.08676106
35	0xbd331ed7	-0.043730583
36	0x3daef98b	0.0854369
37	0xbc65d9ca	-0.014028976
38	0x3d1b14bb	0.037861567
39	0xbd42ef29	-0.047591362
40	0x3dbcc4a8	0.09217197
41	0xbd4584ea	-0.04822246
42	0x3d922ecb	0.07137831
43	0x3b25cb2e	0.0025298106
44	0xbd5e54d8	-0.054280132
45	0x3d73d311	0.05952746
46	0xbd414328	-0.047183186
47	0x3cef932a	0.029244978
48	0xbcb4f204	-0.022088058
49	0xbc3c3702	-0.011487724
50	0xbdca821b	-0.09888097
51	0xbd150562	-0.036382087
52	0x3d6202d7	0.05517849
53	0xbcc77f26	-0.024352621
54	0x3db19a46	0.086720034
55	0x3d91c059	0.071167655
56	0xbb6a9b82	-0.0035798256
57	0xbda14724	-0.07874897
58	0x3d45fe4e	0.048338227
59	0x3ca5bb94	0.020231046
60	0xbd970f69	-0.07375986
61	0x3d5b36b1	0.053518955
62	0x3d51c4eb	0.051213186
63	0x3dbb699e	0.09151004
64	0xbd302bc9	-0.043010507
65	0xbb164050	-0.0022926517
66	0xbb1abd35	-0.0023611311
67	0x3ca6d366	0.020364475
68	0xbd85d6b7	-0.06535094
69	0xbd850745	-0.06495527
70	0x3d7e660a	0.06210903
71	0xbc4a62e8	-0.012352683
72	0x3d4d3937	0.050103392
73	0x3b8d44f7	0.0043111998
74	0x3d0137eb	0.03154747
75	0x3c266918	0.010156892
76	0x3cb8b598	0.022547528
77	0x3cfde861	0.030994596
78	0xbdc67452	-0.09690155
79	0x3d203bc8	0.03911951
80	0xbd9d8fde	-0.07693456
81	0xbd9d9caf	-0.07695901
82	0xb77f6968	-1.5223726e-05
83	0xbcb281e5	-0.021790454
84	0x3d453e24	0.048154965
85	0xbd80be1c	-0.062862605
86	0xbdbeeeb1	-0.093228705
87	0x3d837daf	0.064204566
88	0xbcae321f	-0.021264134
89	0x3d3d77fb	0.046257
90	0x3ce477a3	0.027889078
91	0xbd9f0b1b	-0.0776579
92	0x3c6bab78	0.014384143
93	0x3c854a70	0.016270846
94	0xbd958143	-0.07300045
95	0xbd6197b9	-0.055076335
96	0x3cdb8a36	0.026799303
97	0x3c15d8b0	0.009145901
98	0xbd4ed85c	-0.050499305
99	0xbd235af1	-0.03988165
100	0x3d9eb889	0.07750041
101	0xbcbe1b41	-0.023206355
102	0x3d82341e	0.06357597
103	0x3d463160	0.04838693
104	0xbd70bce7	-0.0587739
105	0xbd801768	-0.062544644
106	0x3ddd0e30	0.10793722
107	0x3c309563	0.010777804
108	0x3d6097a7	0.054832127
109	0x3c671f7d	0.0141066285
110	0x3c9efb6c	0.019406997
111	0x3d9728d9	0.07380838
112	0x3dc0f639	0.09421963
113	0xbd8f11c3	-0.0698581
114	0x3c533c5c	0.012892809
115	0x3d93c611	0.072155125
116	0x3d7efda3	0.062253606
117	0x3d8f0ad9	0.06984491
118	0xbd6015c9	-0.054708276
119	0xbd7914ae	-0.060810737
120	0xbd052969	-0.032510195
121	0x3d210def	0.03931993
122	0x3de71f87	0.1128531
123	0xbd296061	-0.04135168
124	0x3d95b83e	0.07310532
125	0xbd22c539	-0.039738867
126	0xbdb4c1ac	-0.088260025
127	0xbc36ff8c	-0.011169326
128	0x3d69bef5	0.057066876
129	0x3dd4df1e	0.10394119
130	0xbd1eb070	-0.038742483
131	0x3d03850c	0.032109305
132	0x3dbb3eb2	0.091428176
133	0x3d9f6c12	0.07784285
134	0x3d870e9a	0.06594582
135	0x3d95ca8f	0.073140256
136	0x3d9ad277	0.07559674
137	0x3d14ffce	0.036376767
138	0xbd455f1a	-0.0481864
139	0xbd60d8f6	-0.05489441
140	0xbcc762b6	-0.024339061
141	0x3b0469de	0.0020204703
142	0xbd1c9724	-0.038230076
143	0x3d50b99a	0.050958253
144	0x3c9a8a6e	0.018864837
145	0xbced6f56	-0.028983753
146	0x3d09ef87	0.033675697
147	0x3cf39a86	0.029736768
148	0x3d70c71a	0.058783628
149	0x3d88692b	0.06660684
150	0xbd0b515b	-0.034013133
151	0x3dc00e76	0.09377758
152	0xbc19b3c5	-0.009381239
153	0x3bcb5208	0.0062048472
154	0xbd879825	-0.06620816
155	0xbd12b30a	-0.035815276
156	0xbd16d23a	-0.03682158
157	0xbc195e6c	-0.009360891
158	0x3dcaccbc	0.09902331
159	0xbc6be4bf	-0.014397799
160	0xbd3004b6	-0.042973243
161	0x3d84918a	0.06473072
162	0x3d5b460c	0.0535336
163	0x3dcddb03	0.10051539
164	0xbcb35f3e	-0.021896001
165	0x3d6fba8f	0.058527526
166	0x3c7b3373	0.015332091
167	0x3c60e475	0.013726343
168	0xbd450be6	-0.04810705
169	0xbb904d27	-0.0044037285
170	0xbac3e515	-0.0014945591
171	0x3d25b1d4	0.040452793
172	0x3ccad5be	0.024760123
173	0x3ccdeb8e	0.025136735
174	0x3ddcc6fd	0.107801415
175	0x3de54308	0.11194426
176	0x3d9a011d	0.075197436
177	0x3c25bb7c	0.010115501
178	0xbd602aef	-0.054728445
179	0x3da6b57a	0.08140083
180	0xbd0a2013	-0.033721995
181	0x3ad49de7	0.0016221375
182	0xbda77ae7	-0.08177739
183	0xbcdaa1db	-0.026688507
184	0xbd546706	-0.051856063
185	0x3dab0fc0	0.083526134
186	0xbdb8fb91	-0.090323575
187	0xbd8a5206	-0.06753926
188	0xbbcc9c79	-0.006244239
189	0xbd5d29e8	-0.053995043
190	0x3d194993	0.03742368
191	0xbd0df323	-0.0346557
192	0xbd4fcf1b	-0.05073462
193	0x3b658dd7	0.003502717
194	0x3d865156	0.06558482
195	0xbd94cd46	-0.07265715
196	0x3d2d54e2	0.04231728
197	0x3d6a3819	0.057182405
198	0x3da6f25a	0.08151694
199	0xbd92e824	-0.071731836
200	0x3c96693b	0.018360725
201	0xbdaf231d	-0.08551619
202	0x3d951edd	0.07281277
203	0xbd3ff02f	-0.046859916
204	0x3d3310fa	0.043717362
205	0xbbcdfbf8	-0.0062861405
206	0xbc88d445	-0.01670278
207	0x3b400a2a	0.0029302933
208	0x3c894b69	0.016759591
209	0x3d5b6d24	0.05357088
210	0x3ce8e1a2	0.028427903
211	0x3d2f56ff	0.042807575
212	0xbd8569a4	-0.0651429
213	0x3d9aee14	0.07564941
214	0x3dbe0785	0.09278778
215	0x3dbf95a6	0.09354715
216	0x3db5432a	0.08850701
217	0xbd65b888	-0.056084186
218	0xbc8794e6	-0.016550492
219	0x3dc37dc9	0.09545476
220	0xbd8aa130	-0.06769025
221	0x3dc7c02d	0.097534515
222	0xbd8951b8	-0.0670504
223	0xbd7b7377	-0.061389413
224	0x3d754888	0.059883624
225	0xbd825261	-0.06363369
226	0xbcb2cef0	-0.021827191
227	0x3da16757	0.07881039
228	0x3d95082d	0.0727695
229	0x3da7f371	0.0820073
230	0xbcad0fd8	-0.021125719
231	0xbda2e781	-0.07954312
232	0x3db3ca2d	0.08778796
233	0xbc9800cd	-0.01855507
234	0xbcb99d76	-0.022658091
235	0x3d174b2c	0.036936924
236	0xbd43d7ad	-0.047813106
237	0x3d96e75f	0.07368349
238	0x3d880115	0.066408314
239	0xbd83629b	-0.06415292
240	0xbd8e9e0e	-0.0696374
241	0xb923a1c5	-0.00015605155
242	0x3d67ebd9	0.056621406
243	0x3c5ca94d	0.013468099
244	0xbd12e959	-0.03586707
245	0x3cb90c4f	0.022588877
246	0xbda8d964	-0.08244589
247	0xbd808ed9	-0.06277246
248	0xbd52ffff	-0.05151367
249	0x3db280dc	0.08715984
250	0x3dbec287	0.09314447
251	0xbc82de6d	-0.015975202
252	0x3cd34505	0.025789747
253	0x3d8d52a9	0.06900532
254	0x3d3c08cb	0.045906823
255	0xbd08a398	-0.03335914

l1.0.bias f4 [32]
0	0x3c8b213b	0.016983619
1	0xbd8a1baf	-0.067435615
2	0xbdc99f5c	-0.098448485
3	0x3d4ab8ea	0.049492754
4	0xbbc99991	-0.0061523397
5	0x3d167bc5	0.03673913
6	0xbb98cc26	-0.0046630083
7	0x3d987aff	0.07445335
8	0xbd923d8e	-0.07140647
9	0xbd6003de	-0.054691188
10	0xbdbb4ea0	-0.09145856
11	0xbda4d18e	-0.08047782
12	0x3d74b127	0.05973926
13	0xbc9972fc	-0.018731587
14	0xbd482fc0	-0.048873663
15	0xbd072dd1	-0.03300268
16	0xbc1cac8a	-0.009562621
17	0xbcfa5d08	-0.030561939
18	0xbdba7f63	-0.09106328
19	0x3d8445fa	0.064586595
20	0xbb3c5795	-0.0028738726
21	0xbd93d861	-0.072190054
22	0x3ccce12f	0.02500972
23	0xbcd91a49	-0.026501792
24	0xbce1b571	-0.027552338
25	0xbda9794d	-0.082750894
26	0xbdb8888b	-0.090104185
27	0x3cffc54a	0.031222004
28	0xbdb0d79a	-0.08634873
29	0x3d868a51	0.065693505
30	0xbdb3de73	-0.08782663
31	0xbc8a7b13	-0.01690439

l1.1.weight f4 [32]
0	0x3f7a6e1b	0.9782426
1	0x3f7ead5f	0.99483293
2	0x3f7b8608	0.9825139
3	0x3f7d6be6	0.98992765
4	0x3f7b298a	0.9811026
5	0x3f8480a1	1.0351754
6	0x3f7f7d4e	0.99800575
7	0x3f80f33a	1.0074227
8	0x3f7bb6af	0.9832563
9	0x3f848a6f	1.0354747
10	0x3f82ea58	1.0227766
11	0x3f792f61	0.9733792
12	0x3f804075	1.0019671
13	0x3f7f643c	0.9976232
14	0x3f7bd35a	0.9836937
15	0x3f78da5e	0.972082
16	0x3f7d7a03	0.990143
17	0x3f8227b9	1.0168372
18	0x3f808e40	1.0043411
19	0x3f7e8833	0.99426574
20	0x3f802bca	1.0013363
21	0x3f829723	1.0202373
22	0x3f801d4a	1.0008938
23	0x3f7dd899	0.99158627
24	0x3f7c77a9	0.98620087
25	0x3f7c3cb5	0.9853013
26	0x3f87dafd	1.0613705
27	0x3f80209e	1.0009954
28	0x3f7f74a7	0.9978737
29	0x3f7eae5d	0.9948481
30	0x3f814764	1.0099912
31	0x3f7df571	0.9920264

l1.1.bias f4 [32]
0	0xbb64c48c	-0.003490719
1	0x3c823914	0.015896358
2	0xbbc23026	-0.00592615
3	0xbb3ed42f	-0.002911817
4	0xba917f44	-0.001110055
5	0x3d249cd8	0.04018864
6	0x3ad23080	0.0016036183
7	0xbccfd571	-0.025370331
8	0xbc18b563	-0.00932059
9	0x3d2ddfd4	0.042449787
10	0x3d13b7e0	0.03606403
11	0x3c2591b6	0.010105541
12	0xbbd618a2	-0.006533698
13	0x3d57b024	0.052658215
14	0x3a31690f	0.0006767669
15	0xbb8876b7	-0.0041645425
16	0x3cd71f34	0.026259996
17	0xbc3026f6	-0.0107514765
18	0x3d070fc3	0.032974016
19	0x3cd10aa8	0.025517777
20	0x3bcc29c6	0.0062305657
21	0x3c5ede4f	0.013602807
22	0xbb73973a	-0.0037168995
23	0x3be21799	0.0068997857
24	0x3c3746a8	0.011186279
25	0x3caf378c	0.021388792
26	0x3ceb7a8f	0.028744964
27	0x3c263938	0.010145478
28	0x3abcbc08	0.0014399299
29	0x3d96b5f8	0.073589265
30	0x3cd71063	0.026252931
31	0x3a236a4d	0.00062337966

l1.1.running_mean f4 [32]
0	0xbe5ac127	-0.21362744
1	0xbf388845	-0.7208293
2	0xbedfb993	-0.4369627
3	0xbeb77ecf	-0.35838935
4	0xbf0b5165	-0.54421073
5	0x3ebd7336	0.3700196
6	0x3f358194	0.70900846
7	0x3e278450	0.16359067
8	0xbf5122c3	-0.8169367
9	0x3ef1f145	0.47254387
10	0x3d77f16e	0.06053298
11	0xbf16e82f	-0.58948034
12	0x3f3e223c	0.7427099
13	0x3e53374b	0.20626561
14	0xbf4f5772	-0.80992806
15	0xbdac4eb7	-0.08413451
16	0xbea951b9	-0.33070162
17	0x3eb2fce0	0.34958553
18	0xbbb3af1f	-0.0054835225
19	0xbe613064	-0.21991116
20	0x3eda7fec	0.42675722
21	0x3e3364ec	0.17518967
22	0x3e8634b3	0.2621208
23	0x3eaeaef8	0.34117866
24	0xbf269a06	-0.6507877
25	0xbe34655a	-0.17616788
26	0x3eb32292	0.34987313
27	0x3f9362ea	1.1514561
28	0x3e8d50ac	0.2760061
29	0x3e570cf3	0.21001033
30	0x3eeb2164	0.45923913
31	0x3de82fd7	0.1133725

l1.1.running_var f4 [32]
0	0x3d052707	0.032507923
1	0x3e38e2ec	0.18055314
2	0x3d082b59	0.033244465
3	0x3c6ec5cc	0.014573526
4	0x3dba599d	0.090991236
5	0x3d000884	0.03125812
6	0x3ddd202b	0.10797151
7	0x3c52471b	0.012834336
8	0x3d9cbb6d	0.07652936
9	0x3d22fdfc	0.039793
10	0x3c19f6ed	0.009397251
11	0x3d980558	0.07422894
12	0x3e00074e	0.12502787
13	0x3c66168f	0.014043464
14	0x3cf1355c	0.029444389
15	0x3cd77b7d	0.026304001
16	0x3d1975a7	0.037465718
17	0x3cde91a7	0.027169062
18	0x3c0f0a81	0.008730532
19	0x3d75dc20	0.06002438
20	0x3ce2daeb	0.027692279
21	0x3ca43726	0.020045828
22	0x3d0e3439	0.034717772
23	0x3cf67364	0.03008432
24	0x3d857d7b	0.06518074
25	0x3c07fe1f	0.008300333
26	0x3cfe69aa	0.031056244
27	0x3de62c93	0.112389706
28	0x3dad1740	0.084517
29	0x3c6857a6	0.014181053
30	0x3d1b1c47	0.037868764
31	0x3c0a7cc7	0.008452601

l2.0.weight f4 [32, 32, 3, 3]
0	0xbd01c429	-0.031681214
1	0xbcd51979	-0.026013123
2	0xbcf8ea4c	-0.030385159
3	0xbd20415e	-0.03912484
4	0xbbd6d723	-0.006556408
5	0xbb0e34cf	-0.0021698957
6	0xbce20291	-0.027589114
7	0x3d037bcf	0.032100495
8	0xbcc0e14d	-0.023544932
9	0xbb67cd31	-0.0035370106
10	0x3ceb304c	0.028709553
11	0x3d4fd880	0.05074358
12	0x3d465ed3	0.048430275
13	0xbd7a5b5e	-0.06112229
14	0xbd480573	-0.04883332
15	0xb819c9ff	-3.6666166e-05
16	0xbc552513	-0.013009327
17	0x3d02edea	0.031965174
18	0x3d28c381	0.041202072
19	0xbd137fba	-0.03601048
20	0x3d632de3	0.055463683
21	0x3c8c7e6e	0.01715013
22	0x3cf55b6d	0.029950822
23	0xbc5d1a41	-0.013495029
24	0x3d2b1293	0.04176576
25	0xbd23186f	-0.039818224
26	0x3cba196d	0.022717202
27	0x3d8825a0	0.066478014
28	0x3c9fef5d	0.019523317
29	0xbcb5efb5	-0.022209028
30	0x3c2e6623	0.0106444685
31	0x3d3cd0ac	0.046097443
32	0xbcfd8fa1	-0.030952277
33	0xbd1504ca	-0.03638152
34	0xbb45be5c	-0.0030173277
35	0xbd0ee748	-0.034888536
36	0xbb8e7aeb	-0.004348149
37	0xbc2f6143	-0.010704341
38	0x3d33cd4e	0.043896966
39	0xbd4f8d6d	-0.050671984
40	0xbd5a4288	-0.053286105
41	0x3d395e55	0.045255978
42	0xbc349b56	-0.011023363
43	0xbd7adf5f	-0.06124818
44	0x3cb085a1	0.021548094
45	0xbd4c392c	-0.04985921
46	0xbc871560	-0.016489685
47	0x3cf5f604	0.030024536
48	0xbd187e71	-0.03722996
49	0xbd578a61	-0.052622203
50	0x3bf51ec5	0.0074804747
51	0xbce309f8	-0.027714714
52	0xbc8f5f1d	-0.017501408
53	0x3d30be8f	0.04315048
54	0x3a447a69	0.0007495047
55	0x3bb291fb	0.005449531
56	0xbd821602	-0.06351854
57	0xbd5a9f51	-0.053374592
58	0xbd81b9ff	-0.06334304
59	0x3d0c2cf4	0.03422256
60	0xbd21b9d4	-0.03948386
61	0x3cff3449	0.031152861
62	0x3cefaec9	0.029258149
63	0xbd7efc9c	-0.062252626
64	0xbbddf05c	-0.006773038
65	0xbd3907dc	-0.04517351
66	0x3ccaa6e4	0.024737783
67	0x3b4e7e53	0.00315084
68	0xbc746240	-0.014916003
69	0x3cc29844	0.023754247
70	0xbcd04a1a	-0.02542596
71	0xbc7c57b4	-0.015401769
72	0x3c196e28	0.009364642
73	0xbc4a5ef3	-0.012351739
74	0xbd04f69e	-0.032461755
75	0xba8d7943	-0.0010793585
76	0xbc6488d2	-0.013948636
77	0x3d658c82	0.0560422
78	0x3d6fe856	0.058571182
79	0xbd49cfe5	-0.04927053
80	0xbd210607	-0.03931239
81	0xbd2db2b3	-0.04240675
82	0xbd94cd26	-0.072656915
83	0xbc671bbc	-0.0141057335
84	0x3c128bb9	0.008944445
85	0xbc2427a5	-0.010019218
86	0x3c99e0dc	0.01878398
87	0xbcd5d3ab	-0.026101908
88	0xbd8a42fb	-0.06751057
89	0xbd01c40c	-0.031681105
90	0xbd138ef4	-0.036025003
91	0xbcd0d9c4	-0.025494464
92	0xbcd8df86	-0.026473772
93	0x3d7b6d51	0.06138355
94	0xbbd432b8	-0.0064757727
95	0xb9ddee13	-0.00042329784
96	0xbcc106bf	-0.023562787
97	0xba797313	-0.00095157436
98	0x3ccd81ae	0.02508625
99	0x3c269731	0.010167883
100	0x3d4c03c1	0.049808268
101	0x3cbbaea1	0.022910418
102	0xbc055d39	-0.008139902
103	0x3d16ca76	0.036814176
104	0xbd1ce8a0	-0.038307786
105	0xbc485763	-0.012227866
106	0x396f19ad	0.00022802381
107	0x3bbb69fc	0.0057194214
108	0xbd32b80e	-0.04363256
109	0xbc590992	-0.013246911
110	0x3b35c333	0.0027734756
111	0xbcf0a104	-0.029373653
112	0xbd2101fd	-0.039308537
113	0xbd946bfe	-0.072471604
114	0xbd7c71bf	-0.061631914
115	0xbda1368f	-0.07871734
116	0xbce3e937	-0.027821166
117	0xbd5642f9	-0.052309964
118	0xbd3a8daa	-0.045545258
119	0x3ccc13fe	0.024911877
120	0xbd84c214	-0.0648233
121	0x3c504be1	0.012713403
122	0xbc95fa79	-0.018307911
123	0xbd235e3a	-0.039884783
124	0x3cf738ca	0.030178446
125	0x3d06a451	0.032871548
126	0xbccef114	-0.02526144
127	0x3bafae27	0.0053613367
128	0xbcce2233	-0.025162792
129	0xbd710536	-0.05884286
130	0x3cbdb6e7	0.023158504
131	0x3ca910d3	0.020637905
132	0x3d4241bd	0.047425974
133	0xbd250f52	-0.040297814
134	0xbcb4ac9f	-0.022054968
135	0x3d5f7af6	0.054560624
136	0xbc907973	-0.017636037
137	0x3d86c5ce	0.06580697
138	0x3c84522f	0.01615247
139	0x3c89bffb	0.016815176
140	0x3ce47b34	0.02789078
141	0x3d217e44	0.039427057
142	0x3c52f679	0.0128761465
143	0xbd0f0541	-0.03491712
144	0x3d55c581	0.052190308
145	0xbd0ea60e	-0.03482633
146	0x3b8e897e	0.0043498864
147	0xbd6ba6e9	-0.057532225
148	0xbd064a63	-0.032785784
149	0x3d310311	0.043215815
150	0xbbb38099	-0.0054779765
151	0xbc5a4a21	-0.013323338
152	0xbd0254dd	-0.031819213
153	0xbd6e1f25	-0.05813517
154	0x3d0e85f1	0.034795705
155	0xbd3a4560	-0.045476317
156	0x3cf19fce	0.029495146
157	0xbd3af3c1	-0.045642618
158	0x3d0fbf28	0.03509441
159	0xbbb02dc6	-0.0053765504
160	0xbd511af8	-0.05105111
161	0x3d3aa3b4	0.045566276
162	0x3d16ace1	0.036785964
163	0xbd2c6b42	-0.042094477
164	0xbd46e033	-0.048553657
165	0x3c776d0b	0.015101681
166	0x3cfa304e	0.030540612
167	0x3d5e51f5	0.05427738
168	0xbc067ce9	-0.008208492
169	0x3d5c253f	0.05374646
170	0x3d84d62f	0.06486165
171	0x3cc02a82	0.02345777
172	0xbce15794	-0.02750758
173	0x3d643656	0.05571588
174	0xbc9ce960	-0.01915425
175	0x3bb927e3	0.005650507
176	0xbd220a45	-0.039560575
177	0x3c9e6428	0.019334868
178	0xbd86f21f	-0.0658915
179	0x3c827da1	0.015929045
180	0xbd8d268d	-0.068921186
181	0xbdbecacc	-0.09316024
182	0xbd63c743	-0.055609953
183	0x3cf8ab4d	0.03035512
184	0x3c5c589d	0.013448861
185	0xbd66fbae	-0.056392364
186	0x3cb47e67	0.02203293
187	0xbc9b4427	-0.018953396
188	0xbd013626	-0.03154578
189	0xbd8ad088	-0.067780554
190	0xbd215a44	-0.039392725
191	0x3d395fe4	0.045257464
192	0xbd2e3322	-0.042529233
193	0x3d0326aa	0.032019295
194	0xbd0407ad	-0.032233883
195	0xbd71ccfe	-0.059033386
196	0xbd58d220	-0.052934766
197	0xbb515f70	-0.0031947754
198	0xba5c5434	-0.0008404881
199	0xbcbfcb14	-0.023412265
200	0xbcd1a1dc	-0.025589876
201	0xbd4c2929	-0.04984394
202	0xbd20ebc8	-0.03928736
203	0xbcd86240	-0.026414037
204	0xbccf26b0	-0.025287002
205	0x3ca0dc64	0.01963634
206	0x3cc5fdd4	0.024168886
207	0x3d18d4d5	0.037312347
208	0x3d1cf542	0.038319834
209	0xbd890949	-0.06691224
210	0xbd253b13	-0.04033954
211	0x3c7be88e	0.01537527
212	0x3cae2fd4	0.02126304
213	0xbca2997f	-0.019848583
214	0xbbda5388	-0.0066627897
215	0xbc81d7c6	-0.01584996
216	0x3b3368d1	0.0027375708
217	0xbcff66bb	-0.031176915
218	0xbb6cee55	-0.00361528
219	0x3c8ba8c7	0.017048253
220	0x3d15b715	0.036551554
221	0xbca25b55	-0.019818941
222	0x3ca8bd0d	0.020597959
223	0x3d0585ff	0.03259849
224	0x3a9bd048	0.0011887634
225	0x3d3a3332	0.04545898
226	0x3cec6608	0.028857246
227	0xbd3ad409	-0.04561237
228	0xbd10d1b1	-0.035356227
229	0x3cc54864	0.02408237
230	0xbc82f676	-0.015986662
231	0xbcc0e7ce	-0.023548033
232	0xbcbc356e	-0.022974696
233	0xbd4778b1	-0.048699085
234	0xbc8354f5	-0.016031722
235	0xbc3e156b	-0.011601786
236	0xbcf000d9	-0.02929728
237	0xbd2938e7	-0.041314032
238	0xbd53b089	-0.05168203
239	0x3d26fcab	0.040768307
240	0x3d11096e	0.035409383
241	0xbd3a0324	-0.04541315
242	0xbd67d99a	-0.056604005
243	0xbccfb6ad	-0.025355661
244	0xbd2c0b06	-0.0420027
245	0xbd7b62b3	-0.061373424
246	0xbd5f32a4	-0.054491654
247	0x3d301cff	0.042996403
248	0xbca61558	-0.02027385
249	0x3cd90750	0.026492745
250	0x3c164ddf	0.009173839
251	0xbc928a4f	-0.017888216
252	0xbd1d8f1a	-0.03846655
253	0x3cbbfcd1	0.0229477
254	0xbcf11b4b	-0.02943196
255	0xbd4d1ac1	-0.050074343

l2.0.bias f4 [32]
0	0xbcd7f785	-0.026363144
1	0x3d7000c3	0.058594476
2	0x3d2409c2	0.04004837
3	0xbc3c4040	-0.011489928
4	0xba8a5c17	-0.0010556009
5	0x3c983e14	0.018584289
6	0x3cc48638	0.023989782
7	0xbd5032f3	-0.05082984
8	0xbd6ed17d	-0.058305252
9	0x3d3c205f	0.04592931
10	0xbd27c5ce	-0.040960126
11	0xbcb38c93	-0.021917617
12	0x3d5337cb	0.05156688
13	0xbc6f5e61	-0.014609904
14	0x3d53f6a3	0.051748883
15	0xbc8de62d	-0.01732167
16	0xbc081d6a	-0.008307794
17	0xbd0130d2	-0.0315407
18	0x3d1db5bb	0.03850339
19	0x3d4e09a5	0.050302166
20	0xbd3039d0	-0.043023884
21	0xbca655fc	-0.020304672
22	0xbc90b395	-0.017663756
23	0x3ce8a517	0.028399033
24	0xbd50caa0	-0.05097449
25	0x3cf0a68a	0.029376287
26	0x3c032989	0.008005508
27	0xb9e4d55c	-0.00043646514
28	0x3d4fa492	0.050694056
29	0x3cc2dd35	0.02378712
30	0xbcc83916	-0.024441283
31	0xbc6f2cdb	-0.014598097

l2.1.weight f4 [32]
0	0x3f7db7e9	0.9910875
1	0x3f80b5c0	1.0055466
2	0x3f807545	1.0035788
3	0x3f80252c	1.0011344
4	0x3f7d13c1	0.9885827
5	0x3f7cff55	0.98827106
6	0x3f7ea7ab	0.9947459
7	0x3f79ad89	0.9753042
8	0x3f7f268d	0.996682
9	0x3f810e44	1.0082479
10	0x3f81961c	1.0123935
11	0x3f7ddf25	0.99168617
12	0x3f80085d	1.0002552
13	0x3f8021c5	1.0010306
14	0x3f802847	1.0012292
15	0x3f807b74	1.0037675
16	0x3f819bfa	1.0125725
17	0x3f840243	1.031319
18	0x3f81d5b8	1.0143347
19	0x3f7f6fee	0.99780166
20	0x3f7c124f	0.98465437
21	0x3f7faab5	0.99869853
22	0x3f7df7a7	0.9920601
23	0x3f7ec832	0.99524224
24	0x3f80bf42	1.0058367
25	0x3f7d38cb	0.98914784
26	0x3f7b62a8	0.9819741
27	0x3f7caddd	0.98702794
28	0x3f8031b2	1.0015166
29	0x3f7b065a	0.98056567
30	0x3f87ed88	1.0619364
31	0x3f7cd668	0.9876466

l2.1.bias f4 [32]
0	0x3b0dcdd3	0.0021637573
1	0xbc11a2c9	-0.008888909
2	0xbbd2fbfe	-0.006438731
3	0x3c8a2465	0.016863057
4	0xbbc3a56f	-0.005970649
5	0x39706815	0.00022926957
6	0xbc0a1418	-0.008427642
7	0xbbb480f1	-0.005508535
8	0x3c69be6b	0.014266591
9	0xbb14fbfe	-0.0022733207
10	0x3d1ea2fd	0.038729656
11	0xbd3b6179	-0.045747254
12	0xbbeb2c54	-0.007176915
13	0xbb7efc1d	-0.0038907595
14	0xbcc7928a	-0.024361867
15	0xbcac5a65	-0.021039197
16	0xbd2da8f7	-0.042397466
17	0xbd077183	-0.033067238
18	0xbba869e8	-0.005139578
19	0xbc896fa0	-0.01677686
20	0xbcbf7afc	-0.023374073
21	0x3bf7ab5e	0.0075582704
22	0xbbc12af3	-0.0058950125
23	0xbb8c7d84	-0.0042874236
24	0xbc43a94d	-0.01194222
25	0xbcd8b976	-0.026455622
26	0x3c3c354f	0.011487319
27	0xbca118cc	-0.019665144
28	0xbd092e37	-0.03349134
29	0xbd0a1f52	-0.033721276
30	0xbd9a34bc	-0.075295895
31	0x3ce5bfad	0.0280455

l2.1.running_mean f4 [32]
0	0xbf47cf3a	-0.7805058
1	0xbcbfeb1a	-0.023427535
2	0xbea9cfbc	-0.331663
3	0x3d9387c5	0.0720363
4	0x3e264897	0.16238628
5	0xbe6ffc44	-0.23436075
6	0x3e49cbd3	0.19706659
7	0xbe4194d7	-0.18904434
8	0xbf28b5c3	-0.65902346
9	0xbdf4641f	-0.11933159
10	0xbef2954c	-0.4737953
11	0xbeb09ffc	-0.34497058
12	0xbca4c0b9	-0.020111429
13	0xbe9fdb41	-0.31221965
14	0xbdfaeeb5	-0.12252561
15	0xbe43350d	-0.19063206
16	0xbb07a7c7	-0.0020699368
17	0xbce013b2	-0.027353141
18	0x3d3960e0	0.045258403
19	0xbe347456	-0.17622504
20	0x3e44f9fe	0.1923599
21	0xbf05ba02	-0.5223695
22	0x3ef3c014	0.4760748
23	0xbe39ae75	-0.18132956
24	0x3e9eacf3	0.30991325
25	0x3e3e2897	0.18570171
26	0xbdccebc8	-0.10005909
27	0x3daed9a9	0.08537609
28	0x3ddb9a84	0.10722831
29	0x3d85270c	0.06501588
30	0xbcae12e0	-0.021249235
31	0x3f0d36b4	0.55161595

l2.1.running_var f4 [32]
0	0x3ed4b3f9	0.41543558
1	0x3dec9201	0.115512855
2	0x3edee5a6	0.43534583
3	0x3f846130	1.0342159
4	0x3dca379b	0.09873887
5	0x3f030ec5	0.5119441
6	0x3e97ad1a	0.29624254
7	0x3e220391	0.15821673
8	0x3e59ab47	0.21256743
9	0x3e11576c	0.14193505
10	0x3df33379	0.11875052
11	0x3e20db1a	0.1570858
12	0x3e144285	0.144785
13	0x3ebf515e	0.37366766
14	0x3da6f6fb	0.081525765
15	0x3e208eae	0.15679428
16	0x3dbbee3a	0.091762975
17	0x3d9b00e5	0.0756853
18	0x3e0facb5	0.14030726
19	0x3e8dadab	0.2767156
20	0x3eb4cd37	0.35312817
21	0x3f4fb1b1	0.8113051
22	0x3e06e081	0.13171579
23	0x3e9291ce	0.28626865
24	0x3dcc04d0	0.099618554
25	0x3dd50a59	0.10402364
26	0x3e02cd92	0.12773731
27	0x3db3aced	0.08773217
28	0x3dacb083	0.084321044
29	0x3e0f1750	0.13973737
30	0x3d33267b	0.04373787
31	0x3effe38c	0.49978292

l3.0.weight f4 [32, 32, 3, 3]
0	0xbbda2e16	-0.006658326
1	0x3c44b247	0.012005395
2	0xbbaae07a	-0.005214748
3	0xbd57d299	-0.052691076
4	0xbc06f3f3	-0.008236873
5	0xbca2cb33	-0.019872284
6	0xbcd7653e	-0.026293393
7	0xbd5e1553	-0.054219555
8	0xbc006fe2	-0.007839175
9	0x3c9b3d66	0.018950175
10	0xbd6d6327	-0.057955887
11	0xbc9fcc3d	-0.019506568
12	0xbcbc9d2f	-0.02302417
13	0xbd061b6e	-0.032741003
14	0x3ce0bd55	0.02743403
15	0x3cbaea0c	0.02281668
16	0xbcd31217	-0.025765462
17	0xbcde145b	-0.027109316
18	0x3ce893fa	0.028390873
19	0x3c711cda	0.014716351
20	0xbc7112c3	-0.014713946
21	0xbcb2e40a	-0.021837253
22	0xbd239751	-0.03993923
23	0xbd3d50fd	-0.046219815
24	0x3c077680	0.008267999
25	0xbc900080	-0.017578363
26	0x3d21f2ba	0.039538123
27	0x3ca951de	0.02066892
28	0x3d4438d5	0.04790576
29	0xbc770125	-0.0150759565
30	0x3d18cbfa	0.037303902
31	0x3d60114e	0.054704003
32	0xba8a5acc	-0.0010555624
33	0x3d90428d	0.070439436
34	0x3cc1a46e	0.023637976
35	0xbd2a67c2	-0.041602857
36	0x3c1b19a5	0.009466563
37	0x3d483487	0.04887822
38	0x3c742a9c	0.014902737
39	0xbd6d22b0	-0.05789441
40	0xbcc07207	-0.023491872
41	0xbd26c3a6	-0.04071393
42	0xbd23c3d9	-0.039981697
43	0xbd7cbd50	-0.06170398
44	0xbd678781	-0.05652571
45	0x3d4efe38	0.05053541
46	0xbcd0abdb	-0.025472572
47	0x3c45852e	0.012055678
48	0xbd29c0ba	-0.041443564
49	0xbd0c118a	-0.034196414
50	0x3d4b2f78	0.049605817
51	0x3b20877b	0.0024494815
52	0x3d37b623	0.044851433
53	0xbd5e2c4b	-0.05424146
54	0xbd23dc0c	-0.040004775
55	0xbcf4c2b0	-0.02987799
56	0x3b3b1be5	0.0028550562
57	0x3d66f81c	0.05638896
58	0xbcb8a621	-0.022540154
59	0xbcff0868	-0.031131938
60	0x3bcd093a	0.0062572034
61	0x3d1cbec3	0.038267862
62	0x3d39b3f4	0.045337632
63	0xbcc5980e	-0.024120357
64	0xbc9eb5f4	-0.019373871
65	0x3cb4901d	0.022041375
66	0xbc2bdbfa	-0.010489458
67	0xbd4e28c5	-0.05033185
68	0x3b03d4d2	0.0020115864
69	0xbb8ecd2e	-0.0043579554
70	0xbd49573d	-0.049155463
71	0xbc94810d	-0.018127942
72	0xbd828188	-0.063723624
73	0x3c635a74	0.013876546
74	0x3b1ba365	0.0023748514
75	0x3cd5c1ae	0.02609333
76	0x3c9d7e0b	0.019225141
77	0x3d30810b	0.043091815
78	0x3ce7830c	0.02826073
79	0x39b748b6	0.00034958654
80	0x3ca83e48	0.02053751
81	0xbd4d898e	-0.05018001
82	0x3cf3ac96	0.029745381
83	0x3cbd773f	0.02312815
84	0x3d6b1d83	0.05740119
85	0x3c82c6f6	0.015964013
86	0xbcba17f9	-0.02271651
87	0xbcf37263	-0.02971763
88	0x3cd40c7b	0.025884857
89	0xbd049c85	-0.03237583
90	0x3cf5f3c0	0.030023456
91	0x3a71696c	0.00092091295
92	0xbbdf9acf	-0.0068238745
93	0x3d778335	0.060427863
94	0xbc882e9c	-0.016623788
95	0xbce62b7f	-0.028096912
96	0x3d80973b	0.06278845
97	0x3c95362b	0.018214306
98	0xbca72457	-0.02040307
99	0xbace5d13	-0.0015744291
100	0xbd5dc25e	-0.05414044
101	0x3d4ad070	0.049515188
102	0x3cf6d414	0.030130424
103	0xbd2dca47	-0.042429235
104	0x3d1afc30	0.03783816
105	0x3c8972d6	0.01677839
106	0xb8a9c59e	-8.095357e-05
107	0xbca17e7e	-0.019713636
108	0xbd34f9f7	-0.044183698
109	0x3d11c0e6	0.035584353
110	0x3d865724	0.065595895
111	0x3ab1c0f0	0.0013561528
112	0xbcbb0679	-0.022830235
113	0xbcf8515d	-0.030312235
114	0x3d69df55	0.05709775
115	0x3c3bd329	0.011463919
116	0x3d83c8ce	0.06434785
117	0x3d6adea8	0.057341248
118	0xbd1ec1ed	-0.03875916
119	0x3c42ae93	0.011882442
120	0x3ce8022e	0.028321352
121	0x3d0f06c8	0.034918576
122	0x3cc3e8b4	0.023914672
123	0x3d39f220	0.045396924
124	0x3d02bb24	0.031916752
125	0x3c88ad73	0.01668427
126	0xbd6ddda2	-0.058072694
127	0xbcf97c47	-0.030454768
128	0x3ce7edd4	0.028311647
129	0x3cc13113	0.02358297
130	0xbc8a99a0	-0.016918957
131	0xbbc790cf	-0.0060902606
132	0xbd5c139b	-0.053729635
133	0x3d3b6559	0.04575095
134	0xbce6b1c7	-0.028160943
135	0xbca0efc8	-0.019645587
136	0xbd67e255	-0.05661233
137	0x3c07ab1f	0.008280545
138	0xbd5b4f32	-0.053542323
139	0x3caa0b08	0.020757213
140	0x3c688cb4	0.0141937025
141	0xbc8c1acb	-0.01710262
142	0xbdc593cb	-0.0964733
143	0xbc7df7d9	-0.015500986
144	0xbd39f812	-0.045402594
145	0xbd4a7a5b	-0.049433094
146	0xbd2eba04	-0.042657867
147	0xbbf3dce8	-0.0074421056
148	0xbc94fc58	-0.018186733
149	0xbbf53f2e	-0.0074843382
150	0x3c81be27	0.015837742
151	0xbd86e1a2	-0.06586005
152	0xbd001f68	-0.03127995
153	0xbcd83c30	-0.026395887
154	0xbbdc6256	-0.0067255897
155	0xbc959647	-0.018260134
156	0xbd9c0ecc	-0.0762001
157	0xbbdef230	-0.0068037733
158	0xbcdb1d6d	-0.02674743
159	0x3b891251	0.0041830917
160	0xbca964d0	-0.020677954
161	0x3cbc8a03	0.023015028
162	0x39e18d58	0.00043020654
163	0xbae9f4b4	-0.0017849416
164	0xbb58276c	-0.0032982482
165	0x3d5237ba	0.051322676
166	0xbcf4fbae	-0.029905166
167	0x3d196398	0.037448496
168	0xbb498f68	-0.0030755643
169	0x3d339384	0.043841854
170	0xbd56ca8a	-0.05243925
171	0x3d7ac9f3	0.06122775
172	0xbc62ae50	-0.013835505
173	0x3cc4e76c	0.024036132
174	0xbc849a6a	-0.016186912
175	0x3d87bc1f	0.06627678
176	0x3d67462d	0.05646341
177	0xbd36dc98	-0.04464397
178	0xbd49a901	-0.04923344
179	0xbc93b120	-0.018028796
180	0xbc4f7390	-0.01266183
181	0xbd382176	-0.044953786
182	0x3c6719b4	0.014105249
183	0x3ba57502	0.005049349
184	0xba9cb2b5	-0.0011955114
185	0xbce0dd2d	-0.027449215
186	0x3c8cae50	0.017172962
187	0x3d6935a8	0.056935936
188	0x3d2f426d	0.042787958
189	0x3cbe14c4	0.023203261
190	0x3c743645	0.014905517
191	0xbd27d7ff	-0.040977474
192	0x3d10691b	0.035256486
193	0x3cd2dac1	0.025739076
194	0xbd78dbca	-0.060756482
195	0x3d21e306	0.039523147
196	0xbc177116	-0.00924327
197	0xbd4e95fb	-0.050436
198	0xbd2f0be3	-0.042735945
199	0x3c32c1a5	0.010910426
200	0x3b54ea65	0.0032488343
201	0xbd10dfe9	-0.035369787
202	0xbcad2a52	-0.021138344
203	0x3ce1c4c6	0.02755965
204	0xbcbd30a0	-0.023094475
205	0x3d3e7722	0.046500333
206	0x3bfd57e1	0.0077314232
207	0x3c963b51	0.018338831
208	0x3d2582e0	0.040408015
209	0x3d69b43b	0.057056647
210	0x3ccbb51d	0.024866635
211	0xba93b820	-0.0011270083
212	0x3d607c83	0.054806244
213	0x3ca119fd	0.019665712
214	0x3c9614ab	0.018320402
215	0xbca7356f	-0.020411221
216	0xbd1312f3	-0.035906743
217	0xbd345e36	-0.04403516
218	0x3d7cdfbc	0.061736807
219	0xbd68ad8a	-0.056806125
220	0xbd3c0a48	-0.045908242
221	0x3d601fde	0.05471789
222	0x3d3fb7d8	0.046806186
223	0xbc7e8fab	-0.015537183
224	0xbc06bf3d	-0.008224306
225	0x3cdfc28f	0.027314452
226	0xbd5aa1ee	-0.053377084
227	0x3d26cf81	0.040725235
228	0xbd317a88	-0.043329746
229	0x3cb74eb3	0.022376394
230	0xbd09df40	-0.033660173
231	0x3c176c31	0.009242103
232	0xbcaff41a	-0.021478701
233	0xbcaf8c55	-0.02142922
234	0xbd4a4f50	-0.049392045
235	0x3c807cda	0.015684534
236	0xbd1c22c8	-0.038119107
237	0xbd2ccbc7	-0.042186525
238	0xbd39a5a9	-0.045324
239	0xbbe11b27	-0.006869692
240	0xbc02de88	-0.007987626
241	0xbb9cce1c	-0.0047853123
242	0xbd9f81c5	-0.077884234
243	0x3ceeabd2	0.029134665
244	0x3c1917c4	0.009344045
245	0xbcc46f4d	-0.023978854
246	0xbd6c4066	-0.057678603
247	0xbd408319	-0.047000024
248	0x3bbba275	0.0057261535
249	0xbd77e2f9	-0.060519192
250	0x3bddfb08	0.00677431
251	0xbd90d6de	-0.07072233
252	0xba9f9b08	-0.001217694
253	0xbdadeff3	-0.08493032
254	0xbcce6594	-0.02519492
255	0xbd944225	-0.072391786

l3.0.bias f4 [32]
0	0xbd011a7b	-0.031519394
1	0x3d41e5ed	0.047338415
2	0x3d144c9d	0.036205877
3	0xbc780f25	-0.0151403295
4	0xbbfb90a8	-0.0076771565
5	0x3cb3cf79	0.021949517
6	0xbcd641bd	-0.026154393
7	0x3d43d724	0.047812596
8	0x3d440dc1	0.04786468
9	0x3d477370	0.048694074
10	0x3cb99506	0.022654068
11	0x3cac7ab5	0.021054605
12	0xbccd4ba9	-0.025060492
13	0xbd210114	-0.03930767
14	0x3d42491d	0.047433008
15	0xbd5443fc	-0.051822647
16	0xbcebbe31	-0.028777214
17	0xbc197178	-0.009365432
18	0x3ce9fa5d	0.028561765
19	0x3d0bde23	0.034147393
20	0xbd738b2b	-0.059458893
21	0xbcab83b1	-0.020936819
22	0xbc504125	-0.012710844
23	0xbd5ab51e	-0.053395383
24	0x3c686e2b	0.014186422
25	0xbca41c20	-0.020032942
26	0x3ad41bd2	0.0016182608
27	0x3c8fdbf8	0.017560944
28	0x3ce3d92d	0.027813518
29	0x3cca70e1	0.024712028
30	0xbb30ccca	-0.0026977533
31	0x3d2330e2	0.03984154

l3.1.weight f4 [32]
0	0x3f8265a0	1.0187263
1	0x3f7aec0c	0.9801643
2	0x3f811050	1.0083103
3	0x3f7e3207	0.99295086
4	0x3f7d3ab0	0.98917675
5	0x3f82356b	1.0172552
6	0x3f7fbf19	0.99900967
7	0x3f7c8a4f	0.9864854
8	0x3f8025c3	1.0011524
9	0x3f81a220	1.0127602
10	0x3f7fe290	0.9995508
11	0x3f7a3b45	0.9774669
12	0x3f7dde1d	0.9916704
13	0x3f77f84b	0.9686324
14	0x3f80f750	1.0075474
15	0x3f80cdbe	1.0062788
16	0x3f7e73b6	0.9939531
17	0x3f7fe99e	0.99965847
18	0x3f7f4a9a	0.9972321
19	0x3f8720e6	1.0556915
20	0x3f832da7	1.0248307
21	0x3f7f85d3	0.99813575
22	0x3f7dd083	0.9914629
23	0x3f7c83a4	0.9863837
24	0x3f81a0ed	1.0127236
25	0x3f7eafcb	0.9948699
26	0x3f81bd0d	1.0135819
27	0x3f7d315b	0.98903435
28	0x3f80bbdc	1.005733
29	0x3f7f8586	0.99813116
30	0x3f7a7d08	0.9784703
31	0x3f7d059a	0.9883667

l3.1.bias f4 [32]
0	0xbc835b71	-0.016034814
1	0xbd3b1423	-0.0456735
2	0xbc8ee3c6	-0.017442595
3	0xbd77d234	-0.0605032
4	0xbcf99b94	-0.030469693
5	0xbcb9638c	-0.022630475
6	0xbcf0db71	-0.029401513
7	0xbd105f85	-0.035247345
8	0xbd331036	-0.04371663
9	0xbd2fd3aa	-0.042926468
10	0xbccf8124	-0.025330134
11	0xbd65ecee	-0.056134157
12	0xbce2e3b0	-0.02769646
13	0xbd29fad8	-0.04149899
14	0xbd290e39	-0.04127333
15	0xbd7db0a2	-0.06193603
16	0xbc723704	-0.014783625
17	0xbd23b5e3	-0.039968383
18	0xbd23c820	-0.039985776
19	0xbd243638	-0.04009077
20	0xbd67c019	-0.056579683
21	0xbcead586	-0.028666269
22	0xbd72936b	-0.05922262
23	0xbd86eb75	-0.065878786
24	0xbd20ff96	-0.039306246
25	0xbd17e920	-0.03708756
26	0xbd10710f	-0.03526407
27	0xbd8c83df	-0.0686109
28	0xbd6a1395	-0.05714758
29	0xbcfdd711	-0.03098634
30	0xbcc0f270	-0.023553103
31	0xbd2e1f5c	-0.042510375

l3.1.running_mean f4 [32]
0	0xbe986e6a	-0.2977174
1	0x3e270ddf	0.16313885
2	0x3eab177b	0.33416352
3	0x3df753ab	0.12076505
4	0xbe683326	-0.22675762
5	0xbe036520	-0.12831545
6	0xbd593571	-0.05302948
7	0x3e112ef6	0.1417807
8	0x3f17ef7a	0.5934979
9	0x3e59d02c	0.21270818
10	0x3e861ff9	0.26196268
11	0x3e13fa8e	0.14451048
12	0x3d8db52b	0.06919321
13	0x3e00eb89	0.1258985
14	0x3e891fb6	0.26782006
15	0x3e661378	0.22468364
16	0x3e574c2b	0.2102515
17	0x3e100b7e	0.14066884
18	0x3f0232ee	0.5085896
19	0xbb6cd572	-0.0036137966
20	0x3e455347	0.19270049
21	0xbe46da68	-0.19419253
22	0xbdff9f4a	-0.12481554
23	0x3d247f8d	0.040160704
24	0x3da734a0	0.08164334
25	0x3b24fa49	0.0025173596
26	0x3e339948	0.17538941
27	0x3e50c9cd	0.20389481
28	0x3e95d6fd	0.29265586
29	0xbe547b23	-0.20750098
30	0x3e0dea3c	0.13858885
31	0xbe0d980c	-0.13827533

l3.1.running_var f4 [32]
0	0x3e536bb5	0.20646556
1	0x3e217f1a	0.15771142
2	0x3dc90173	0.098147295
3	0x3e023186	0.12714204
4	0x3e854c9c	0.2603501
5	0x3e38d5f5	0.18050368
6	0x3e9093f1	0.2823787
7	0x3e72cbd3	0.23710565
8	0x3e03a928	0.12857497
9	0x3ddde4c9	0.10834653
10	0x3e838536	0.2568757
11	0x3dec22f4	0.11530104
12	0x3dd9b6e8	0.1063059
13	0x3e4a97e2	0.19784501
14	0x3deb87ea	0.11500533
15	0x3db769bf	0.08955716
16	0x3e9bb57b	0.30411896
17	0x3e308c51	0.17241026
18	0x3dcbbd4d	0.09948216
19	0x3d858675	0.06519786
20	0x3e29901e	0.16558883
21	0x3e88c295	0.26710954
22	0x3dc92f26	0.09823446
23	0x3dd4b981	0.103869446
24	0x3d5fb780	0.05461836
25	0x3daf10a8	0.08548099
26	0x3e22b754	0.15890247
27	0x3da37cd6	0.07982795
28	0x3db6951c	0.08915159
29	0x3e55f549	0.2089435
30	0x3e083140	0.13300037
31	0x3e573745	0.21017177

l4.0.weight f4 [32, 32, 3, 3]
0	0x3d20d448	0.039264947
1	0xbbb79259	-0.005602163
2	0xbd36d92b	-0.0446407
3	0xbd5412a6	-0.051775597
4	0xbd2e94d1	-0.04262239
5	0x3d4fef6f	0.05076545
6	0xbbe839bc	-0.0070869606
7	0xbd2237d3	-0.03960402
8	0xbd50a30a	-0.050936736
9	0x3d0ecc56	0.03486284
10	0x3c5c5cec	0.013449889
11	0xbd251cce	-0.040310673
12	0x3c7d15a1	0.015447051
13	0x3d27d851	0.04097778
14	0xbbf461fb	-0.0074579692
15	0xba589b6a	-0.00082629046
16	0xbd668cc8	-0.056286603
17	0x3d2aa2d1	0.04165918
18	0xbcaeb43e	-0.02132618
19	0xb9313b13	-0.00016902042
20	0x3d5b76b4	0.05358
21	0xbd8a46b3	-0.06751766
22	0xbc64339c	-0.01392832
23	0x3c8bd2ee	0.017068353
24	0x3d57ebd4	0.052715138
25	0xbd358247	-0.044313695
26	0x3d744c3a	0.059643008
27	0x3d1688b6	0.03675147
28	0xbb356945	-0.0027681154
29	0xbccfaf91	-0.025352271
30	0xbd52ea7a	-0.051493146
31	0x3ce416fb	0.02784299
32	0xbd25be26	-0.040464543
33	0x3d246307	0.040133502
34	0x3c50d6bf	0.012746512
35	0x3d176d6e	0.036969595
36	0x3d6b8634	0.057501033
37	0xbcbabba2	-0.022794548
38	0xbce01173	-0.02735207
39	0x3d096e2c	0.033552334
40	0xbce05c63	-0.027387803
41	0x3d5be9d4	0.053689793
42	0xbc4f96b6	-0.01267021
43	0xbc803bf2	-0.015653584
44	0x3c736c10	0.014857307
45	0x3cbcd371	0.023050042
46	0xbd0687ce	-0.032844357
47	0xbd64232c	-0.055697605
48	0xbda2dc42	-0.07952167
49	0x3cb308de	0.021854814
50	0x3bf3498c	0.007424539
51	0x3b67936e	0.0035335678
52	0x3ca5bff6	0.020233136
53	0xbd68acf4	-0.056805566
54	0xbd476584	-0.048680797
55	0x3ca85158	0.0205466
56	0x3d5c63bd	0.053806055
57	0x3d6298bc	0.05532144
58	0x3d382f13	0.04496677
59	0x3d376e81	0.04478312
60	0xbc75e9e2	-0.015009375
61	0x3c87e42c	0.016588293
62	0xbc54a6f8	-0.012979262
63	0xbd807973	-0.062731646
64	0x3d52575c	0.051352844
65	0xbd0231ae	-0.03178566
66	0x3c96cc5f	0.018407999
67	0xbd638958	-0.055550903
68	0xbcbc8bd5	-0.023015896
69	0xbcaac046	-0.020843636
70	0x3cde2aef	0.027120082
71	0xbd225d7d	-0.03963994
72	0xbd7819d6	-0.060571514
73	0x3d472be7	0.048625853
74	0xbc9e5dc0	-0.019331813
75	0x3d006b69	0.031352434
76	0x3d63cafe	0.05561351
77	0x3a87c9bd	0.0010359805
78	0xbba787f1	-0.005112641
79	0x3cafb6c7	0.02144946
80	0x3da10347	0.07861953
81	0x3d28ee23	0.04124273
82	0x3c6375bc	0.0138830505
83	0xbd1d2586	-0.038365863
84	0xbb47803d	-0.0030441426
85	0x3d3ab1ef	0.045579847
86	0x3c09559b	0.008382226
87	0xbd5225d7	-0.051305618
88	0xbcf058b7	-0.029339178
89	0xbc9439b6	-0.018093925
90	0xbd8cf134	-0.06881943
91	0x3b078fe0	0.0020685121
92	0xbd8499ec	-0.06474671
93	0x3d4cbff9	0.049987767
94	0x3d269f2a	0.040679134
95	0xbd579211	-0.052629534
96	0x3d3e852d	0.046513725
97	0xbd0a797e	-0.03380727
98	0xbc354e7a	-0.011066074
99	0x3d3ae0f9	0.045624707
100	0x3d629801	0.055320743
101	0xbcea5515	-0.028605023
102	0x3c8983ca	0.016786475
103	0xbc905f82	-0.017623667
104	0xbc9fbca1	-0.019499125
105	0xbc5c9fbf	-0.013465821
106	0x3d24a659	0.040197704
107	0xbd4d9f57	-0.050200786
108	0x3cb38d2e	0.021917906
109	0x3d6ae025	0.057342667
110	0xbd0896c7	-0.033346917
111	0x3ca9da36	0.020733934
112	0xbc7e9c9c	-0.015540268
113	0xbcf980c9	-0.030456917
114	0xbc4cee98	-0.012508057
115	0x3bc4b16e	0.0060025966
116	0x3c02fe78	0.00799524
117	0x3d585273	0.052813005
118	0x3ce7286c	0.028217517
119	0xbd26aa05	-0.040689487
120	0xbd3af53f	-0.04564404
121	0x3cdb2b2b	0.026753983
122	0xbc453302	-0.012036087
123	0xbd0b5d31	-0.03402442
124	0xbc92b270	-0.017907351
125	0xbc763654	-0.015027601
126	0x3d4b9f08	0.04971221
127	0x3d261b7a	0.040553547
128	0xbd30d3b5	-0.04317065
129	0xbcecbf89	-0.028899925
130	0x3c177bce	0.009245826
131	0x3d57473b	0.052558165
132	0xbca671be	-0.020317908
133	0xbd08c3ad	-0.033389736
134	0x3cb9b093	0.022667205
135	0x3bf81f80	0.0075721145
136	0xbce9ba8b	-0.028531333
137	0x3d446588	0.04794839
138	0x3c346db7	0.011012486
139	0xbd1512c1	-0.03639484
140	0xbac7fa0a	-0.0015257013
141	0x3c06fe2b	0.008239309
142	0xbcf78ecf	-0.030219464
143	0x3c7f17ce	0.01556964
144	0x3c19ea8d	0.0093943
145	0xbd631963	-0.055444133
146	0xbd652723	-0.055945527
147	0xbd2f146d	-0.04274409
148	0x3cf31c11	0.029676469
149	0x3bb1946a	0.0054193037
150	0xbd3fbab7	-0.046808925
151	0x3d2985ce	0.04138737
152	0xbcbb8edf	-0.022895275
153	0xbc149325	-0.009068285
154	0xbd735595	-0.05940779
155	0xbc976f8f	-0.018485812
156	0x3d3492fc	0.044085488
157	0xbd874f8e	-0.06606971
158	0xbd644f0f	-0.05573946
159	0xbd1fa28c	-0.038973376
160	0x3d742ef7	0.0596151
161	0x3d6e00a3	0.058106076
162	0xbcf3b0df	-0.029747425
163	0x3cd901be	0.026490089
164	0xbd46c9c7	-0.048532274
165	0x3d06594b	0.0328
166	0xbd429171	-0.047501985
167	0xbd3c6a31	-0.04599971
168	0x3d81a04e	0.06329404
169	0xbc3ecf44	-0.011646096
170	0x3d93d050	0.07217467
171	0x3d5f7b69	0.054561052
172	0xbd7ddbb4	-0.061977103
173	0x3a8f987b	0.0010955477
174	0xbd279b13	-0.040919375
175	0xbd20a202	-0.039217003
176	0xbc7a1a2d	-0.01526503
177	0x3ca46dc6	0.020071875
178	0x3b8718d1	0.0041228314
179	0x3da25d38	0.07927936
180	0x3cca4d98	0.024695203
181	0xbd317cc7	-0.043331888
182	0xbc996704	-0.01872588
183	0xbcd70d0b	-0.026251337
184	0x3d7f179c	0.062278375
185	0x3cf929e2	0.03041548
186	0x3ccb4ef3	0.02481792
187	0x3b2efd22	0.0026701172
188	0xbd52587c	-0.051353917
189	0x3cf32d17	0.029684586
190	0x3d6031ef	0.05473512
191	0xbcc7056a	-0.024294574
192	0xbc6e438b	-0.014542471
193	0x3b949a87	0.0045350227
194	0xbd0ec94b	-0.034859937
195	0xbd9c7ce8	-0.076410115
196	0x3d121ef1	0.03567404
197	0x3b0243cd	0.0019876838
198	0xbacb9a7c	-0.0015533711
199	0x3c6e5485	0.014546518
200	0xbc9d4775	-0.019199112
201	0xbc0fb46c	-0.008771043
202	0x3d289487	0.04115727
203	0x3b953cc4	0.004554363
204	0xbd01ff2a	-0.031737484
205	0x3d4bd575	0.049764115
206	0xbb9436fc	-0.004523156
207	0xbd54abe9	-0.05192176
208	0x3d02bfe2	0.031921275
209	0xbd3dee4d	-0.04636984
210	0xbce8207c	-0.028335802
211	0xbd0629a3	-0.03275455
212	0x3cdcb955	0.026943842
213	0x3ce15a43	0.02750886
214	0x3c62d238	0.013844065
215	0x3b2a21f5	0.0025960181
216	0xbd01e1a9	-0.031709347
217	0xbcded975	-0.027203301
218	0xbcf60192	-0.030030046
219	0x3d59ed68	0.053204924
220	0xbd21f538	-0.0395405
221	0x3c73b5b9	0.014874869
222	0xbcbee83d	-0.0233041
223	0x3d3c5479	0.045978997
224	0xbd0485e0	-0.032354236
225	0x3d4ef597	0.05052718
226	0x3c3440d4	0.011001784
227	0x3d0b49c2	0.034005888
228	0x3ce06a2b	0.027394375
229	0x3be2b0b7	0.0069180387
230	0xbd32b859	-0.04363284
231	0xbc5bea4c	-0.01342256
232	0xbccade86	-0.02476431
233	0xbcc6dc5f	-0.024275003
234	0xbce54c31	-0.027990432
235	0xbbc4d80e	-0.006007201
236	0x3bc7a479	0.0060926047
237	0xbb05ce77	-0.0020417252
238	0xbd57d031	-0.05268878
239	0x3cda0d0b	0.026617547
240	0x3ced5ec6	0.028975856
241	0xbcd6a04d	-0.026199484
242	0x3bc8137a	0.0061058374
243	0x3d4dce62	0.05024565
244	0x3cbd189c	0.023083024
245	0xbd2b562b	-0.041830223
246	0xbadbe157	-0.001677553
247	0x3d183b60	0.037166
248	0xbd0861f9	-0.03329656
249	0x3d4e3635	0.050344665
250	0x3d238999	0.039926145
251	0x3c290bd2	0.01031776
252	0xbd89a5b1	-0.06721056
253	0x3d06e586	0.032933734
254	0xbc17a7cd	-0.009256315
255	0x3c45c338	0.01207047

l4.0.bias f4 [32]
0	0xbc570bf8	-0.013125412
1	0xbcd5bdea	-0.026091535
2	0xbcf83e1d	-0.030303055
3	0x3ceb073b	0.028689971
4	0x3d06cca8	0.03291002
5	0xbc1d7ab7	-0.009611777
6	0x3ce03ba4	0.027372189
7	0x3b931f34	0.0044898037
8	0xba6d7346	-0.00090580096
9	0x3d38e38e	0.045138888
10	0xbc8bd898	-0.017071053
11	0xbd6c9f56	-0.057769142
12	0x3cf28067	0.029602243
13	0xbcd2498d	-0.025669837
14	0xbb33baf5	-0.0027424667
15	0xbbeabb76	-0.0071634604
16	0x3cd3be93	0.025847709
17	0xbb8c2188	-0.004276458
18	0xbd2c60ea	-0.042084612
19	0x3c23c3dd	0.009995428
20	0xbd143a12	-0.036188193
21	0xbca24722	-0.01980931
22	0xbbaec1b3	-0.0053331493
23	0xbd5a8565	-0.05334987
24	0x3cc26e9c	0.023734383
25	0xbd32d64f	-0.04366141
26	0xbd5d3536	-0.054005824
27	0x3cb7961c	0.022410445
28	0xbd27b3e8	-0.040943056
29	0x3c7ba0e1	0.015358181
30	0xbd42ba4a	-0.04754094
31	0xbba13a48	-0.0049202777

l4.1.weight f4 [32]
0	0x3f7e5c82	0.99359906
1	0x3f813610	1.0094624
2	0x3f7c45db	0.9854409
3	0x3f7f07d4	0.9962132
4	0x3f7a67a8	0.97814417
5	0x3f7edb4c	0.9955337
6	0x3f7a535a	0.97783434
7	0x3f82557a	1.0182335
8	0x3f8068bb	1.0031961
9	0x3f81a583	1.0128635
10	0x3f7bf22b	0.98416394
11	0x3f7ceae0	0.9879589
12	0x3f7e81c6	0.9941677
13	0x3f81b9f5	1.0134875
14	0x3f7ea367	0.9946808
15	0x3f7f3acb	0.99699086
16	0x3f824982	1.0178683
17	0x3f7ed2d1	0.9954043
18	0x3f81cb12	1.0140097
19	0x3f81a39a	1.0128052
20	0x3f8167f5	1.010985
21	0x3f7a6190	0.9780512
22	0x3f7ab70b	0.9793555
23	0x3f809361	1.0044976
24	0x3f81da95	1.0144831
25	0x3f7fc660	0.9991207
26	0x3f7f2345	0.9966319
27	0x3f7ddd71	0.9916602
28	0x3f8249b0	1.0178738
29	0x3f7b7ae5	0.982344
30	0x3f821784	1.0163426
31	0x3f7fad95	0.9987424

l4.1.bias f4 [32]
0	0x3ba288d6	0.00496016
1	0x3cf2034a	0.029542584
2	0xbc4037b8	-0.011732034
3	0xbc91164f	-0.017710833
4	0xbca01d77	-0.0195453
5	0x3b72009f	0.003692664
6	0xbc9576bf	-0.0182451
7	0x3c82c840	0.015964627
8	0xbc1a6c14	-0.009425182
9	0xbca7e44d	-0.020494604
10	0x3c0876e0	0.008329123
11	0xbaaf27a8	-0.0013363259
12	0x3c3923ce	0.01130004
13	0x3c98364b	0.018580576
14	0xbb37d6aa	-0.0028051534
15	0xbac87535	-0.001529372
16	0x3c7e610d	0.015526068
17	0xbc7a3691	-0.015271799
18	0x3ae41151	0.001740018
19	0x3ca4baa0	0.020108521
20	0x3b840101	0.00402844
21	0xbcaceee6	-0.02111001
22	0xbcd5acfc	-0.026083462
23	0xbc197d21	-0.009368212
24	0x3cb5c1a4	0.022187062
25	0xbc5f8c19	-0.013644242
26	0xbc4910b8	-0.0122720525
27	0xbc7eec39	-0.01555925
28	0x3d329533	0.04359932
29	0x3b7a256c	0.0038169278
30	0xbc271188	-0.010197051
31	0x3c2c6ae4	0.010523532

l4.1.running_mean f4 [32]
0	0xbdf1cd7b	-0.118067704
1	0xbe648180	-0.22315025
2	0x3da99960	0.08281207
3	0x3bdba718	0.0067032687
4	0xbd0e9426	-0.034809254
5	0xbdb60835	-0.08888284
6	0x3f10ba61	0.5653439
7	0xbea52dbf	-0.32261464
8	0x3d80487c	0.06263825
9	0xbe87ba59	-0.2650936
10	0xbf42fc54	-0.7616627
11	0xbec39c1c	-0.3820504
12	0xbdeb9363	-0.11502721
13	0xbef35bfe	-0.47531122
14	0xbda88689	-0.082287855
15	0xbd6ee2a2	-0.058321603
16	0xbee2d6f4	-0.4430462
17	0x3bea3961	0.0071479534
18	0xbea49540	-0.3214512
19	0xbf18f699	-0.5975128
20	0xbe1331e0	-0.14374495
21	0xbe85546e	-0.26040977
22	0xbdda13d5	-0.10648314
23	0xbe6f0b5d	-0.23344178
24	0xbf406738	-0.751575
25	0xbe733208	-0.23749554
26	0xbdecca2e	-0.11562
27	0xbe2d65b6	-0.16933331
28	0xbef23eaf	-0.4731345
29	0x3e9fc4f7	0.3120496
30	0xbe45f8c9	-0.19333185
31	0xbcb89310	-0.022531062

l4.1.running_var f4 [32]
0	0x3e9f91a0	0.3116579
1	0x3eb8e348	0.36110902
2	0x3fed6a3d	1.8548046
3	0x3f2a3725	0.66490394
4	0x3e9973e7	0.2997124
5	0x3e98dde8	0.298568
6	0x3f40445d	0.75104314
7	0x3f92b93d	1.146278
8	0x3e26e46b	0.16298072
9	0x3e8c15fd	0.27360526
10	0x3f8a7f5a	1.0820115
11	0x3f07b1c1	0.53005606
12	0x3ee522dd	0.4475316
13	0x3f4b4a93	0.79410666
14	0x3f580c6b	0.8439395
15	0x3f3b5fd3	0.7319309
16	0x3f5219f1	0.82070833
17	0x3e864347	0.26223204
18	0x3f384ef8	0.71995497
19	0x3f9e2f2e	1.2358148
20	0x3e8cdf0b	0.27513918
21	0x3e08cee7	0.13360177
22	0x3f6b2567	0.91853946
23	0x3f8e0023	1.1093792
24	0x3fa8000d	1.3125015
25	0x3e999687	0.29997656
26	0x3fa67b31	1.3006345
27	0x3e8ee35b	0.27907833
28	0x3f665cf0	0.8998556
29	0x3fbb4898	1.4631529
30	0x3e9ed6bc	0.31023204
31	0x3f6b75d6	0.9197668
