models/drop0_000049.pth (torch_old, 173801 bytes, 32 tensors)

l1.0.weight f4 [32, 12, 3, 3]
0	0x3dba2dff	0.09090804
1	0x3a067a4a	0.0005129917
2	0x3b74f87b	0.0037379551
3	0x3d3bcac4	0.04584767
4	0xbdbf3a40	-0.09337282
5	0x3d487caa	0.048947014
6	0xbd08e454	-0.033420876
7	0x3d208630	0.03919047
8	0xbaba0fbc	-0.0014195363
9	0x3cbe537e	0.023233172
10	0x3d988427	0.07447081
11	0x3d00da2f	0.031458076
12	0x3ce14cc6	0.027502429
13	0xbd0b47b7	-0.03400394
14	0xbbc0713a	-0.0058728727
15	0xbcfab7be	-0.030605193
16	0x3b86f524	0.0041185785
17	0xbc5aec2f	-0.013361975
18	0x3de1f7ee	0.11033617
19	0x3d9b8f02	0.07595636
20	0xbc072090	-0.00824751
21	0xbd8a1c71	-0.06743706
22	0xbc875a80	-0.016522646
23	0xbd2547f4	-0.040351823
24	0xbd4e6aac	-0.0503947
25	0xbbcc90a5	-0.006242829
26	0x3d42c140	0.04754758
27	0x3d893a89	0.06700618
28	0xbd875494	-0.06607929
29	0x3d7ff704	0.06249143
30	0x3c69f58d	0.014279735
31	0x3db00773	0.08595171
32	0x3d567320	0.052355886
33	0xbdd57372	-0.1042241
34	0xbdc12c6d	-0.09432302
35	0xbd6d84ea	-0.057988085
36	0x3df45af9	0.11931414
37	0x3bf61467	0.0075097564
38	0x3c9b9fa7	0.018997027
39	0xbd2b1713	-0.041770052
40	0x3db75318	0.08951396
41	0xbd872113	-0.06598105
42	0x3d8138ab	0.06309637
43	0xbbd010aa	-0.0063496428
44	0xbd955baa	-0.07292874
45	0x3d9f2328	0.077703774
46	0xbc697045	-0.014247959
47	0x3cf28e38	0.02960883
48	0xbc7e5081	-0.015522123
49	0x3c3a9dc8	0.011390157
50	0xbdb34c8d	-0.08754835
51	0xbd33ff7a	-0.043944813
52	0x3d9460c8	0.07245022
53	0xbc6636b0	-0.014051124
54	0x3d87fca3	0.066399835
55	0x3dd9e098	0.10638541
56	0x3d326625	0.043554444
57	0xbdf934d7	-0.121682815
58	0x3d1ef549	0.03880814
59	0x3d307a22	0.043085225
60	0xbe098127	-0.13428174
61	0x3cc68f1d	0.024238164
62	0x3d2c6ff8	0.04209897
63	0x3dee9b7f	0.11650752
64	0xbb907ec0	-0.004409641
65	0x3c4cbbe9	0.012495973
66	0xbc1453f3	-0.009053218
67	0x3ccf8a57	0.02533452
68	0xbd77d7e5	-0.060508627
69	0xbda7cbab	-0.081931435
70	0x3d756041	0.059906248
71	0xbc607ded	-0.013701898
72	0x3d711bd6	0.058864437
73	0x3c99e6ff	0.018786905
74	0x3d085709	0.03328613
75	0x3ab67603	0.0013920668
76	0xbb26f046	-0.0025472804
77	0x3d1ae52d	0.037816215
78	0xbde15b41	-0.110037334
79	0x3cb07533	0.02154026
80	0xbd623730	-0.055228412
81	0xbda7c7ab	-0.081923805
82	0x3aaacb4a	0.0013030556
83	0xbce9db33	-0.028546905
84	0x3d3ca184	0.04605247
85	0xbd8414dd	-0.06449292
86	0xbdbe4c72	-0.092919245
87	0x3d81ef9d	0.06344531
88	0xbc79628d	-0.01522125
89	0x3d4b5f63	0.049651515
90	0x3bfd28d9	0.0077258167
91	0xbd97f57f	-0.074198715
92	0x3cbf1d65	0.023329446
93	0x3c0c4010	0.008560196
94	0xbd88fcac	-0.06688818
95	0xbd1012ed	-0.0351743
96	0x3c758eed	0.014987689
97	0x3cc2104d	0.023689413
98	0xbcd4e6ef	-0.025989024
99	0xbd5c64c1	-0.053807024
100	0x3d3d79dd	0.046258796
101	0xbd8839b7	-0.06651633
102	0x3d611636	0.054952823
103	0x3cd95899	0.026531504
104	0xbda351a4	-0.07974556
105	0xbd9380bb	-0.07202288
106	0x3dc30b82	0.09523679
107	0x3ca6d65d	0.020365888
108	0x3d9b96ec	0.075971454
109	0x3d675f04	0.0564871
110	0x3cd54335	0.026033023
111	0x3dbf68f6	0.093461916
112	0x3e0112c7	0.12604819
113	0xbd95eec6	-0.07320933
114	0x3cfefdb4	0.031126834
115	0x3dcf6200	0.10126114
116	0x3d8a69c0	0.067584515
117	0x3de192df	0.110143416
118	0x3b30fc67	0.0027005912
119	0xbd16222b	-0.03665368
120	0x3c5ab405	0.013348584
121	0x3dc58757	0.09644955
122	0x3e07bc9f	0.13255547
123	0x3baa7222	0.005201594
124	0x3e074f0e	0.1321375
125	0xbc51ba12	-0.01280071
126	0xbdc86187	-0.09784227
127	0x3b263362	0.0025360216
128	0x3d2ba715	0.04190739
129	0x3dc9a2be	0.09845494
130	0xbcc5b87e	-0.024135824
131	0x3c80c592	0.015719209
132	0x3dbb0410	0.09131634
133	0x3dbdc499	0.09266014
134	0x3d786b02	0.060648926
135	0x3d9306d3	0.07179036
136	0x3dbef14f	0.0932337
137	0x3d0ddbe7	0.034633543
138	0xbcda3534	-0.026636697
139	0xbc77ebfe	-0.0151319485
140	0xbc1828f8	-0.009287111
141	0x3d22d8b8	0.03975746
142	0x3c667053	0.014064866
143	0x3da631f2	0.08114995
144	0xbcdc8f1e	-0.026923712
145	0xbd79ad9a	-0.060956575
146	0xbc8819b6	-0.016613822
147	0xbc02ced8	-0.007983886
148	0x3d03af4d	0.0321496
149	0x3c80b0de	0.015709337
150	0xbd631607	-0.05544093
151	0x3daf6b4a	0.08565386
152	0xbd05e8b2	-0.03269262
153	0xbcb54bf0	-0.022130936
154	0xbda2c90a	-0.079485014
155	0xbd9e2c85	-0.07723335
156	0xbd0c1452	-0.034199066
157	0x3bde53d8	0.0067848973
158	0x3d9d6f13	0.07687201
159	0x3c8cc851	0.017185362
160	0x3b5c1424	0.003358134
161	0x3da06979	0.07832617
162	0x3dc6c62c	0.09705767
163	0x3e2a5283	0.16633038
164	0x3c3850c0	0.011249721
165	0x3dd922e7	0.1060236
166	0x3d9815e2	0.07426049
167	0x3d1c5a15	0.038171846
168	0x3b5d1520	0.0033734515
169	0x3d7614e8	0.06007853
170	0x3d052770	0.032508314
171	0x3c121b5e	0.008917658
172	0x3ca20926	0.019779753
173	0xbc263ace	-0.010145856
174	0x3dc3f7c1	0.0956874
175	0x3dfefd3a	0.12450643
176	0x3d59d3d5	0.053180534
177	0x3c91564d	0.017741347
178	0xbcdad81c	-0.026714377
179	0x3dbb0257	0.09131306
180	0xbcca7b74	-0.02471707
181	0x3ce9f4dd	0.028559143
182	0xbd8aa134	-0.06769028
183	0xbcd61b45	-0.02613605
184	0xbd1961e5	-0.037446875
185	0x3db8f4b0	0.090310454
186	0xbda6aaa4	-0.08138016
187	0xbd511766	-0.051047705
188	0x3c76dc5d	0.015067187
189	0xbd9289e5	-0.071552075
190	0x3cb9a474	0.022661425
191	0xbd5c4343	-0.053775083
192	0xbd8b6439	-0.06806225
193	0xbc61f700	-0.0137918
194	0x3d2ee436	0.042698108
195	0xbda62097	-0.08111685
196	0x3d008b45	0.031382818
197	0x3d3b004b	0.045654576
198	0x3d97a56b	0.07404598
199	0xbd88cef8	-0.06680101
200	0x3cc08175	0.02349923
201	0xbdc706aa	-0.09718068
202	0x3d946639	0.0724606
203	0xbd34d276	-0.044146024
204	0x3d150225	0.036379
205	0xbb5093b5	-0.0031826322
206	0xbb560e99	-0.003266251
207	0xbd522235	-0.051302154
208	0xbd0f84b9	-0.035038684
209	0x3c81bf36	0.015838247
210	0xbcc3d78f	-0.023906497
211	0x3c600f6b	0.013675551
212	0xbda44a85	-0.08022026
213	0x3d02a156	0.031892143
214	0x3da1920f	0.078891866
215	0x3dc1d134	0.094637305
216	0x3d7f44a8	0.062321335
217	0xbd89d40d	-0.067298986
218	0xbcd5880c	-0.026065849
219	0x3d9228a3	0.07136657
220	0xbd8fee39	-0.07027859
221	0x3dad198c	0.08452138
222	0xbe04b261	-0.12958671
223	0xbde3af81	-0.11117459
224	0x3ca0a1e0	0.019608438
225	0xbda9b4c2	-0.0828643
226	0xbd25d185	-0.040483017
227	0x3d89d6f4	0.06730452
228	0x3d5fbcde	0.054623477
229	0x3d8db73b	0.06919714
230	0xbd2e7686	-0.0425935
231	0xbe14b0ea	-0.14520612
232	0x3cc6d925	0.024273464
233	0xbd8b7e30	-0.06811178
234	0xbd08b50b	-0.03337578
235	0x3bb78a6d	0.0056012184
236	0xbd841abd	-0.064504124
237	0x3d7cab07	0.061686542
238	0x3d4f3e8f	0.05059677
239	0xbd9fe259	-0.07806844
240	0xbde76544	-0.11298612
241	0xbd3076e2	-0.043082125
242	0x3cec7cc9	0.028868096
243	0x3cf056d4	0.029338278
244	0xbd0ae764	-0.033912078
245	0x3d0de4fe	0.034642212
246	0xbdb25b20	-0.08708787
247	0xbd8fd57c	-0.07023141
248	0xbd685922	-0.05672563
249	0x3ce7f169	0.028313356
250	0x3d0ff144	0.0351422
251	0xbd2b09bc	-0.04175733
252	0xb9b19a14	-0.00033874868
253	0x3d538f33	0.051650237
254	0x3ca757bd	0.020427579
255	0xbd6fb10c	-0.058518454

l1.0.bias f4 [32]
0	0x3cd8ecb9	0.026480066
1	0xbd8d8d60	-0.06911731
2	0xbdc3d010	-0.09561169
3	0x3d2e0e4f	0.042494114
4	0xbc51e095	-0.012809892
5	0x3d3dab71	0.046306077
6	0xbc2c9957	-0.010534606
7	0x3d8fc949	0.07020814
8	0xbd9a6ce1	-0.07540298
9	0xbca3142d	-0.019907081
10	0xbdb2fdea	-0.087398365
11	0xbdc5c05d	-0.09655831
12	0x3d8722ff	0.06598472
13	0xbc41b97a	-0.011824006
14	0xbd59429b	-0.053042036
15	0xbd2a6df7	-0.041608777
16	0xbc2661bb	-0.010155137
17	0xbd2a318c	-0.041551158
18	0xbda221a1	-0.079165705
19	0x3d57fc4d	0.052730847
20	0xbc959ff0	-0.01826474
21	0xbd70f02a	-0.05882279
22	0x3cdefe3d	0.02722084
23	0xbc075f9e	-0.008262543
24	0xbcc08b02	-0.023503784
25	0xbd8ce396	-0.06879346
26	0xbda71011	-0.08157361
27	0x3c55f0e3	0.01305792
28	0xbda4d4a0	-0.080483675
29	0x3d86f07a	0.06588836
30	0xbdc55dc9	-0.09637029
31	0xbcaa4311	-0.020783933

l1.1.weight f4 [32]
0	0x3f7c9569	0.9866548
1	0x3f726c8e	0.9469689
2	0x3f85d55d	1.0455738
3	0x3f84680d	1.0344254
4	0x3f706260	0.9390011
5	0x3f81aacc	1.0130248
6	0x3f80dc8e	1.0067308
7	0x3f7c3871	0.9852362
8	0x3f6b9518	0.92024374
9	0x3f858897	1.0432309
10	0x3f81d5eb	1.0143408
11	0x3f64f635	0.8943818
12	0x3f805d49	1.0028468
13	0x3f867433	1.0504211
14	0x3f7724e7	0.96540684
15	0x3f76b3e4	0.9636824
16	0x3f82152b	1.016271
17	0x3f8531aa	1.0405781
18	0x3f811c6d	1.00868
19	0x3f706afb	0.9391324
20	0x3f8884de	1.0665548
21	0x3f853bf4	1.0408921
22	0x3f7b6ffb	0.98217744
23	0x3f794450	0.9736986
24	0x3f83260e	1.0245988
25	0x3f8050a4	1.002461
26	0x3f817626	1.0114181
27	0x3f81ac2b	1.0130666
28	0x3f736ee9	0.9509111
29	0x3f75c7ef	0.960082
30	0x3f850a77	1.0393819
31	0x3f81f7ab	1.0153707

l1.1.bias f4 [32]
0	0x3d73fd65	0.059567828
1	0x3d25abce	0.04044705
2	0x3a2a2ed1	0.00064919615
3	0x3d8fa858	0.07014531
4	0xbbe478aa	-0.006972392
5	0x3dda33fb	0.10654446
6	0x3d303483	0.04301883
7	0xbdf5a445	-0.119942226
8	0x3d79638f	0.060885962
9	0x3cbc23f5	0.022966364
10	0x3d461e05	0.048368473
11	0x3d11d054	0.035599068
12	0x3d657727	0.056021836
13	0x3e0d3245	0.13788708
14	0xbc9562fc	-0.018235676
15	0x3ccf600d	0.025314355
16	0x3d2d4d59	0.042310093
17	0x3cbf67e3	0.023364967
18	0x3d39a7f0	0.045326173
19	0x3dadc1f8	0.08484262
20	0x3dca1455	0.09867159
21	0x3d83e8ef	0.06440913
22	0xbd306635	-0.043066222
23	0x3c07ae9f	0.008281379
24	0x3b955a66	0.0045578955
25	0x3ce86058	0.028366253
26	0x3bc58895	0.0060282447
27	0xbbaa1039	-0.005189922
28	0xbca4c0f9	-0.020111548
29	0x3e098f5f	0.13433598
30	0x3d886802	0.06660463
31	0x3daff51b	0.08591672

l1.1.running_mean f4 [32]
0	0xbe26bb12	-0.16282299
1	0xbfa48a9b	-1.2854799
2	0x3eb94310	0.36183977
3	0x3e657dd5	0.22411282
4	0xbe83b36f	-0.25722834
5	0x3efa2d7f	0.48862836
6	0x3eeff925	0.4686977
7	0x3e3a0fd3	0.18170099
8	0xbf170cfb	-0.5900418
9	0x3f00b407	0.502747
10	0xbc2f8c26	-0.010714566
11	0xbeaa8cb7	-0.33310482
12	0x3f7774d9	0.9666267
13	0x3e853e12	0.26023918
14	0xbf4db3ee	-0.80352676
15	0xbe01c50d	-0.12672825
16	0xbdcb1c52	-0.09917511
17	0x3e0f719d	0.14008184
18	0xbd65af67	-0.05607548
19	0xbe361ba4	-0.17783982
20	0x3ec668c8	0.38751817
21	0x3ea20bfd	0.3164977
22	0x3e441dbd	0.19151969
23	0x3f03c583	0.51473254
24	0x3d0028be	0.031288855
25	0xbe0c732c	-0.1371581
26	0x3f20b239	0.62771946
27	0x3f844086	1.0332191
28	0xbe16c40d	-0.14723225
29	0x3e01159d	0.12605901
30	0x3eb0ad8e	0.34507412
31	0x3eae4a93	0.3404127

l1.1.running_var f4 [32]
0	0x3cd5c71f	0.026095925
1	0x3e9bc5a4	0.30424225
2	0x3d19a73c	0.037513003
3	0x3c43cf63	0.0119513
4	0x3cd8efe8	0.026481584
5	0x3d770a5f	0.060312625
6	0x3d8a1568	0.06742364
7	0x3c3af771	0.011411534
8	0x3ddc7ea0	0.10766339
9	0x3d26260a	0.04056362
10	0x3c18120f	0.009281649
11	0x3dbaa0eb	0.09112724
12	0x3e292b1b	0.1652035
13	0x3cebe6ce	0.02879658
14	0x3d246ce2	0.0401429
15	0x3c7421dd	0.014900652
16	0x3cdc5320	0.026895106
17	0x3cac2ef4	0.021018483
18	0x3c518b91	0.012789623
19	0x3d2e1834	0.04250355
20	0x3d2c204c	0.04202299
21	0x3d392f97	0.0452114
22	0x3d25a94d	0.04044466
23	0x3d4d34c2	0.050099142
24	0x3cd42be4	0.025899835
25	0x3be5dce0	0.0070148557
26	0x3da28d91	0.07937158
27	0x3e1eb7f5	0.15499862
28	0x3d5198e9	0.051171217
29	0x3c561557	0.013066611
30	0x3d28f900	0.04125309
31	0x3d35d284	0.044390216

l2.0.weight f4 [32, 32, 3, 3]
0	0xbd1a9e84	-0.03774883
1	0xbd10b611	-0.035329882
2	0xbd191496	-0.037373148
3	0xbd5f2f6d	-0.054488588
4	0xbccbdc0e	-0.024885204
5	0xbba9caf2	-0.0051816637
6	0xbcd64b41	-0.02615893
7	0x3d93185b	0.0718238
8	0xbcdb7c41	-0.026792647
9	0x3c4f8ffc	0.012668606
10	0x3d0d0479	0.034428094
11	0x3d882f34	0.06649628
12	0x3d2b29b3	0.041787814
13	0xbd97e12c	-0.07415995
14	0xbd55c437	-0.05218908
15	0xbbe4b409	-0.0069794697
16	0xbd02ab69	-0.03190175
17	0x3cb069b7	0.021534784
18	0x3d59d5e1	0.053182486
19	0xbcc8dc9b	-0.024519255
20	0x3d2a1a35	0.0415289
21	0x3d3b85ca	0.045781888
22	0x3d75930b	0.059954684
23	0xbb86ab65	-0.0041097873
24	0x3d6d6c71	0.057964746
25	0xbc48cac1	-0.012255372
26	0x3d68df7b	0.056853753
27	0x3d64f12a	0.055894054
28	0x3ca3c6f6	0.019992333
29	0xbc45af45	-0.012065713
30	0x3c6084d3	0.013703543
31	0x3d629bf1	0.0553245
32	0xbca8bc08	-0.020597473
33	0xbc279b74	-0.010229934
34	0xbc77a19d	-0.015114215
35	0xbd3b352a	-0.045704998
36	0x3bcbd129	0.006220002
37	0x3c95c9d6	0.01828472
38	0x3d578a5b	0.05262218
39	0xbd2943d1	-0.04132444
40	0xbd405128	-0.046952397
41	0x3d5d9ccb	0.054104608
42	0xbca03d9a	-0.019560624
43	0xbd804a72	-0.06264199
44	0x3c04e215	0.008110543
45	0xbd40fec5	-0.047117967
46	0x3b70ec50	0.0036761947
47	0x3d3b474e	0.0457223
48	0xbcda4eea	-0.026648957
49	0xbb8dc5ec	-0.0043265726
50	0x3d6efa25	0.058344025
51	0xbd11f9d9	-0.035638664
52	0x3c433308	0.011914022
53	0x3daf86c3	0.08570626
54	0xbc23859a	-0.009980584
55	0x3ba8b25f	0.0051482166
56	0xbd1f09d2	-0.038827725
57	0xbd6b81d2	-0.057496853
58	0xbd738765	-0.059455294
59	0x3d8d38fc	0.068956345
60	0xbd27b552	-0.040944405
61	0x3d20dfc9	0.03927592
62	0x3d5e3ca6	0.054257058
63	0xbd990d6d	-0.07473264
64	0x3cf6cecd	0.030127907
65	0xbd4cf357	-0.050036754
66	0x3d5fae9b	0.054609876
67	0x3d8ff38f	0.07028877
68	0x3d0e73be	0.03477835
69	0x3d1725e9	0.03690139
70	0x3d7b1c3e	0.06130623
71	0x3d0ba3ba	0.03409169
72	0xba235636	-0.0006230803
73	0xbc82d072	-0.015968535
74	0xbd1a9eab	-0.037748974
75	0xbcb51f03	-0.022109514
76	0xbd010bc9	-0.03150538
77	0x3d246972	0.040139623
78	0x3d4ecda4	0.050489083
79	0xbd4eca20	-0.05048573
80	0xbd284b17	-0.041087236
81	0xbd90054a	-0.07032259
82	0xbdaec494	-0.08533588
83	0xbd6242a1	-0.055239324
84	0x3c497157	0.012295089
85	0xbb943844	-0.004523309
86	0x3c32ed5a	0.010920847
87	0x3bc96a9d	0.0061467425
88	0xbcfc6faf	-0.030814974
89	0xbc5dd596	-0.013539692
90	0xbdb13118	-0.08651942
91	0xbd56655d	-0.05234276
92	0xbd0dfaab	-0.034662884
93	0x3bbe4c62	0.0058074454
94	0xbd43a538	-0.047764987
95	0x38b8dfd0	8.815492e-05
96	0xbd9c20e3	-0.0762346
97	0xbc8ef4a0	-0.01745063
98	0x3ce26254	0.027634777
99	0x3c683d0e	0.014174713
100	0x3d51a8b5	0.051186282
101	0x3cc6e10b	0.02427723
102	0xbbcabdb7	-0.0061871666
103	0x3d09364a	0.03349904
104	0xbd09a900	-0.033608437
105	0xbc864ed7	-0.016395016
106	0xb9a37e0b	-0.00031183692
107	0x3be76f6c	0.007062843
108	0xbc889e9b	-0.016677191
109	0x3b8d4143	0.0043107583
110	0x3c2bbd0e	0.010482086
111	0x3c4ed9f5	0.012625207
112	0xbba3359d	-0.0049807564
113	0xbd3be656	-0.045873962
114	0xbc991b67	-0.018689824
115	0xbd0be300	-0.03415203
116	0xba06ca73	-0.00051418616
117	0xbd1b3b71	-0.037898485
118	0xbd0e4b19	-0.034739587
119	0x3cccc855	0.02499787
120	0xbd5c9939	-0.053857062
121	0x3d0da689	0.03458265
122	0xbc8e7ec4	-0.017394431
123	0xbce7d766	-0.028300952
124	0x3d39695b	0.04526649
125	0x3d17ee99	0.03709278
126	0xbcd94e70	-0.02652666
127	0x3bf5d782	0.007502497
128	0xbcd0c5d1	-0.025484951
129	0xbd9172da	-0.07101984
130	0x3cb98c72	0.022649977
131	0x3ce58a41	0.028020026
132	0x3ceb8ddb	0.028754165
133	0xbd7a4a5c	-0.06110607
134	0xbcf02616	-0.029315036
135	0x3d5e84cb	0.05432586
136	0xbce471e5	-0.02788634
137	0x3d9abdfb	0.07555767
138	0xbb07ce95	-0.0020722498
139	0xbc6564b7	-0.014001063
140	0xbb2590e8	-0.0025263373
141	0x3aae7b07	0.0013311811
142	0xbd11ae8f	-0.035566863
143	0xbd8bf0de	-0.06833051
144	0x3d0d308f	0.034470137
145	0xbd368558	-0.04456076
146	0xbc6ec9e6	-0.0145745035
147	0xbd7c58f8	-0.061608285
148	0xbc1f6d75	-0.009730686
149	0x3d4e831d	0.050418008
150	0xbc1f5820	-0.0097256005
151	0xbbe17eb1	-0.006881558
152	0xbccdc29f	-0.025117217
153	0xbd4ff28f	-0.05076843
154	0x3d045d6e	0.032315664
155	0xbc8b34bd	-0.016992921
156	0x3d2d266b	0.042272966
157	0xbd0ddb6d	-0.03463309
158	0x3d41a65e	0.0472778
159	0xbc7fe850	-0.015619352
160	0xbdb2c35b	-0.08728667
161	0x3c725bec	0.014792424
162	0x3c3677fa	0.011137003
163	0xbd96e045	-0.07366995
164	0xbd9c60a7	-0.076356225
165	0xbca99dc5	-0.020705113
166	0xbc23d3b0	-0.009999201
167	0x3c83d9e2	0.016095106
168	0xbd0bd556	-0.034139
169	0x3d02e134	0.03195305
170	0x3c6bfa57	0.014402947
171	0x3d1ebe55	0.038755734
172	0xbd55ffc7	-0.05224588
173	0x3bda4c97	0.0066619623
174	0xbd1106d9	-0.03540692
175	0xbd0c3abb	-0.034235697
176	0xbdb77b1d	-0.08959029
177	0x3bb71e55	0.0055883327
178	0xbdb9b3b8	-0.09067482
179	0xbc7243bd	-0.014786658
180	0xbda4b5a3	-0.08042457
181	0xbdcf8e53	-0.10134568
182	0xbd8b435d	-0.06799958
183	0x3cb035d1	0.021510037
184	0x3c64b2b4	0.013958622
185	0xbd7772d0	-0.060412228
186	0x3c239112	0.009983318
187	0xbcde9ca6	-0.027174305
188	0xbca5d353	-0.020242369
189	0xbd9f2e07	-0.07772451
190	0xbd398d8d	-0.04530101
191	0x3d9f4dac	0.077784866
192	0xbd4192e9	-0.047259245
193	0x3d290ffb	0.041275006
194	0x3bf1beba	0.0073774727
195	0xbd1a81ac	-0.03772132
196	0xbca58b07	-0.020207895
197	0x3d5d0a80	0.05396509
198	0x3d23bcd9	0.03997502
199	0x3cd83e80	0.02639699
200	0x3c8a143f	0.016855357
201	0xbb4bcf49	-0.0031098893
202	0x3d0c46b5	0.03424712
203	0x3d35ed83	0.044415962
204	0x3c0cd654	0.008596022
205	0x3db38554	0.08765665
206	0x3dc1004f	0.09423887
207	0x3d8f5d50	0.0700022
208	0x3d6c206d	0.05764811
209	0xbd3144a2	-0.043278344
210	0xbc6dbae6	-0.014509892
211	0x3ccafa0c	0.024777435
212	0x3cdea330	0.027177423
213	0x3cc0bac7	0.023526562
214	0x3bd7440b	0.0065693907
215	0xbbae335f	-0.0053161825
216	0xba87a2dc	-0.0010348218
217	0xbc3a62f9	-0.011376136
218	0xbd938e61	-0.07204891
219	0x3bf012dd	0.0073264674
220	0x3d71c2d5	0.059023697
221	0xbdab888e	-0.08375655
222	0xbb8c3079	-0.0042782393
223	0x3d458892	0.048225947
224	0xbd7bece3	-0.06150521
225	0x3d049562	0.032369025
226	0x3c08744d	0.0083285095
227	0xbd26ae2f	-0.04069346
228	0xbd791270	-0.0608086
229	0x3d20c080	0.039246082
230	0xbd0febb2	-0.035136886
231	0xbcf665d3	-0.03007785
232	0xbd3f425e	-0.046694152
233	0xbd99eaee	-0.075155124
234	0xbc6bf13d	-0.014400777
235	0xbc8320d7	-0.01600687
236	0xbd429a28	-0.047510296
237	0xbd101fb6	-0.035186492
238	0xbd63322b	-0.055467766
239	0x3c9e4cab	0.019323668
240	0x3d7b4994	0.061349466
241	0xbd225a84	-0.039637104
242	0xbd933eff	-0.0718975
243	0xbce44be7	-0.027868224
244	0xbd3c8bbb	-0.046031695
245	0xbd8ecf4e	-0.06973134
246	0xbd531112	-0.05152995
247	0x3d44d7e7	0.048057463
248	0xbc472f7d	-0.012157318
249	0x3d2ae222	0.041719563
250	0x3d00985a	0.031395294
251	0x3b8f0fa9	0.0043658805
252	0xbc8d892b	-0.01727732
253	0x3d0d76ac	0.034537002
254	0xbc9cdefa	-0.019149292
255	0xbcd5e412	-0.026109729

l2.0.bias f4 [32]
0	0xbcd84113	-0.026398217
1	0x3d746fce	0.059676938
2	0x3d365f5f	0.044524547
3	0xbc3a201e	-0.011360196
4	0x39a20177	0.0003090014
5	0x3ca65467	0.020303918
6	0x3cbdb451	0.02315727
7	0xbd4cf4ae	-0.050038032
8	0xbd74d918	-0.05977735
9	0x3d34ea86	0.04416897
10	0xbd3857c2	-0.045005567
11	0xbca37bce	-0.019956496
12	0x3d56654c	0.052342698
13	0xbc6d15b3	-0.0144705055
14	0x3d2eafc3	0.04264809
15	0xbc9acae3	-0.018895572
16	0xb985509f	-0.00025427804
17	0xbce576e2	-0.02801079
18	0x3d15a523	0.03653444
19	0x3d4c1c71	0.04983181
20	0xbd3ec29d	-0.046572316
21	0xbc91bcb8	-0.017790183
22	0xbc506344	-0.012718979
23	0x3d0741e3	0.03302182
24	0xbd52d4c3	-0.051472437
25	0x3cda5896	0.02665357
26	0x3c0ec772	0.008714544
27	0x3b4766e1	0.003042631
28	0x3d37e396	0.044894777
29	0x3ca9c31a	0.020722914
30	0xbcb44b44	-0.022008546
31	0xbc73c361	-0.014878125

l2.1.weight f4 [32]
0	0x3f6ec14d	0.93263704
1	0x3f8025c6	1.0011528
2	0x3f8199ee	1.0125101
3	0x3f72ad48	0.94795656
4	0x3f86461f	1.0490149
5	0x3f732c42	0.9498941
6	0x3f736dfe	0.9508971
7	0x3f73340e	0.95001304
8	0x3f7b6738	0.98204374
9	0x3f88e625	1.0695235
10	0x3f7df952	0.9920856
11	0x3f85ca0c	1.0452285
12	0x3f7a7215	0.97830325
13	0x3f7691b4	0.96316075
14	0x3f7aa2ad	0.97904474
15	0x3f7f1b00	0.99650574
16	0x3f8425c5	1.0324026
17	0x3f822d2d	1.0170037
18	0x3f840bba	1.0316079
19	0x3f73b38b	0.95195836
20	0x3f6f2bdd	0.93426305
21	0x3f750cfc	0.9572294
22	0x3f80777a	1.0036461
23	0x3f80fdee	1.0077493
24	0x3f7eec14	0.99578977
25	0x3f77fd9c	0.9687135
26	0x3f811fca	1.0087826
27	0x3f925ea3	1.1435131
28	0x3f7d7be4	0.9901717
29	0x3f9099ff	1.1296996
30	0x3f8f9484	1.1217198
31	0x3f67742e	0.9041165

l2.1.bias f4 [32]
0	0xbd8c403b	-0.068481885
1	0xbd44a261	-0.04800642
2	0x3d2d8563	0.042363536
3	0xbc8f01c7	-0.017456902
4	0xbb6ae1c0	-0.0035840124
5	0xbd4f88b4	-0.05066748
6	0xbdca3e1e	-0.09875129
7	0xbc6b457d	-0.014359829
8	0xbd5ad8f0	-0.053429544
9	0x3cf4c69a	0.029879857
10	0xbda59172	-0.08084382
11	0xbd0b2915	-0.033974726
12	0xbce5b435	-0.028040031
13	0xbd771e50	-0.060331643
14	0xbd47e7ee	-0.04880517
15	0x3cdca515	0.026934186
16	0xbd8e1012	-0.06936659
17	0xbc994273	-0.018708443
18	0xbc7583bf	-0.014985024
19	0xbd71738d	-0.05894809
20	0xbd82a337	-0.06378787
21	0xbcea69b0	-0.028614849
22	0x3c06337e	0.008190988
23	0xbcc14f4c	-0.023597382
24	0xbd9b4e8b	-0.0758334
25	0xbd6a74a8	-0.05724016
26	0x3d884696	0.06654088
27	0x3e3cc88a	0.18435875
28	0xbc5c50b7	-0.013446978
29	0x3d5f8771	0.054572526
30	0x3ddc6576	0.1076154
31	0xbc2be6ea	-0.010492066

l2.1.running_mean f4 [32]
0	0xbef6171a	-0.480645
1	0x3d954132	0.07287826
2	0xbed7843b	-0.4209307
3	0xbf149cd9	-0.5805183
4	0x3e702ebf	0.23455332
5	0xbe9867e4	-0.29766762
6	0x3e538639	0.2065667
7	0x3f3cdbba	0.73772776
8	0xbc28552c	-0.010274213
9	0x3e5e214e	0.21692392
10	0x3c48ab78	0.012247913
11	0xbe252207	-0.16126262
12	0xbf571c8b	-0.8402793
13	0xbcdda233	-0.027054882
14	0xbdb491cb	-0.0881687
15	0xbe386e84	-0.18010908
16	0x3e2c8a0e	0.16849539
17	0x3d8fec61	0.070275076
18	0x3e215cdb	0.15758078
19	0xbee36713	-0.44414577
20	0x3e106d87	0.14104281
21	0xbebfa1c1	-0.37428096
22	0xbe0122a1	-0.12610866
23	0xbdb20400	-0.08692169
24	0x3f423145	0.7585643
25	0x3f123c92	0.5712367
26	0xbcdf3302	-0.027246002
27	0xbd6b454a	-0.057439126
28	0x3e280626	0.16408595
29	0x3e0185ba	0.12648669
30	0xbcb5b15f	-0.022179304
31	0x3e7c9b59	0.24668635

l2.1.running_var f4 [32]
0	0x3e5aefbb	0.21380512
1	0x3e5420be	0.20715615
2	0x3e71ca2e	0.23612282
3	0x40293314	2.6437426
4	0x3e62f2ad	0.22162886
5	0x3f4d9a90	0.8031397
6	0x3f284c4f	0.6574144
7	0x3ed05cc9	0.4069579
8	0x3e10f137	0.14154516
9	0x3dbfa7b0	0.09358156
10	0x3e46f4df	0.19429348
11	0x3dda79e9	0.10667784
12	0x3f32ad1e	0.69795406
13	0x3e2193b8	0.15779006
14	0x3e644016	0.22290072
15	0x3e30e856	0.17276129
16	0x3e653580	0.2238369
17	0x3e22fab1	0.15915944
18	0x3e3fdd0f	0.18736671
19	0x3f6c6c24	0.9235251
20	0x3f1b3d01	0.6063996
21	0x3f36bfb6	0.7138628
22	0x3e9491ad	0.29017392
23	0x3f1b8980	0.60756683
24	0x3ec9f380	0.39443588
25	0x3ecc2888	0.39874673
26	0x3e78f1b3	0.24310951
27	0x3e1e3fec	0.15454072
28	0x3e44d483	0.19221692
29	0x3d9930b1	0.0747999
30	0x3e023eae	0.12719223
31	0x3ea1f19b	0.31629643

l3.0.weight f4 [32, 32, 3, 3]
0	0x3b4ad493	0.0030949458
1	0x3c365015	0.0111274915
2	0x3d0e3fd9	0.03472886
3	0xbd7132c7	-0.058886316
4	0xbc8c0b53	-0.017095244
5	0x3c3f267b	0.011666889
6	0xbce5852d	-0.028017605
7	0xbd817a29	-0.06322128
8	0x3cb11e98	0.021621034
9	0x3c584b04	0.013201479
10	0xbd89cc34	-0.06728402
11	0xbcd17237	-0.025567157
12	0xbc905650	-0.017619282
13	0xbd203792	-0.039115496
14	0x3ca20ea3	0.01978237
15	0x3cef5061	0.029213132
16	0xbc87480a	-0.016513843
17	0xbc167d8c	-0.009185206
18	0x3ca6cc08	0.020360962
19	0x3ca7225a	0.020402122
20	0xbb0ba004	-0.0021305094
21	0xbd1e09ce	-0.03858357
22	0xbd01a52b	-0.031651657
23	0xbc8967d9	-0.016773151
24	0xbd13296d	-0.03592818
25	0xbd07b39f	-0.033130284
26	0x3d679fdc	0.05654894
27	0x3c4f7523	0.012662205
28	0x3d325b2c	0.04354398
29	0xbbb2c854	-0.00545601
30	0x3cb8e883	0.022571808
31	0x3d3de26f	0.046358522
32	0x3bd1af6c	0.0063990857
33	0x3d524374	0.05133386
34	0x3c581112	0.013187664
35	0xbd0da567	-0.034581568
36	0x3c9a02c5	0.018800149
37	0x3d9a32ad	0.07529197
38	0x3d9fe5af	0.078074805
39	0xbd783e3c	-0.060606226
40	0xbcb84b3a	-0.022496808
41	0xbc3ba1d0	-0.011452153
42	0xbd908a16	-0.07057588
43	0xbda6d31b	-0.08145734
44	0xbd769adf	-0.06020629
45	0x3d6aace5	0.05729379
46	0xbce7b5fa	-0.028285015
47	0xbaf7f60b	-0.0018917931
48	0xbcfd14dd	-0.030893737
49	0xbcebacf8	-0.028769001
50	0x3d3348b9	0.043770526
51	0x3af6076b	0.0018770521
52	0x3d1a7695	0.037710745
53	0xbd8c32bc	-0.06845614
54	0xbd50d8bd	-0.050987948
55	0xbd3056fb	-0.0430517
56	0xbc8a06a8	-0.016848877
57	0x3d4ef80f	0.050529536
58	0xbcec25ff	-0.028826712
59	0xbd3c87ca	-0.046027936
60	0x3c8f7acb	0.017514607
61	0x3d4b9a51	0.049707714
62	0x3d569f59	0.05239806
63	0xbba2b443	-0.0049653365
64	0x3b58130e	0.0032970342
65	0x3d48ff5a	0.049071647
66	0x39ccea5b	0.0003908452
67	0xbcfb3715	-0.030665914
68	0x3d01a5db	0.031652313
69	0x3c7ac712	0.015306251
70	0xbcbf57e6	-0.023357343
71	0x3cb29d7b	0.021803608
72	0xbd977faf	-0.073974006
73	0x3c17cc52	0.009265022
74	0xbcdc104a	-0.026863236
75	0x3c72c3a3	0.014817151
76	0x3bb721ac	0.005588731
77	0x3c1e25e7	0.009652591
78	0x3cde17c2	0.027110938
79	0xba70c10b	-0.0009184039
80	0x3ba58cca	0.0050521838
81	0xbd3f07e1	-0.046638373
82	0x3cd2da8c	0.025738977
83	0x3cc49e18	0.024001166
84	0x3a3d2956	0.00072159374
85	0xbb6fef5d	-0.0036611177
86	0xbc0f2f0c	-0.008739244
87	0xbdcea8ee	-0.100908145
88	0x3c5e0524	0.01355103
89	0xbb4f3244	-0.0031615654
90	0x3ca0559f	0.019572077
91	0x3cb9faed	0.022702659
92	0x3d5a3072	0.053268857
93	0x3d0f3f1d	0.0349723
94	0xbc63ad09	-0.013896235
95	0x3bd11122	0.006380216
96	0x3cb091f4	0.02155397
97	0x3c0647c2	0.008195819
98	0x3cc4cf97	0.024024768
99	0xbd0f4ee8	-0.03498736
100	0xbdca01c3	-0.09863617
101	0x3c1841cd	0.009293032
102	0xbd135144	-0.035966173
103	0xbde3cf7e	-0.1112356
104	0xbcc73d7e	-0.024321314
105	0xbd9cf155	-0.07663218
106	0xbda50862	-0.080582395
107	0xbd9f72fd	-0.07785604
108	0xbd86ce2f	-0.06582295
109	0x3c471b1e	0.012152461
110	0x3d087564	0.033315077
111	0xbcaf676a	-0.021411616
112	0xbd48b01a	-0.04899607
113	0xbd82a52c	-0.0637916
114	0x3d43e86d	0.04782908
115	0xbbff1e75	-0.007785613
116	0x3d224389	0.039615188
117	0x3d2d9aee	0.04238408
118	0xbd248ff6	-0.040176354
119	0xbccd0ee6	-0.025031518
120	0x3c39ad66	0.011332845
121	0x3c8a3112	0.016869102
122	0xbcf68ce5	-0.03009648
123	0x3cf80f46	0.03028072
124	0x3c67f7cc	0.0141582005
125	0xbd0f6eef	-0.035017904
126	0xbd06973c	-0.032859072
127	0xbce37018	-0.027763411
128	0x3d26217f	0.040559288
129	0x3cfb57fa	0.030681599
130	0xbd3a1c9e	-0.045437448
131	0xbc4a9a68	-0.012365915
132	0xbd025ee0	-0.03182876
133	0x3cf73fad	0.03018173
134	0xbc26ac40	-0.010172904
135	0x3bde11dd	0.006777032
136	0xbd489f05	-0.048979778
137	0x3d3c3782	0.045951374
138	0xbd7b1469	-0.06129876
139	0xba89bf3f	-0.0010509266
140	0x3d2537bb	0.04033635
141	0x3c22e6f4	0.009942759
142	0xbda3c853	-0.07997193
143	0x3d6de09c	0.058075532
144	0x3c7ebead	0.01554839
145	0xbc469a66	-0.012121772
146	0x3c439dda	0.01193949
147	0xbb6e6da1	-0.0036381262
148	0xbce9436f	-0.028474538
149	0x3cb92cf7	0.022604449
150	0xbc53d94e	-0.012930227
151	0xbdab4132	-0.083620444
152	0xbb042aac	-0.0020167036
153	0xbc099693	-0.008397716
154	0x3c8448bb	0.016147962
155	0xbd351328	-0.044207722
156	0xbdae3b1e	-0.085073695
157	0xbb6fe17a	-0.00366029
158	0xbd31daae	-0.04342144
159	0x3c99829e	0.018739041
160	0x393474c9	0.00017209644
161	0x3d602c3d	0.05472969
162	0x3ceef075	0.029167393
163	0x3cc3be83	0.023894554
164	0x3d4c98dc	0.049950466
165	0x3d93177f	0.07182216
166	0xbc2a67bb	-0.010400708
167	0x3db5eaa9	0.088826485
168	0x398ed47b	0.0002724266
169	0x3d3d94b2	0.046284385
170	0xbc625cd9	-0.013816082
171	0x3d84ad33	0.06478348
172	0xbca63543	-0.020289069
173	0x3cd1cf91	0.02561167
174	0xbc5bd347	-0.013417072
175	0x3d7e9249	0.062151227
176	0x3d79ea8d	0.0610147
177	0xbd0cb2e1	-0.03435028
178	0xbd342318	-0.04397878
179	0xbbd0af83	-0.006368579
180	0xbc307db4	-0.010772157
181	0xbd0a1f19	-0.033721063
182	0x3c81a6bf	0.015826581
183	0x3ad2c5ee	0.0016080716
184	0x3bbc2e81	0.0057428484
185	0xbcce7c04	-0.02520562
186	0xbb51307a	-0.0031919763
187	0x3d3c1369	0.04591695
188	0x3cca0189	0.024658935
189	0x3c9bd9ab	0.01902469
190	0x3c8e6602	0.017382625
191	0xbd05fa9c	-0.032709703
192	0x3c747f12	0.014922874
193	0x3c3e7279	0.011623972
194	0xbd87a762	-0.066237226
195	0x3ce7b677	0.028285248
196	0xbc9903b0	-0.018678516
197	0xbd561270	-0.052263677
198	0xbdcf1bfa	-0.10112758
199	0xbc40f4b2	-0.01177709
200	0x3c7a8c88	0.015292294
201	0xbdd13039	-0.10214276
202	0xbd9d4295	-0.07678715
203	0x3b6d7e31	0.0036238546
204	0xbda1766c	-0.07883915
205	0xbc34a00e	-0.011024488
206	0xbccb5922	-0.024822775
207	0x3b22110e	0.0024729404
208	0x3c960d90	0.018317014
209	0x3ca09f3b	0.019607177
210	0x3ce015f0	0.02735421
211	0xbc21f1da	-0.009884322
212	0x3cd16054	0.025558628
213	0x3d2d69bf	0.042337175
214	0x3ce5910b	0.028023263
215	0xbcf72c29	-0.030172424
216	0xbd42f5bd	-0.047597636
217	0xbd1040c0	-0.035218
218	0x3dea8d71	0.11452759
219	0xbdadff48	-0.08495957
220	0xbd721b17	-0.059107866
221	0x3dab3362	0.0835941
222	0x3c869efb	0.01643323
223	0xbd3527d8	-0.04422745
224	0xb9a72cbf	-0.0003188606
225	0x3d183d79	0.037168
226	0xbc81c9db	-0.015843323
227	0x3db3b19f	0.08774113
228	0xbd145cb0	-0.036221206
229	0x3d74f196	0.059800707
230	0x3c3cfac9	0.011534401
231	0xbb689be0	-0.00354933
232	0xbbb156f8	-0.005411979
233	0x3b8a3ead	0.0042188973
234	0xbd2db3e7	-0.042407896
235	0x3d2da50e	0.042393737
236	0x3d1c6336	0.038180552
237	0xbd02f090	-0.0319677
238	0xbcd8956c	-0.026438437
239	0x3d23f5c5	0.040029306
240	0x3d04595f	0.032311793
241	0x3d56c32f	0.052432235
242	0x3a6945a7	0.00088986236
243	0xbc82738e	-0.015924241
244	0xbd5223e1	-0.051303748
245	0xbd8be785	-0.06831268
246	0xbdd817c6	-0.105514094
247	0xbdcb74a8	-0.0993436
248	0xbcc2b1a5	-0.023766348
249	0xbdd136c8	-0.10215527
250	0xbc82f1b4	-0.015984394
251	0xbd3367a7	-0.043800022
252	0x3d7a47da	0.06110368
253	0xbd70a42e	-0.058750324
254	0x3c3ad66e	0.011403663
255	0xbd5c5c96	-0.053799234

l3.0.bias f4 [32]
0	0xbd06c96e	-0.032906942
1	0x3d471025	0.04859938
2	0x3d0e6a9c	0.03476964
3	0xbc6ffc25	-0.014647518
4	0xbc444712	-0.011979835
5	0x3cbe0804	0.023197182
6	0xbcd46df4	-0.025931336
7	0x3d46fd13	0.048581194
8	0x3d4e0f02	0.05030728
9	0x3d45a532	0.048253246
10	0x3c97406c	0.018463336
11	0x3c9e85ef	0.019350974
12	0xbcbc900e	-0.02301791
13	0xbd2298a4	-0.03969635
14	0x3d3e91ba	0.046525694
15	0xbd52ef38	-0.051497668
16	0xbd0a0614	-0.033697203
17	0xbc1afac9	-0.009459206
18	0x3ce029a5	0.027363608
19	0x3d16cf38	0.036818713
20	0xbd76f048	-0.060287744
21	0xbc77ffa3	-0.015136632
22	0xbc4b22da	-0.012398446
23	0xbd575b96	-0.052577578
24	0x3c82a000	0.015945435
25	0xbcbd9bce	-0.023145583
26	0x3aa21b58	0.0012367768
27	0x3c99d28e	0.018777158
28	0x3c99b525	0.018763134
29	0x3cc65535	0.024210552
30	0xbba0e5f8	-0.004910227
31	0x3d1ca7eb	0.038246077

l3.1.weight f4 [32]
0	0x3f87758d	1.0582749
1	0x3f7920a2	0.9731542
2	0x3f735874	0.95056844
3	0x3f8220a9	1.0166217
4	0x3f88d81b	1.069095
5	0x3f7a4210	0.97757053
6	0x3f8732d6	1.0562389
7	0x3f89bbde	1.0760458
8	0x3f870b35	1.0550295
9	0x3f896938	1.0735235
10	0x3f73ce68	0.95236826
11	0x3f6865ef	0.9078054
12	0x3f7aeba2	0.980158
13	0x3f7e32ff	0.99296564
14	0x3f82fe6a	1.0233891
15	0x3f82d0b5	1.0219942
16	0x3f7949da	0.97378314
17	0x3f7a79b0	0.9784193
18	0x3f7b0cd9	0.9806648
19	0x3f8177e9	1.0114719
20	0x3f83b317	1.0289029
21	0x3f7b0b2b	0.98063916
22	0x3f7e4ec6	0.9933895
23	0x3f835de4	1.0263028
24	0x3f8656aa	1.0495198
25	0x3f8881a7	1.0664567
26	0x3f802c3e	1.0013502
27	0x3f7792b8	0.9670825
28	0x3f820a99	1.0159484
29	0x3f7a7591	0.9783564
30	0x3f818c3b	1.012092
31	0x3f774dbf	0.96603006

l3.1.bias f4 [32]
0	0x3d59c247	0.053163793
1	0x396ca4e6	0.00022568143
2	0xbd9246ad	-0.071423866
3	0xbaf13a83	-0.0018404279
4	0xbd4853cd	-0.048908044
5	0xbd10c2e9	-0.03534213
6	0x3d9c8b12	0.07643713
7	0x3de0c643	0.109753154
8	0xbc911af9	-0.017713057
9	0x3bfd5d50	0.007732071
10	0xbdbc36bd	-0.09190128
11	0xbe09189d	-0.13388295
12	0xbd9c6cf5	-0.076379694
13	0xbdbf4d75	-0.09340946
14	0x3d15e9a6	0.036599778
15	0x3bda3ee6	0.00666033
16	0xbd731413	-0.059345316
17	0xbc20cfbb	-0.009815152
18	0xbdcdddaf	-0.100520484
19	0xbd434238	-0.047670573
20	0xbd88b940	-0.06675959
21	0xbd47fc12	-0.048824377
22	0xbb82d00b	-0.003992086
23	0x3d49813e	0.04919552
24	0xbb04fbf5	-0.002029178
25	0xbd1e7883	-0.038689148
26	0xbd96d446	-0.07364707
27	0xbd3bb8a3	-0.04583038
28	0xbdb02888	-0.08601481
29	0xbd0f41f1	-0.034974996
30	0xbcce6b1a	-0.025197554
31	0x3b009d90	0.0019625165

l3.1.running_mean f4 [32]
0	0xbee6d25d	-0.4508237
1	0x3ef5d6fe	0.4801559
2	0xbda40a9b	-0.08009835
3	0x3d05b076	0.03263899
4	0xbb747f4a	-0.0037307316
5	0xbc19b868	-0.009382345
6	0xbe3afcee	-0.18260548
7	0xbc7dc11d	-0.015487936
8	0x3ef6c0c5	0.48193946
9	0xbe308fec	-0.17242402
10	0x3f1dffdb	0.6171853
11	0x3e20f978	0.15720165
12	0x3ed7a4e0	0.42117977
13	0x3eab0202	0.3339997
14	0x3ec64b5d	0.38729373
15	0x3e2544a3	0.16139464
16	0x3ed5999d	0.4171876
17	0xbf82851f	-1.0196875
18	0x3ee75105	0.45179
19	0x3e57141f	0.2100377
20	0xbd6d0e98	-0.057875246
21	0xbf3442d8	-0.70414495
22	0xbe9bf99f	-0.30463883
23	0x3d329813	0.04360206
24	0xbd562804	-0.052284256
25	0xbe98eb40	-0.29866982
26	0xbe72b5aa	-0.23702112
27	0x3e44758c	0.19185466
28	0x3e2eb7fd	0.17062373
29	0xbd1d9035	-0.038467605
30	0xbe9491e1	-0.29017547
31	0xbdd8480e	-0.10560618

l3.1.running_var f4 [32]
0	0x3e9630bf	0.29334065
1	0x3e8becb7	0.27329037
2	0x3e1fd512	0.15608624
3	0x3f315630	0.69272137
4	0x3e068ae3	0.13138919
5	0x3eaa060f	0.33207747
6	0x3e63f2db	0.22260611
7	0x3e95f7b4	0.29290545
8	0x3e85703e	0.26062196
9	0x3ed52944	0.41633046
10	0x3ed24802	0.41070563
11	0x3e836ffe	0.2567138
12	0x3e74d1b3	0.23908119
13	0x3eb9e68e	0.36308712
14	0x3e780d32	0.24223784
15	0x3eae2fb1	0.3402076
16	0x3ea3e18b	0.32008013
17	0x3e8baf32	0.272821
18	0x3e703b63	0.23460154
19	0x3ee88759	0.45415762
20	0x3e8c8cf4	0.2745129
21	0x3ef5bc02	0.47995
22	0x3e9aba45	0.30220237
23	0x3e6b831e	0.22999236
24	0x3e437707	0.19088374
25	0x3e8740e8	0.26416707
26	0x3e91d3f9	0.28482035
27	0x3e9ed7e1	0.31024078
28	0x3e75a6ad	0.23989363
29	0x3f283d4b	0.65718526
30	0x3e4e0502	0.20119098
31	0x3e87cda3	0.26524076

l4.0.weight f4 [32, 32, 3, 3]
0	0x3d1141a3	0.035462987
1	0xbbb196e0	-0.005419597
2	0xbd4b61d3	-0.04965384
3	0xbd0df73b	-0.034659605
4	0xbcf444b6	-0.02981792
5	0x3d1a812e	0.03772085
6	0x3c335ec2	0.010947885
7	0xbce4e385	-0.027940521
8	0xbd5f7122	-0.05455125
9	0x3cda9c8b	0.026685974
10	0x3c14d63c	0.009084281
11	0xbcfb4216	-0.03067116
12	0xbbf3f19b	-0.007444573
13	0x3c002ddc	0.007823434
14	0xbd04eb8a	-0.03245119
15	0x3bd708c0	0.0065623224
16	0xbd873d63	-0.066035055
17	0x3cec80f9	0.028870093
18	0x3ca62818	0.02028279
19	0x3d05ecf6	0.032696687
20	0x3d540386	0.051761173
21	0xbd1cae6a	-0.03825227
22	0x3b6d6789	0.0036225042
23	0x3beabf1e	0.007163896
24	0x3d1faa63	0.038980853
25	0xbd822e71	-0.06356514
26	0x3cccdf42	0.025008801
27	0x3d19ba20	0.03753102
28	0xbc0be2e8	-0.008537985
29	0xbc01f6c3	-0.007932368
30	0xbcdd243f	-0.026994823
31	0x3d31a165	0.04336681
32	0xbcf7a6b4	-0.030230857
33	0x3d937aea	0.07201178
34	0x3d013290	0.03154236
35	0x3d306bdc	0.043071613
36	0x3d10f61d	0.035390962
37	0xbd64ff2b	-0.05590741
38	0xbd355477	-0.044270005
39	0x3c8c7776	0.017146807
40	0xbd57117b	-0.052506905
41	0x3d77af26	0.06046977
42	0x3c0464a5	0.008080636
43	0xbc71a536	-0.014748862
44	0x3d737364	0.059436217
45	0x3ce3db81	0.027814629
46	0xbc98eb64	-0.01866693
47	0xbd2f37bb	-0.042777758
48	0xbd895b9f	-0.067069285
49	0x3d358945	0.044320364
50	0x3cd24f33	0.02567253
51	0x3c558f6b	0.013034682
52	0x3d493b34	0.049128726
53	0xbd011ab3	-0.031519603
54	0xbdbc2cb7	-0.09188216
55	0xbbaa7ec1	-0.0052030985
56	0x3d40ab96	0.047038637
57	0x3d208e55	0.03919824
58	0x3d1ac045	0.03778102
59	0x3d392a0a	0.045206107
60	0xbcde7249	-0.027154105
61	0x3c40091c	0.011720922
62	0xbc68c6a5	-0.014207517
63	0xbdb74e0f	-0.08950435
64	0x3d0b22a3	0.03396858
65	0xbba4b0bb	-0.0050259507
66	0x3c16e68e	0.009210242
67	0xbd55d9b1	-0.05220956
68	0xbc85c07c	-0.016327135
69	0xbd09bf5e	-0.033629768
70	0xbb2311ae	-0.0024882364
71	0xbdce3dbe	-0.1007037
72	0xbd333476	-0.043751203
73	0x3d7f26fa	0.06229303
74	0x3c40d8cf	0.011770441
75	0x3d3b9a7a	0.045801617
76	0x3d6fc830	0.058540523
77	0x3c640dac	0.013919275
78	0x3c21ddfd	0.009879586
79	0x3cb61f61	0.02223176
80	0x3dcfe8b9	0.1015181
81	0x3d7d0964	0.061776534
82	0x3cafa6cc	0.02144184
83	0x3be2379a	0.006903601
84	0x3bfdc956	0.0077449484
85	0x3cce7134	0.025200464
86	0x3bb70cd3	0.0055862456
87	0xbd0b5784	-0.03401901
88	0xbcac8fc5	-0.021064648
89	0xbc9c7f52	-0.01910368
90	0xbd9da692	-0.076977864
91	0xbc9ee22b	-0.019394955
92	0xbdd5cf9f	-0.10439991
93	0x3d37f249	0.044908796
94	0x3ccca732	0.024982069
95	0xbdb37087	-0.08761697
96	0x3d7543d5	0.059879143
97	0xbd1dae74	-0.03849645
98	0xbd01709a	-0.031601526
99	0x3cd9b7f0	0.026576966
100	0x3d01774e	0.03160792
101	0xbd67a6a1	-0.056555394
102	0x3c47b1c1	0.012188376
103	0xbccce683	-0.02501226
104	0xbd0fa9d3	-0.035074066
105	0xbc8181e4	-0.015809007
106	0x3d00fc78	0.031490773
107	0xbd8325ba	-0.0640368
108	0x3d158f03	0.03651334
109	0x3d911ef2	0.070859805
110	0xbbb18b5e	-0.005418225
111	0x3ccbc28b	0.024873039
112	0xbc5dfc23	-0.013548884
113	0xbbf5f6d0	-0.007506229
114	0xbc3d9fa2	-0.011573704
115	0x3a86b755	0.0010278026
116	0x3cd7a056	0.026321571
117	0x3d624ce6	0.055249117
118	0x3cec1da0	0.02882272
119	0xbd6d8553	-0.057988476
120	0xbd368180	-0.044557095
121	0x3c8bff77	0.017089589
122	0xbd041218	-0.032243818
123	0xbd011255	-0.031511623
124	0xbcce31b4	-0.025170185
125	0xbce2b43c	-0.027673833
126	0x3d10c531	0.035344306
127	0x3d002b59	0.03129134
128	0xbd535d4a	-0.05160264
129	0xbd1f3c57	-0.038875904
130	0x3c9285a6	0.017885994
131	0x3d8176ea	0.06321509
132	0xbcc01418	-0.023447081
133	0xbc7d6702	-0.0154664535
134	0x3d77271f	0.060340043
135	0x3c8d8e3a	0.017279733
136	0xbc901108	-0.017586246
137	0x3d541bbf	0.051784273
138	0xba9e45ed	-0.0012075283
139	0xbd70e003	-0.058807384
140	0xbd1860f5	-0.03720184
141	0xbcc1441c	-0.023592047
142	0xbda69dfa	-0.081356004
143	0xbd39d8a0	-0.045372605
144	0x3bb749de	0.0055935225
145	0xbd374122	-0.04473985
146	0xbd45625d	-0.04818951
147	0xbd1ac1f6	-0.03778263
148	0x3d4df0cc	0.05027847
149	0x3cb64b59	0.022252725
150	0xbd12571b	-0.0357276
151	0x3d815f23	0.06316974
152	0xbc272141	-0.010200799
153	0x3bcf7b20	0.0063318163
154	0xbd079626	-0.033102177
155	0x3c7f17fe	0.015569685
156	0x3d335f15	0.04379185
157	0xbd5ad3b6	-0.05342456
158	0xbd08a88e	-0.03336387
159	0xbd8dbb1c	-0.06920454
160	0x3d4d9dca	0.050199308
161	0x3d8b3928	0.06798011
162	0x3cc23e17	0.023711247
163	0x3d813b8f	0.06310188
164	0xbc0adbe2	-0.008475276
165	0x3d48dd59	0.04903922
166	0xbd4757f8	-0.048667878
167	0xbce4180e	-0.027843501
168	0x3d771a6e	0.06032794
169	0xbc557a69	-0.013029673
170	0x3dc8c656	0.098034546
171	0x3cf73ffc	0.030181877
172	0xbdba1309	-0.09085662
173	0xbc95fa49	-0.018307822
174	0xbd9aa0e9	-0.075502224
175	0xbda2c4b8	-0.079476774
176	0xbd32ea1e	-0.043680303
177	0x3c45ae2a	0.01206545
178	0x3a92edea	0.001120982
179	0x3da8fe1d	0.08251593
180	0x3d33780d	0.04381566
181	0xbcbc9c0f	-0.023023633
182	0x3d068524	0.032841817
183	0xbca8856c	-0.020571433
184	0x3d7d03b9	0.06177113
185	0x3d3d88c8	0.046273023
186	0x3cac342f	0.021020977
187	0xbbd08e76	-0.006364639
188	0xbd6da709	-0.058020625
189	0x3d7db57e	0.061940663
190	0x3da7644e	0.081734285
191	0x3b5f1ec5	0.003404544
192	0x3badd0ba	0.005304423
193	0x3af93743	0.0019013662
194	0xbd4256ab	-0.047445934
195	0xbda5614e	-0.080752
196	0x3c4874ea	0.012234906
197	0xbd0a41b7	-0.033754077
198	0xbcc6f4c9	-0.024286645
199	0xbb724491	-0.0036967138
200	0xbd0ddb9d	-0.034633268
201	0xbc9fbb4b	-0.019498488
202	0x3d33d601	0.043905262
203	0x3af8b0e2	0.0018973614
204	0xbd2ad8cc	-0.04171066
205	0x3d4a1508	0.049336463
206	0xbc80df56	-0.015731495
207	0xbd0fae99	-0.03507862
208	0x3d539939	0.051659796
209	0xbc1455ed	-0.009053689
210	0xbc7144d9	-0.014725887
211	0xbbf30cb4	-0.007417286
212	0x3d6ba259	0.057527874
213	0x3d471810	0.048606932
214	0x3d3fb982	0.046807773
215	0x3c6e30a7	0.014537967
216	0xbc95df76	-0.018295031
217	0xbc8e5f71	-0.017379494
218	0xbd195dc8	-0.037442952
219	0x3d89232a	0.0669616
220	0xbced3f24	-0.028960772
221	0x3c01621d	0.007896927
222	0x3d6f89fe	0.05848121
223	0x3ddcb814	0.107772976
224	0x3b9153b2	0.004435026
225	0x3d5316a0	0.05153525
226	0x3c456b1a	0.012049461
227	0x3d89b4dd	0.0672395
228	0x3c44ba1f	0.012007265
229	0xbbb3facf	-0.005492545
230	0xbd215f6a	-0.039397635
231	0x3c0614b6	0.008183649
232	0x3c01b1ed	0.007915956
233	0x3bcfbf21	0.006339923
234	0xbcbf687a	-0.023365248
235	0x3ba5033f	0.0050357874
236	0x3d993f7b	0.07482811
237	0xbc533a71	-0.0128923515
238	0xbd6e5b1f	-0.05819237
239	0x3da33b37	0.07970279
240	0x3cc25dce	0.02372637
241	0xbcfe4d32	-0.031042669
242	0x3d5bfe89	0.05370954
243	0x3d3a7815	0.045524675
244	0x3d08af56	0.03337034
245	0xbcbb6816	-0.02287678
246	0x3a0030e1	0.0004890096
247	0x3d6633a6	0.0562016
248	0xbc8b5686	-0.017009031
249	0x3d4b179a	0.049583055
250	0x3d67e72e	0.056616955
251	0x3c05f4f1	0.008176074
252	0xbd00305e	-0.031296127
253	0x3d5da3d2	0.05411131
254	0x3ae58b1f	0.0017512775
255	0x3bfd6cb3	0.007733905

l4.0.bias f4 [32]
0	0xbc5a39c8	-0.01331944
1	0xbcd4f19a	-0.02599411
2	0xbcfadda8	-0.030623272
3	0x3cef2a10	0.029194862
4	0x3d01b6c8	0.031668454
5	0xbb910585	-0.004425707
6	0x3cd34902	0.025791649
7	0x3a6561f2	0.0008750252
8	0xbbae2f42	-0.005315692
9	0x3d3ff809	0.046867404
10	0xbc84a82f	-0.016193477
11	0xbd6e1f04	-0.058135048
12	0x3cf4d3de	0.029886182
13	0xbcecec0a	-0.028921146
14	0xbb3d37c6	-0.0028872355
15	0xbbc2ce11	-0.005944975
16	0x3cda92ed	0.026681388
17	0xbc364c00	-0.011126518
18	0xbd39e6b3	-0.045386028
19	0x3c0a7782	0.008451344
20	0xbd1d0a0d	-0.038339663
21	0xbcb13539	-0.021631824
22	0xbbde3c5a	-0.006782097
23	0xbd708b72	-0.058726735
24	0x3ca8564e	0.020548966
25	0xbd39fe3c	-0.045408472
26	0xbd5e2ca3	-0.054241788
27	0x3ccafc08	0.024778381
28	0xbd23aed4	-0.03996165
29	0x3c51ac86	0.01279748
30	0xbd3f3283	-0.04667903
31	0xbc065a61	-0.008200259

l4.1.weight f4 [32]
0	0x3f7c0dcc	0.9845855
1	0x3f83ddcd	1.0302063
2	0x3f7a96be	0.97886264
3	0x3f7d7a04	0.99014306
4	0x3f88b860	1.0681267
5	0x3f83c92c	1.0295768
6	0x3f743536	0.95393693
7	0x3f7d3686	0.9891132
8	0x3f813422	1.0094035
9	0x3f8637c7	1.0485772
10	0x3f7befeb	0.9841296
11	0x3f80527c	1.0025172
12	0x3f806fb9	1.0034095
13	0x3f81b9eb	1.0134863
14	0x3f7a478a	0.9776541
15	0x3f78d250	0.9719591
16	0x3f7236e0	0.9461498
17	0x3f7f0500	0.99617004
18	0x3f7d26e9	0.988875
19	0x3f767a1c	0.96280074
20	0x3f83872d	1.0275627
21	0x3f7aa950	0.979146
22	0x3f73df97	0.95263046
23	0x3f811751	1.0085241
24	0x3f7e02d9	0.99223095
25	0x3f819a8e	1.0125291
26	0x3f7fc007	0.99902385
27	0x3f8096ce	1.0046022
28	0x3f833af9	1.0252372
29	0x3f861410	1.0474873
30	0x3f8737d2	1.056391
31	0x3f86f054	1.0542092

l4.1.bias f4 [32]
0	0xbd1b41e1	-0.037904624
1	0xbc57f043	-0.013179841
2	0xbde92e3d	-0.113857724
3	0x3cc59772	0.024120066
4	0xbdab2623	-0.083568834
5	0xbdb22cc9	-0.08699948
6	0xbd225849	-0.039634977
7	0xbd28e9db	-0.041238647
8	0xbd0a8513	-0.033818316
9	0xbdea7c76	-0.1144952
10	0x3ca03ffc	0.01956176
11	0xbd5aa0d2	-0.053376026
12	0xbd9d38aa	-0.076768234
13	0xbd062c29	-0.03275696
14	0xbd17d0d1	-0.037064377
15	0xbd80dd7f	-0.06292247
16	0xbcacabaa	-0.02107795
17	0xbd172521	-0.036900643
18	0xbcb4ba3f	-0.022061465
19	0xbb5d156a	-0.0033734688
20	0xbd66d2cb	-0.05635337
21	0x3b296e57	0.0025853121
22	0xbdcee134	-0.10101548
23	0xbd33bf5d	-0.04388367
24	0xbd0e2aee	-0.03470891
25	0xbdb25c53	-0.08709016
26	0x3b7a2e07	0.0038174407
27	0x3cdc4fa4	0.026893444
28	0x3d0fe105	0.035126705
29	0xbdc0ad2b	-0.09408029
30	0xbd0eb496	-0.03484019
31	0x3afbc3d2	0.0019208139

l4.1.running_mean f4 [32]
0	0x3e39c255	0.18140538
1	0xbddbaffa	-0.10726924
2	0x3e640bff	0.22270201
3	0x3f8910db	1.0708269
4	0x3f03dc8c	0.515084
5	0x3cffc25a	0.031220604
6	0x3ece1541	0.4025059
7	0xbe0b80ae	-0.13623306
8	0xbe482ed9	-0.19549121
9	0xbed571cd	-0.41688386
10	0xbda42ab5	-0.08015958
11	0xbee7dbd0	-0.4528489
12	0x3e2d2b3c	0.16911024
13	0x3ee05978	0.4381826
14	0x3e311cab	0.17296092
15	0x3ec5addc	0.38609207
16	0xbe07da3a	-0.1326684
17	0xbe595997	-0.21225582
18	0xbe0fe160	-0.14050817
19	0xbf0ffe2c	-0.5624721
20	0x3e991003	0.29895028
21	0xbec61b54	-0.38692725
22	0x3f08b70b	0.534043
23	0xbd2e2d50	-0.042523682
24	0xbf908fd5	-1.1293894
25	0xbee4bd44	-0.44675648
26	0x3daa54d3	0.0831696
27	0xbe25067f	-0.1611576
28	0xbf8944f9	-1.0724174
29	0x3de4c68a	0.11170681
30	0xbeb67e01	-0.35643008
31	0x3e18559f	0.14876412

l4.1.running_var f4 [32]
0	0x3e56fcc4	0.2099486
1	0x3e7eb0f5	0.24872191
2	0x3edb0b49	0.42782047
3	0x3f5b78f6	0.85731447
4	0x3f3a3980	0.7274399
5	0x3e82803b	0.25488457
6	0x3f0708cb	0.5274779
7	0x3ed6393a	0.41840535
8	0x3e989c9a	0.29806978
9	0x3f0aea21	0.542635
10	0x3e4d0323	0.20020728
11	0x3eccac96	0.39975423
12	0x3e7adadb	0.24497549
13	0x3effd055	0.49963632
14	0x3eed95ca	0.46403342
15	0x3f153290	0.5828028
16	0x3ea04d7f	0.31309125
17	0x3eb0c176	0.345226
18	0x3efa48f9	0.488838
19	0x3efd3c2b	0.49459967
20	0x3f31a1ef	0.69387716
21	0x3ec93896	0.39300984
22	0x3e92eafc	0.28694904
23	0x3eedb253	0.46425113
24	0x3f86fbfb	1.0545648
25	0x3ea95fbb	0.3308085
26	0x3ecf1668	0.40446782
27	0x3e7280b3	0.23681907
28	0x3f1cc76d	0.612418
29	0x3ec36e99	0.38170317
30	0x3e2f7151	0.1713307
31	0x3e70deed	0.2352254
