models/drop0-5_000049.pth (torch_old, 173832 bytes, 32 tensors)

l1.0.weight f4 [32, 12, 3, 3]
0	0x3db15674	0.08659068
1	0x3cf70aa5	0.030156443
2	0x3cf0c898	0.029392526
3	0x3d2787b2	0.040900894
4	0xbd8d34d7	-0.06894844
5	0x3d48e996	0.04905089
6	0xbcf25692	-0.029582296
7	0x3d26f79a	0.040763475
8	0xbc33dbff	-0.010977744
9	0x3c8f24a9	0.017473536
10	0x3dbf2d3b	0.09334799
11	0x3d38f018	0.045150846
12	0x3cfa47b7	0.030551774
13	0xbc8acae8	-0.016942456
14	0xbc80ed56	-0.01573817
15	0xbcace15a	-0.02110355
16	0x3bf8a91a	0.007588518
17	0xbca4eb3e	-0.020131703
18	0x3db8c886	0.09022622
19	0x3dad686c	0.084671825
20	0x3afaf46a	0.0019146327
21	0xbda04dfb	-0.078273736
22	0xbb022193	-0.0019856438
23	0xbd3f8f7f	-0.046767708
24	0xbd49e7b6	-0.049293242
25	0x3a077185	0.0005166757
26	0x3d260fcb	0.040542405
27	0x3d7b9c8d	0.061428595
28	0xbd6cf254	-0.05784829
29	0x3da7afbf	0.08187818
30	0x3b770f14	0.0037698196
31	0x3db47da2	0.08813025
32	0x3d20c058	0.039245933
33	0xbdca7bd8	-0.098869026
34	0xbddfbf39	-0.10925145
35	0xbd9b81f8	-0.07593149
36	0x3d7c9512	0.061665602
37	0xbcf9241d	-0.030412728
38	0x3cda8ed2	0.02667943
39	0xbd87be4e	-0.066280946
40	0x3d9715ba	0.07377191
41	0xbd8e6f2f	-0.069548
42	0x3d95b436	0.07309763
43	0xbc501737	-0.012700847
44	0xbd88bf18	-0.06677073
45	0x3d807b05	0.06273464
46	0xbd1d5819	-0.038414095
47	0x3d70b965	0.058770556
48	0xbccc0767	-0.024905873
49	0xbc245612	-0.010030286
50	0xbdb1ef48	-0.086882174
51	0xbc851464	-0.016245075
52	0x3d725069	0.059158716
53	0xbb4280c3	-0.0029678799
54	0x3dd69bef	0.10478961
55	0x3e000841	0.12503149
56	0x3d657c6d	0.056026865
57	0xbdb02428	-0.08600646
58	0x3d7ced84	0.06174995
59	0x3cbc4658	0.022982761
60	0xbdaaa1e6	-0.08331661
61	0x3d0ff5f8	0.035146683
62	0x3d0e6279	0.03476188
63	0x3dd35731	0.10319365
64	0x3a2a3377	0.0006492654
65	0x3cb3ac54	0.021932758
66	0xbcafbdb6	-0.021452766
67	0x3cc5949c	0.024118714
68	0xbda64257	-0.08118122
69	0xbda74254	-0.08166948
70	0x3d400b48	0.04688576
71	0xbd14abe5	-0.036296744
72	0x3d9b7f81	0.07592679
73	0x3d2e8e6b	0.04261629
74	0x3d85e751	0.06538261
75	0x3b9b358e	0.004736609
76	0x3c9310eb	0.017952403
77	0x3c3ee4cd	0.01165123
78	0xbddb9856	-0.10722415
79	0xbbe254fe	-0.0069071045
80	0xbdb0312a	-0.08603127
81	0xbd892eab	-0.06698354
82	0x3c44f4f9	0.012021297
83	0x3b1c48e5	0.002384716
84	0x3d53fc4d	0.051754285
85	0xbd6d438e	-0.057925753
86	0xbd9da0e9	-0.07696707
87	0x3d8f8c4b	0.07009181
88	0xbcf281b9	-0.029602872
89	0x3d802c16	0.06258409
90	0x3d096f4e	0.033553414
91	0xbd77ded3	-0.060515236
92	0x3d4df7fe	0.050285332
93	0x3cf744b6	0.030184131
94	0xbd7539a0	-0.05986941
95	0xbcb841b8	-0.022492275
96	0x3d23ec66	0.04002037
97	0x3c7532d7	0.014965734
98	0xbc9347d4	-0.017978586
99	0xbd1a5d7e	-0.037686817
100	0x3d95ef75	0.073210634
101	0xbd2e5abc	-0.042567
102	0x3d5d7333	0.05406494
103	0x3d11e8f3	0.03562255
104	0xbdbae442	-0.09125568
105	0xbdbcb075	-0.09213344
106	0x3da37d39	0.07982869
107	0xbc3edf0a	-0.011649856
108	0x3d7fdaf1	0.06246466
109	0x3d0a8334	0.03381653
110	0x3c8756a8	0.016520813
111	0x3da84186	0.082156226
112	0x3dd1ddcd	0.10247383
113	0xbd963399	-0.0733406
114	0x3c42c1bc	0.01188701
115	0x3d76ab33	0.060221862
116	0x3d0469b2	0.03232736
117	0x3de4a033	0.11163368
118	0x3bd7455b	0.006569547
119	0xbd0b0bb4	-0.033946708
120	0x3c90e258	0.017686054
121	0x3db145c2	0.08655883
122	0x3e141142	0.14459708
123	0xbc0d3fd9	-0.0086211795
124	0x3ddfe176	0.10931675
125	0xbce2085c	-0.027591877
126	0xbda46977	-0.08027928
127	0x3cd17d98	0.025572583
128	0x3d7d0fd5	0.061782677
129	0x3dd93ef5	0.10607711
130	0xbce97579	-0.028498398
131	0x3d3a2054	0.045440987
132	0x3db7f54d	0.08982334
133	0x3da94726	0.082655236
134	0x3d5131cc	0.05107288
135	0x3d860ca3	0.06545379
136	0x3db3bae4	0.08775881
137	0x3d2939e6	0.041314982
138	0xbd501e26	-0.05081
139	0xbd1bac31	-0.03800601
140	0xbbf1b11d	-0.00737585
141	0x3baf3b25	0.0053476267
142	0xbcc1b2aa	-0.023644764
143	0x3d35daea	0.044398226
144	0xbccf2cda	-0.025289942
145	0xbd67c799	-0.056586836
146	0x3c2bd3af	0.010487481
147	0xbca51d41	-0.02015555
148	0x3c8f2c0e	0.017477062
149	0x3d20f767	0.03929844
150	0xbd98b918	-0.07457179
151	0x3d790c58	0.060802788
152	0xbd4c471f	-0.049872514
153	0xbd20b40b	-0.039234202
154	0xbdb22338	-0.08698124
155	0xbd3d22a7	-0.046175625
156	0xbd979882	-0.074021354
157	0xbce293cb	-0.027658364
158	0x3dc942aa	0.09827168
159	0xbce20dfb	-0.027594557
160	0xbd2afb86	-0.041743778
161	0x3d8d1797	0.06889265
162	0x3d7efc8e	0.062252574
163	0x3e04877c	0.12942308
164	0xbb9ef03b	-0.004850415
165	0x3d82d20e	0.06387721
166	0x3cf20cc0	0.029547095
167	0x3d157d24	0.036496297
168	0xbd3d8744	-0.046271577
169	0x3bc5a9d0	0.006032206
170	0x3ad14846	0.0015966974
171	0x3d5098aa	0.05092684
172	0x3d6cf22a	0.057848133
173	0x3d15af97	0.03654441
174	0x3dec047f	0.11524295
175	0x3e11257f	0.1417446
176	0x3dc85f2a	0.09783776
177	0x3c7737e8	0.015089013
178	0xbd0b6583	-0.034032356
179	0x3da4e28a	0.080510214
180	0xbc09f65e	-0.008420555
181	0x3d381efe	0.04495143
182	0xbd2e4548	-0.04254654
183	0xbbdf250f	-0.0068098377
184	0xbc5d0a1e	-0.013491182
185	0x3e0e5f51	0.13903548
186	0xbd95ebdc	-0.07320377
187	0xbd24a1a7	-0.040193226
188	0x3cffa217	0.03120522
189	0xbd87802a	-0.06616242
190	0x3ccb5fbd	0.024825925
191	0xbd300bba	-0.042979933
192	0xbd902f7e	-0.070403084
193	0xbc8856dc	-0.01664298
194	0x3d792005	0.06082155
195	0xbdb6dcb2	-0.08928813
196	0x3cd4d205	0.025979051
197	0x3d3fc8d0	0.04682237
198	0x3d792e89	0.060835395
199	0xbdb6cbd5	-0.089255966
200	0x3bf2ebe9	0.0074133766
201	0xbdeaf4d5	-0.11472479
202	0x3d459efa	0.048247315
203	0xbd519900	-0.051171303
204	0x3c8ad50f	0.016947297
205	0xbcf461cc	-0.02983179
206	0xbcd50574	-0.026003577
207	0xbcf2a86f	-0.029621331
208	0xbd15dd42	-0.03658796
209	0xbc8c5d7a	-0.017134417
210	0x3c2a8e70	0.010409936
211	0x3d19e8fa	0.0375757
212	0xbdc0a7ee	-0.0940703
213	0x3d84ffe7	0.06494122
214	0x3dc2acfe	0.09505652
215	0x3d7e6f22	0.062117703
216	0x3db4a2b9	0.088200994
217	0xbd87436c	-0.066046566
218	0xbce8071a	-0.028323699
219	0x3dc0a6e3	0.09406831
220	0xbdafb112	-0.08578695
221	0x3da1ed12	0.07906546
222	0xbda018c6	-0.07817225
223	0xbd9f22db	-0.0777032
224	0x3d2bddb5	0.041959483
225	0xbda0c1e3	-0.07849481
226	0xbd26cc6f	-0.040722307
227	0x3d75691e	0.0599147
228	0x3d6b7796	0.057487093
229	0x3d6733fe	0.056446068
230	0xbd3f9c84	-0.046780124
231	0xbdd4e838	-0.10395855
232	0x3d82cf33	0.06387176
233	0xbd3c4ad5	-0.045969803
234	0xbcb13035	-0.021629432
235	0x3d2754ab	0.04085223
236	0xbd2f8ede	-0.04286086
237	0x3d9f2f3b	0.0777268
238	0x3d8948ca	0.067033365
239	0xbd7e2d90	-0.06205517
240	0xbd9ecd50	-0.07754004
241	0xbb15eb34	-0.0022875788
242	0x3d6d4892	0.057930537
243	0x3c48ba02	0.012251379
244	0xbcefa62a	-0.029254038
245	0x3cec59ff	0.028851507
246	0xbda088d0	-0.07838595
247	0xbd631f5b	-0.055449825
248	0xbd25e2d7	-0.040499534
249	0x3da0d86c	0.07853779
250	0x3dcae5a0	0.09907079
251	0xbc285e5e	-0.010276405
252	0x3c67a59e	0.014138607
253	0x3da1cc82	0.07900335
254	0x3d78b383	0.06071807
255	0xbd25a38c	-0.040439174

l1.0.bias f4 [32]
0	0x3c4cd492	0.012501853
1	0xbd865e24	-0.06560925
2	0xbe070eb1	-0.13189198
3	0x3d2d5782	0.042319782
4	0x3add66e6	0.0016891628
5	0x3d11fb69	0.035640154
6	0xbc00252c	-0.007821362
7	0x3d4a4f2a	0.049391903
8	0xbd9afb98	-0.07567519
9	0xbd6b2682	-0.05740977
10	0xbdba676f	-0.0910176
11	0xbd95604e	-0.07293759
12	0x3d9aecce	0.07564698
13	0xbd0b74c8	-0.03404692
14	0xbd925e3f	-0.07146882
15	0xbcf6edb2	-0.030142639
16	0xbcbac65f	-0.022799669
17	0xbd37d9cc	-0.04488544
18	0xbd9d3e5b	-0.07677909
19	0x3d6b5e5b	0.05746303
20	0x3af2bc06	0.001851917
21	0xbda942d1	-0.08264697
22	0x3d00d2ce	0.03145104
23	0xbc35abb1	-0.011088298
24	0xbd26f853	-0.040764164
25	0xbd9da4dd	-0.07697461
26	0xbdc35c67	-0.09539109
27	0x3d062d63	0.032758128
28	0xbdb5e828	-0.08882171
29	0x3d9c9308	0.076452315
30	0xbda0150b	-0.07816514
31	0xb9bbb780	-0.00035804138

l1.1.weight f4 [32]
0	0x3f675e4d	0.90378267
1	0x3f679f5e	0.9047755
2	0x3f6780c1	0.9043084
3	0x3f835ecb	1.0263304
4	0x3f634983	0.88784045
5	0x3f8e233f	1.1104506
6	0x3f86a47e	1.0518949
7	0x3f8a524a	1.0806363
8	0x3f5f8178	0.8730693
9	0x3f85ebcd	1.0462586
10	0x3f7375fe	0.95101917
11	0x3f702962	0.93813145
12	0x3f7a17d0	0.97692585
13	0x3f939bdf	1.1531943
14	0x3f7079f6	0.939361
15	0x3f69d088	0.9133382
16	0x3f7a0b31	0.97673327
17	0x3f8e612a	1.1123402
18	0x3f848c3c	1.0355296
19	0x3f71afcd	0.94408876
20	0x3f8184ba	1.011863
21	0x3f8cc7fb	1.0998529
22	0x3f716f23	0.94310206
23	0x3f7adc95	0.9799283
24	0x3f761149	0.96120125
25	0x3f8597a6	1.0436904
26	0x3f8b5cb8	1.088767
27	0x3f7af178	0.980247
28	0x3f7a39cd	0.97744447
29	0x3f85fdc3	1.0468067
30	0x3f897cd2	1.0741217
31	0x3f799631	0.974948

l1.1.bias f4 [32]
0	0xbdaaafc6	-0.083343074
1	0x3b953414	0.0045533273
2	0xbc84ef8c	-0.016227506
3	0x3dba7be4	0.091056615
4	0xbc6f59d2	-0.014608817
5	0x3db82f6b	0.08993419
6	0xbc861f4c	-0.016372345
7	0xbde5277c	-0.11189172
8	0xbcd6c5af	-0.02621731
9	0x3d60f485	0.054920692
10	0x3d5a0102	0.053223617
11	0x3d4ec23b	0.0504782
12	0xbb9e7901	-0.004836202
13	0x3e2349a5	0.15946062
14	0xbd066225	-0.03280844
15	0x3d1b2072	0.03787274
16	0xbba6afff	-0.0050868983
17	0x3dc901ab	0.09814771
18	0x3e0e5f67	0.1390358
19	0xbc1b418f	-0.00947608
20	0xb9c3f87f	-0.00037378442
21	0x3d8eb8eb	0.06968864
22	0xbd93cb4c	-0.0721651
23	0xbbb5bb80	-0.0055460334
24	0xbd8c1939	-0.06840748
25	0x3dba1b0a	0.090871885
26	0x3d46735b	0.048449855
27	0xbdf0aaec	-0.11751351
28	0xbd12b38c	-0.03581576
29	0x3e535dce	0.20641252
30	0x3c7f5bdb	0.015585865
31	0x3d597e4a	0.053098954

l1.1.running_mean f4 [32]
0	0xbe98009c	-0.29687965
1	0xbf81752a	-1.0113881
2	0xbecc5a03	-0.39912423
3	0x3e55c4a4	0.20875794
4	0xbf71733e	-0.9431647
5	0x3e94132d	0.2892088
6	0x3ec037e6	0.37542647
7	0x3e53ad86	0.20671663
8	0xbf155711	-0.5833598
9	0x3f4785c3	0.7793848
10	0xbddae5d8	-0.106883705
11	0xbf18df99	-0.5971618
12	0x3f8f8978	1.1213827
13	0x3e224b4f	0.1584904
14	0xbf4a679d	-0.7906435
15	0x3cbc2f68	0.022971824
16	0xbe8f7efa	-0.28026563
17	0x3e0e11dc	0.13874
18	0xbdc33780	-0.0953207
19	0xbf2fa570	-0.6861181
20	0x3f5b5a04	0.8568423
21	0x3e41b5cb	0.18917005
22	0x3e5aaa2e	0.21353981
23	0x3e65b798	0.22433317
24	0xbebc1c8e	-0.36740535
25	0xbdd4b5d6	-0.10386245
26	0x3e8bc5d7	0.27299377
27	0x3fccc6c8	1.5998163
28	0x3e0c4c5a	0.13701001
29	0x3dde5539	0.10856099
30	0x3ee1483c	0.44000423
31	0x3e3bb064	0.18329006

l1.1.running_var f4 [32]
0	0x3cd83c77	0.02639602
1	0x3e701324	0.23444802
2	0x3d07e052	0.033172913
3	0x3c430f0d	0.011905444
4	0x3e3c133b	0.18366711
5	0x3d23379e	0.039847963
6	0x3d5bec86	0.053692363
7	0x3c5fbf0a	0.013656387
8	0x3d57bb1b	0.052668672
9	0x3e05e4bb	0.13075535
10	0x3c375602	0.011189939
11	0x3d8888fb	0.06666752
12	0x3e89d4cc	0.26920164
13	0x3cc042b0	0.0234693
14	0x3d17bc9d	0.03704511
15	0x3c2a186e	0.010381801
16	0x3d2bee27	0.041975167
17	0x3cceb47b	0.025232544
18	0x3c1bec8e	0.009516848
19	0x3e0fdb68	0.1404854
20	0x3e07dbc8	0.13267434
21	0x3cd9eb3c	0.026601426
22	0x3d817a0a	0.06322105
23	0x3ccb62a5	0.02482731
24	0x3d44e308	0.048068076
25	0x3c148e09	0.009067067
26	0x3d2d9e3e	0.04238724
27	0x3e851292	0.2599073
28	0x3d71170d	0.058859874
29	0x3c4f8244	0.012665335
30	0x3d2eb341	0.04265142
31	0x3c9eca9d	0.019383723

l2.0.weight f4 [32, 32, 3, 3]
0	0xbd50f484	-0.05101444
1	0xbd5144ac	-0.05109088
2	0xbd3c8603	-0.04602624
3	0xbcf3b66e	-0.029750075
4	0xbc0f76ed	-0.008756381
5	0x3b82fe7a	0.003997621
6	0xbcad2d4d	-0.021139765
7	0x3d04fd9d	0.032468427
8	0xbc9cbff4	-0.0191345
9	0xbc99e800	-0.018787384
10	0x3cb42560	0.021990478
11	0x3d58bad0	0.052912533
12	0x3d3f2e0f	0.046674784
13	0xbd67c4d1	-0.056584183
14	0xbd1e4556	-0.038640343
15	0x3c0bbd6c	0.008529048
16	0x3b542468	0.0032370333
17	0x3d59ca77	0.0531716
18	0x3cb02100	0.02150011
19	0xbd13b0d8	-0.036057323
20	0x3d6841d2	0.056703396
21	0x3bedd6e4	0.007258283
22	0x3d19ea3f	0.03757691
23	0xbb9baac9	-0.004750584
24	0x3cbb74d1	0.02288285
25	0xbd2a88e3	-0.04163445
26	0x3cb50966	0.022099208
27	0x3d37627f	0.044771668
28	0x3d345248	0.044023782
29	0xbd075fea	-0.033050455
30	0xbc29f6c7	-0.010373778
31	0x3db6a4b0	0.089181304
32	0xbcc67568	-0.024225906
33	0xbd4418b9	-0.04787514
34	0x3d22e802	0.03977204
35	0xbd1a344a	-0.037647523
36	0x3b872618	0.004124414
37	0x3bf51709	0.0074795526
38	0x3d760c35	0.060070235
39	0xbcfa91b3	-0.030587053
40	0xbcc16c36	-0.02361117
41	0x3d94fb50	0.072744966
42	0x3ba860f2	0.00513851
43	0xbd1721b7	-0.036897387
44	0x3d2aa182	0.041657932
45	0xbca48c52	-0.020086441
46	0xb722dfad	-9.708031e-06
47	0x3d5bd08f	0.053665694
48	0xbcca9bf6	-0.024732571
49	0xbd8355bc	-0.06412837
50	0x3baf3567	0.005346942
51	0xb9936981	-0.0002811663
52	0xbc4547e8	-0.01204107
53	0x3d7ec21f	0.062196847
54	0xbcd74078	-0.026275858
55	0xbcfc8a2d	-0.030827606
56	0xbd6dc00d	-0.058044482
57	0xbda69cd6	-0.08135383
58	0xbdcfe0d6	-0.10150306
59	0x3d3979dc	0.04528223
60	0xbd60079e	-0.054694764
61	0xbc5b2389	-0.013375171
62	0x3cc2ec74	0.02379439
63	0xbd3c2b81	-0.045939926
64	0x3d2d325d	0.04228436
65	0x36d74e5a	6.4166206e-06
66	0x3d351658	0.04421076
67	0x3d549f2c	0.05190961
68	0x3d04a3d6	0.03238281
69	0x3d291cf3	0.041287374
70	0x3d3a164a	0.045431413
71	0x3d0eb25a	0.034838058
72	0x3c57f227	0.013180292
73	0x3c438977	0.01193463
74	0x392236fb	0.00015470006
75	0x3bc19456	0.0059075756
76	0x3c6b24fb	0.014352079
77	0x3dc3dbeb	0.095634304
78	0x3d99c72b	0.075086914
79	0xbc1946f3	-0.0093552945
80	0x3c3793d1	0.011204676
81	0xbb881d31	-0.0041538705
82	0xbcd159d4	-0.025555529
83	0x3c98673a	0.01860391
84	0x3cc30db0	0.023810238
85	0x3c4a0f66	0.012332773
86	0x3cce68d5	0.025196472
87	0x3baafbba	0.0052179964
88	0xbcd8ae80	-0.026450396
89	0xbc25e29e	-0.0101248305
90	0xbdbc70e2	-0.09201218
91	0xbd2c5810	-0.04207617
92	0xbd39fe79	-0.0454087
93	0x3c8c80e1	0.017151298
94	0xbc606ea8	-0.0136982575
95	0xbc143f6f	-0.009048327
96	0xbd772b12	-0.06034381
97	0x3c34d2bb	0.01103657
98	0x3d0c8a54	0.034311607
99	0x3a2d23b0	0.0006604744
100	0x3d55d482	0.052204616
101	0x3ccc04e0	0.024904668
102	0xbc8921c3	-0.016739732
103	0x3d206818	0.03916177
104	0xbd11c71f	-0.035590287
105	0xbb9a7ffa	-0.004714963
106	0x3c7cffaf	0.015441819
107	0x3c8cad22	0.0171724
108	0xbc3a50bf	-0.01137179
109	0x3c35ba36	0.011091759
110	0x3cc4563e	0.023966905
111	0xbb07e687	-0.002073677
112	0xbc8b7d03	-0.017027384
113	0xbd5ea09d	-0.05435239
114	0xbce70060	-0.028198421
115	0xbd499ffa	-0.04922483
116	0xbbffbc17	-0.0078044045
117	0xbd7bf7cd	-0.061515618
118	0xbcf0ceb5	-0.02939544
119	0x3b4ca129	0.0031223989
120	0xbdc231dc	-0.09482166
121	0x3d0a6dd2	0.03379614
122	0xbd0ca442	-0.034336336
123	0xbdacc2ef	-0.08435618
124	0x3d07ccdb	0.03315435
125	0x3d28198f	0.04104
126	0xbd4ad36a	-0.049518026
127	0xbc0d1ff6	-0.008613577
128	0xbca1c31a	-0.019746352
129	0xbd9c9db5	-0.07647268
130	0x3c87585d	0.016521627
131	0x3cd9bfd3	0.026580727
132	0x3c4e656f	0.012597426
133	0xbd870a79	-0.065937944
134	0xbd0611ff	-0.032732006
135	0x3d668d8d	0.056287337
136	0xbca07299	-0.019585894
137	0x3d5d3427	0.054004814
138	0x3d13791a	0.036004163
139	0x3d02b2ac	0.031908676
140	0x3ca04736	0.019565206
141	0x3d5243b8	0.051334113
142	0x3c4557d9	0.01204487
143	0xbd57fe17	-0.052732553
144	0x3d5670d1	0.052353684
145	0xbd10d7d9	-0.0353621
146	0xbb354206	-0.0027657761
147	0xbd6566e9	-0.056006346
148	0xbd0c477c	-0.03424786
149	0x3cdbc9af	0.026829569
150	0x3c284184	0.010269526
151	0xbbb61846	-0.005557093
152	0xbd208c1e	-0.039196126
153	0xbdb2a75e	-0.08723329
154	0x3b9c521a	0.0047705295
155	0xbd89bbf5	-0.06725303
156	0x3d1c1af2	0.038111635
157	0xbc9d13ec	-0.019174539
158	0x3d917d66	0.07103996
159	0x3c743a65	0.0149065005
160	0xbcd8f12e	-0.026482191
161	0x3dadd56e	0.08487974
162	0xbc6f8e24	-0.014621291
163	0xbdb7e48b	-0.08979138
164	0xbda9fb7b	-0.08299919
165	0x3c495213	0.012287634
166	0x3cbefab4	0.023312904
167	0x3d027374	0.031848386
168	0x3a901791	0.0010993351
169	0x3da17f96	0.07885663
170	0x3db81dae	0.08990036
171	0x3c22d797	0.009939096
172	0xbd31c4de	-0.043400638
173	0x3d25b518	0.040455908
174	0xbceeb777	-0.029140217
175	0xbbe5bb55	-0.007010857
176	0xbd607426	-0.054798268
177	0x3ce5ea81	0.028065922
178	0xbd6cfb1b	-0.05785666
179	0x3cc00a26	0.02344234
180	0xbd082e82	-0.03324748
181	0xbd70405e	-0.058655135
182	0xbcd7bf57	-0.026336355
183	0x3d0680cc	0.032837674
184	0x3c7c15e6	0.01538608
185	0xbd752429	-0.059848938
186	0xbc082961	-0.008310647
187	0xbd399db6	-0.04531642
188	0xbd4ee6dc	-0.050513133
189	0xbd8d669f	-0.06904339
190	0xbd6056a9	-0.054770146
191	0x3c32fa95	0.010924001
192	0xbcd30da7	-0.025763346
193	0x3d0d9f83	0.03457595
194	0xbd0762c6	-0.033053182
195	0xbd2a464f	-0.041570958
196	0xbd4e8d8c	-0.05042796
197	0xbaad55a1	-0.0013224372
198	0x3c318343	0.010834518
199	0x3c7c8587	0.015412695
200	0x3bce6b38	0.0062994026
201	0xbd0f603a	-0.03500388
202	0xbb05408d	-0.0020332665
203	0x3b5c4d16	0.0033615283
204	0xbcb32954	-0.021870293
205	0x3d3c7e21	0.046018723
206	0x3d270b1b	0.040782075
207	0xbcc826bf	-0.024432538
208	0x3d063251	0.03276283
209	0xbdc89113	-0.09793296
210	0xbdb4169c	-0.08793375
211	0x3c94d13e	0.01816618
212	0x3be87346	0.00709382
213	0xbd374b6a	-0.044749655
214	0xbc1b39f9	-0.009474271
215	0xbccc32ee	-0.024926629
216	0xbd047214	-0.032335356
217	0xbd8eb04e	-0.06967221
218	0xbd60e727	-0.054907944
219	0xbc1b8d14	-0.009494085
220	0x3bf23729	0.0073918295
221	0xbd77e5e5	-0.06052198
222	0x3c67fdf2	0.014159666
223	0x3cb6c3d4	0.022310175
224	0xbcad2551	-0.021135958
225	0xbd2dec91	-0.042461935
226	0xbb8bd050	-0.004266776
227	0xbda858fa	-0.08220096
228	0xbda67c9f	-0.08129238
229	0x3d823221	0.063572176
230	0xbb9cbac5	-0.004783007
231	0xbd927f19	-0.07153148
232	0x3cf66e25	0.030081818
233	0x3c2ac2cf	0.010422423
234	0x3c41cef7	0.011829129
235	0xbc35c7be	-0.0110949855
236	0xbd1baaa3	-0.03800453
237	0xbc8fbb24	-0.01754529
238	0xbd807165	-0.06271628
239	0x3942f194	0.00018591277
240	0x3d99a5ea	0.07502349
241	0xbd734404	-0.059391037
242	0xbdca057d	-0.09864328
243	0x3c5d3695	0.013501783
244	0xbc2c83eb	-0.010529499
245	0xbce21be2	-0.027601186
246	0xbcb59553	-0.02216593
247	0x3d90bebe	0.07067631
248	0x3c64986b	0.013952355
249	0x3d75bc11	0.059993807
250	0x3d21e4d8	0.039524883
251	0x3cac69f7	0.021046622
252	0xbcc281a9	-0.023743467
253	0x3bd3adfa	0.0064599486
254	0xbd3af6bf	-0.04564547
255	0xbd15b645	-0.03655078

l2.0.bias f4 [32]
0	0xbce0f50e	-0.027460601
1	0x3d6f04ef	0.058354314
2	0x3d2af49a	0.041737176
3	0xbc1c0193	-0.00952186
4	0xbacd8846	-0.0015680871
5	0x3c99a073	0.018753266
6	0x3cbfb561	0.023401918
7	0xbd480f28	-0.04884258
8	0xbd668829	-0.056282196
9	0x3d3c33ee	0.04594796
10	0xbd1dc21a	-0.038515188
11	0xbcbe8ffe	-0.02326202
12	0x3d561499	0.052265737
13	0xbc718798	-0.014741801
14	0x3d569d5a	0.052396156
15	0xbc87b478	-0.016565546
16	0xbbfe926b	-0.007768919
17	0xbcffb593	-0.031214511
18	0x3d0e32ec	0.03471653
19	0x3d3e849a	0.046513177
20	0xbd34bbfd	-0.044124592
21	0xbc9f63da	-0.019456793
22	0xbc97b00a	-0.01851656
23	0x3cea956b	0.028635701
24	0xbd5d1c7a	-0.053982235
25	0x3d0035dd	0.031301368
26	0x3bf1fe8c	0.0073850807
27	0xbb90c4a9	-0.004417975
28	0x3d38e27b	0.045137864
29	0x3cc801e6	0.024414968
30	0xbcb4610d	-0.022018934
31	0xbc932904	-0.017963894

l2.1.weight f4 [32]
0	0x3f6ea44d	0.93219453
1	0x3f80deb3	1.0067962
2	0x3f80766b	1.0036138
3	0x3f756e54	0.9587147
4	0x3f83cb6d	1.0296456
5	0x3f71f03e	0.94507205
6	0x3f764ccb	0.96210927
7	0x3f7bb98a	0.98329985
8	0x3f7732cf	0.965619
9	0x3f69430f	0.9111795
10	0x3f7874bb	0.97053117
11	0x3f6b525f	0.91922563
12	0x3f8ef568	1.1168642
13	0x3f7c8657	0.98642486
14	0x3f7c767b	0.98618287
15	0x3f75f7af	0.9608106
16	0x3f7dfc58	0.9921317
17	0x3f809dce	1.0048158
18	0x3f784aae	0.9698895
19	0x3f7a8cb4	0.97870946
20	0x3f7abca4	0.9794409
21	0x3f8a4351	1.0801793
22	0x3f8131df	1.0093344
23	0x3f6dcbb4	0.9288895
24	0x3f7cc912	0.9874431
25	0x3f742a07	0.9537663
26	0x3f80eb27	1.0071763
27	0x3f73df0d	0.95262223
28	0x3f759ad0	0.9593935
29	0x3f5f23d8	0.8716407
30	0x3f8e2c9e	1.1107366
31	0x3f73ea03	0.9527895

l2.1.bias f4 [32]
0	0xbd11fe09	-0.035642657
1	0xbdee448b	-0.11634167
2	0xbd99dbaa	-0.07512601
3	0xbd4431f2	-0.047899194
4	0xbde804e5	-0.113290586
5	0xbd638771	-0.05554909
6	0xbc46c08d	-0.012130869
7	0x3d0cc686	0.034369014
8	0xba6367e2	-0.00086748425
9	0xbdab6c74	-0.08370295
10	0xbda36a85	-0.07979301
11	0xbdefdc90	-0.11711991
12	0xbe1c5bcc	-0.15269393
13	0xbd3e08b0	-0.046395004
14	0xbdbf1871	-0.09330834
15	0xbd82655f	-0.06366991
16	0xbe65697c	-0.2240352
17	0xbb422eaa	-0.0029629865
18	0xbe27049a	-0.16310349
19	0xbd2c3861	-0.042045955
20	0xbd7c0860	-0.061531425
21	0xbe16bba4	-0.14720017
22	0xbdf13cc0	-0.11779165
23	0xbdf4c962	-0.11952473
24	0xbe0706ff	-0.13186263
25	0xbd642d09	-0.05570701
26	0xbd82a8b9	-0.063798375
27	0xbe03ad2b	-0.12859027
28	0xbd4278dd	-0.047478545
29	0xbde8eff5	-0.11373893
30	0xbe4b33fb	-0.19844048
31	0xbdc59941	-0.096483715

l2.1.running_mean f4 [32]
0	0xbf0b85da	-0.54501116
1	0x3d985a47	0.07439094
2	0xbe21d891	-0.1580527
3	0x3eb9ef7b	0.36315522
4	0x3e3cfc30	0.18455577
5	0xbf2a7013	-0.6657726
6	0x3f6a7ac0	0.9159355
7	0x3f89dcc0	1.0770493
8	0xbf64896f	-0.8927221
9	0xbe4e6bf3	-0.20158367
10	0xbf9e096c	-1.2346625
11	0x3edce676	0.43144578
12	0x3dd9b5ee	0.106304035
13	0xbf6b06d7	-0.9180731
14	0x3d9ae9a4	0.07564095
15	0x3da2d0b0	0.0794996
16	0x3d80c93d	0.06288383
17	0xbc320067	-0.010864354
18	0x3e670e45	0.22564037
19	0xbea83f29	-0.32860687
20	0xbf2e1aa9	-0.6800943
21	0xbcd61f12	-0.026137862
22	0xbcfd0bcb	-0.030889412
23	0xbf14ba06	-0.5809635
24	0x3f5e8506	0.8692173
25	0xbe1c99a4	-0.15292984
26	0x3ce6b1ac	0.028160892
27	0x3dd21d27	0.102594666
28	0xbf34de58	-0.7065177
29	0x3cb954be	0.022623416
30	0xbdf17f34	-0.1179184
31	0x3f261f74	0.64891744

l2.1.running_var f4 [32]
0	0x3edebbce	0.4350266
1	0x3e992f0a	0.299187
2	0x3ea2d9a2	0.31806666
3	0x3fa0d902	1.2566226
4	0x3ec001e8	0.37501454
5	0x3fa19364	1.2623105
6	0x3ed8cdf1	0.4234462
7	0x3f72ad4b	0.94795674
8	0x3f826258	1.0186262
9	0x3e71566e	0.23568127
10	0x3f1ac9fb	0.6046445
11	0x3ebfa7a2	0.3743258
12	0x3e090973	0.13382511
13	0x3f0e0fb0	0.5549269
14	0x3e744596	0.2385467
15	0x3e1c70b1	0.15277363
16	0x3e2800f9	0.16406621
17	0x3ea4824b	0.32130656
18	0x3e71d0a8	0.23614752
19	0x3ed41541	0.41422465
20	0x3f38cd40	0.72188187
21	0x3dc9df85	0.09857086
22	0x3e4ec2f6	0.20191559
23	0x3f37ce1b	0.71798867
24	0x3ea530f5	0.32263914
25	0x3efaf195	0.49012437
26	0x3e990a02	0.29890448
27	0x3e7d2be5	0.24723776
28	0x3f439ed5	0.76414233
29	0x3e82caff	0.255455
30	0x3ddbee66	0.1073883
31	0x3e9c90e6	0.305793

l3.0.weight f4 [32, 32, 3, 3]
0	0x3ce68fd1	0.028144749
1	0x3d47d6c9	0.04878882
2	0x3cd1cd05	0.025610456
3	0xbc464542	-0.012101473
4	0x3ce5b387	0.028039707
5	0x3c022c16	0.007945081
6	0x3c94a642	0.018145684
7	0xbc5d86f7	-0.013520948
8	0x3caa30a3	0.020775145
9	0x3c541f67	0.01294694
10	0xbc925b8c	-0.017865919
11	0x3c535e2a	0.012900868
12	0xbca69337	-0.02033387
13	0xbbf7dae1	-0.007563934
14	0x3d2421cd	0.040071297
15	0x3c4faea7	0.012675918
16	0xbc643ba4	-0.013930235
17	0xbcc634d8	-0.02419512
18	0x3cf4edda	0.029898573
19	0x3cbacad6	0.022801798
20	0xbbffe792	-0.0078095878
21	0xbcd93900	-0.026516438
22	0xbd274637	-0.040838446
23	0xbd57e32b	-0.05270688
24	0x3c86fc01	0.016477587
25	0xbc0aa1f2	-0.008461462
26	0x3d290427	0.041263726
27	0x3ba9460e	0.005165822
28	0x3d474a1d	0.048654664
29	0xbc9fe422	-0.019517962
30	0x3cb4f77b	0.022090664
31	0x3d6499a8	0.0558106
32	0xbbada25e	-0.0052988967
33	0x3d453ab9	0.048151705
34	0x3c8e127c	0.017342798
35	0xbd530a1a	-0.051523305
36	0xbb81ffab	-0.0039672456
37	0x3cb231a7	0.021752192
38	0xbcb6c405	-0.022310266
39	0xbd737246	-0.05943515
40	0xbcdb935d	-0.026803667
41	0xbd884307	-0.066534095
42	0xbd887110	-0.0666219
43	0xbd9d2736	-0.076734945
44	0xbdec3b5d	-0.1153476
45	0x3d73da54	0.059534386
46	0xbc46d087	-0.012134678
47	0x3c931412	0.017953906
48	0xbcbb5198	-0.022866055
49	0xbc406886	-0.01174367
50	0x3d7deed1	0.06199533
51	0x3c884161	0.016632738
52	0x3d790649	0.06079701
53	0xbd43855d	-0.047734607
54	0xbcff3520	-0.031153262
55	0xbc6a793e	-0.014311133
56	0x3ce9db2b	0.02854689
57	0x3d775c49	0.060390744
58	0xbc57bd72	-0.013167726
59	0xbc36f179	-0.01116597
60	0x3c21e4f5	0.009881248
61	0x3d47093c	0.04859279
62	0x3d8b4e6d	0.06802068
63	0x3d3423d5	0.043979485
64	0x3d591e01	0.05300713
65	0x3dd90a32	0.10597648
66	0x3d053e4a	0.032530107
67	0x3a7e13ff	0.00096923107
68	0x3d8df0ee	0.06930719
69	0x3d06a5a1	0.0328728
70	0xbafe7fb7	-0.0019416724
71	0x3d410f89	0.047133956
72	0xbd902043	-0.070374034
73	0x3c156493	0.009118217
74	0xbc2a580f	-0.010396971
75	0x3c83e804	0.016101845
76	0x3c4c25c8	0.01246018
77	0x3cf995fa	0.030467022
78	0x3d0f8998	0.03504333
79	0x3c17fd31	0.009276674
80	0x3cd5090f	0.026005296
81	0xbd889d23	-0.066705965
82	0x3cda5254	0.026650585
83	0x3cf77993	0.030209338
84	0x3d0de587	0.034642722
85	0x3c00622a	0.007835904
86	0xbcb93fad	-0.02261337
87	0xbd1effec	-0.038818285
88	0x3cf1bf6e	0.029510226
89	0xbcccd734	-0.02500496
90	0x3d3881dd	0.045045722
91	0x3c78061b	0.015138174
92	0x3c456a11	0.012049214
93	0x3da3a9ea	0.07991393
94	0x3bc67e17	0.0060575115
95	0x3b6accf1	0.003582772
96	0x3d9da9dd	0.076984145
97	0x3d174483	0.036930572
98	0x3bfa1876	0.0076323105
99	0x3a8929aa	0.0010464687
100	0xbd6be215	-0.057588656
101	0x3d729f8c	0.059234187
102	0xbd2a02db	-0.04150663
103	0xbdda1e1f	-0.106502764
104	0x3b622fb2	0.0034513292
105	0xbd347ae6	-0.044062518
106	0xbd3367ec	-0.04380028
107	0xbcd8ac33	-0.026449298
108	0x3ca27f74	0.019836165
109	0x3d7931b3	0.060838412
110	0x3d80c17e	0.06286906
111	0x3d4586df	0.048224326
112	0x3a1eb822	0.00060546596
113	0xbcb1d333	-0.021707153
114	0x3d7db74e	0.06194239
115	0xbbcfb24a	-0.0063383924
116	0x3cc29850	0.023754269
117	0x3d43046b	0.047611635
118	0xbd009735	-0.031394202
119	0x3cb48732	0.022037122
120	0x3cfdbe79	0.030974614
121	0x3d5f59ef	0.054529127
122	0x3d46593e	0.04842495
123	0x3d2acb3f	0.041697737
124	0x3d38c35f	0.045108195
125	0x3d12494b	0.03571443
126	0xbd6dcbaf	-0.058055576
127	0x3be4e3aa	0.0069851475
128	0x3b174772	0.0023083356
129	0x3c3e2c5a	0.011607254
130	0x3c4daf64	0.012554023
131	0xbd0d9a47	-0.03457096
132	0xbd51201c	-0.051056013
133	0x3db469c8	0.08809239
134	0xbd21e405	-0.039524097
135	0x3ca877ad	0.020564878
136	0xbb534bc3	-0.0032241202
137	0x3cdb1c66	0.02674694
138	0xbd02c206	-0.031923316
139	0x3d54eb18	0.051982015
140	0x3bf65235	0.007517124
141	0x39b3f363	0.00034322878
142	0xbd764e89	-0.06013349
143	0xbc6152d7	-0.013752661
144	0xbd1c0df1	-0.038099233
145	0xbd44091b	-0.047860246
146	0xbd8c7ed7	-0.0686013
147	0x3c8aaac9	0.01692714
148	0x3a09d069	0.0005257191
149	0xbc2c9580	-0.01053369
150	0x3ce8af7f	0.028403996
151	0xbd643c07	-0.05572131
152	0xbd3be16c	-0.045869276
153	0x3bc47142	0.0059949467
154	0x3cf97223	0.030449932
155	0x3cdb4170	0.026764601
156	0xbda33977	-0.07969945
157	0xba51bde2	-0.0008001012
158	0xb941f49c	-0.00018497038
159	0x3bd42ea9	0.006475289
160	0xbc1b1afd	-0.009466884
161	0x3d49fadd	0.049311507
162	0xbceef896	-0.02917127
163	0xbc3a15d7	-0.011357746
164	0xbd3bcf7d	-0.045852173
165	0x3d42f3a9	0.047595654
166	0xbc3666a4	-0.01113287
167	0x3cfad16a	0.030617435
168	0xba6de30a	-0.0009074664
169	0x3d575e02	0.052579887
170	0xbd806072	-0.062683955
171	0x3d0d57e2	0.03450764
172	0xbd03fd2f	-0.032223877
173	0x3ba99636	0.0051753772
174	0xbd171f09	-0.03689483
175	0x3d5c1226	0.053728245
176	0x3d2c93ad	0.042133022
177	0xbd90b65f	-0.070660345
178	0xbd893ac8	-0.06700665
179	0xbd26d975	-0.040734727
180	0xbba359a2	-0.0049850503
181	0xbcba95a1	-0.022776427
182	0x3d0ab578	0.03386447
183	0x3c1cc8eb	0.009569387
184	0x3c9ceed3	0.019156849
185	0xbc057488	-0.008145459
186	0x3d0c6181	0.034272674
187	0x3db7578d	0.08952246
188	0x3d96bf11	0.07360662
189	0x3cee9b0e	0.02912667
190	0x3caea1b1	0.021317335
191	0xbcbaf1ae	-0.02282032
192	0x3d1dd5f8	0.038534135
193	0x3d21ff8b	0.039550345
194	0xbc14fc45	-0.009093349
195	0x3c1f86f8	0.009736769
196	0xbcfa753d	-0.030573482
197	0xbd107169	-0.035264406
198	0xbd19e363	-0.03757037
199	0x3b847380	0.004042089
200	0xbc7c40ae	-0.01539628
201	0xbb5b0722	-0.0033421
202	0x3b96ce66	0.0046022413
203	0x3cd649cc	0.026158236
204	0xbd0d0fcb	-0.03443889
205	0x3cf81795	0.030284682
206	0xbc9338aa	-0.017971355
207	0xbbc5157c	-0.006014524
208	0x3c6c83be	0.014435707
209	0x3cdd87db	0.02704232
210	0x3c5bdc55	0.0134192305
211	0xbc3977c7	-0.011320061
212	0x3d2df860	0.042473197
213	0xbbe7571e	-0.0070599457
214	0xbc1db7e4	-0.0096263625
215	0xbd3a67f5	-0.045509297
216	0xbcdf24b6	-0.027239185
217	0xbc819247	-0.01581682
218	0x3d857267	0.06515961
219	0xbd42d06e	-0.047562055
220	0xbc70164a	-0.014653752
221	0x3d838fb1	0.06423891
222	0x3d08e632	0.033422656
223	0xbb59441b	-0.0033152166
224	0xbc66df68	-0.01409135
225	0x3c4f7036	0.0126610305
226	0xbd23ba6d	-0.03997271
227	0x3d287315	0.041125376
228	0xbd200073	-0.03906293
229	0x3d0695e6	0.032857798
230	0xbd09f5c0	-0.03368163
231	0xba9f3544	-0.0012146612
232	0xbcbc6b40	-0.02300036
233	0xbcdae015	-0.026718179
234	0xbdc7ab81	-0.09749509
235	0xbc9752d1	-0.018472107
236	0xbdb0d7e5	-0.086349286
237	0xbd6c28bd	-0.05765604
238	0xbd8296b6	-0.06376402
239	0xbd0fe1d4	-0.035127476
240	0xbca16379	-0.019700753
241	0xbcb2cd09	-0.021826284
242	0xbdc4c0f5	-0.09607116
243	0x3d82029d	0.06348155
244	0x3d2c3fcf	0.04205304
245	0xbca9f75c	-0.020747833
246	0xbc878f5f	-0.016547857
247	0xbc120310	-0.008911863
248	0x3c8d754a	0.017267842
249	0xbd46615a	-0.048432685
250	0x3c9a65b2	0.01884732
251	0xbdc1338d	-0.09433661
252	0x3d13765a	0.03600154
253	0xbd8e7595	-0.06956021
254	0x3afd33d7	0.0019317818
255	0xbd739294	-0.05946596

l3.0.bias f4 [32]
0	0xbd0975f5	-0.03355976
1	0x3d37339d	0.044726957
2	0x3d0b985e	0.034080856
3	0xbc814d41	-0.015783908
4	0xbc1d43d0	-0.009598687
5	0x3ca7ec67	0.020498468
6	0xbce3728a	-0.027764577
7	0x3d3a65cc	0.045507237
8	0x3d3b93f8	0.04579541
9	0x3d3edae7	0.04659548
10	0x3ca5efdb	0.020255974
11	0x3caf1163	0.021370595
12	0xbccaba1c	-0.024746947
13	0xbd262f00	-0.040572166
14	0x3d3d94df	0.046284553
15	0xbd5e731e	-0.054309003
16	0xbcf753a8	-0.030191258
17	0xbc207de7	-0.009795642
18	0x3cdf1283	0.027230507
19	0x3d0274f9	0.031849835
20	0xbd77ff81	-0.060546402
21	0xbcb181b1	-0.021668287
22	0xbc47fdac	-0.012206476
23	0xbd5ab0e7	-0.053391363
24	0x3c6698c4	0.014074508
25	0xbca49eb7	-0.020095212
26	0x3a939dc2	0.0011262225
27	0x3c424462	0.011857124
28	0x3cd59689	0.026072757
29	0x3cc245e1	0.023714961
30	0xbba3e55c	-0.005001707
31	0x3d197620	0.03746617

l3.1.weight f4 [32]
0	0x3f7bc85e	0.9835261
1	0x3f77cfa7	0.9680123
2	0x3f796227	0.97415394
3	0x3f7f3151	0.99684626
4	0x3f79988d	0.974984
5	0x3f807cf9	1.0038139
6	0x3f7b17b4	0.98083043
7	0x3f7f0947	0.9962353
8	0x3f7d3a1e	0.98916805
9	0x3f8065c9	1.0031062
10	0x3f7cb5d0	0.98714924
11	0x3f7c8927	0.9864678
12	0x3f724f4b	0.9465224
13	0x3f75f4be	0.9607657
14	0x3f8100da	1.0078385
15	0x3f7d2b22	0.9889394
16	0x3f7a999d	0.97890645
17	0x3f813ec4	1.009728
18	0x3f7f3c7c	0.99701667
19	0x3f84e63f	1.0382766
20	0x3f85402d	1.041021
21	0x3f883c8f	1.0643481
22	0x3f81cb1d	1.014011
23	0x3f7de334	0.9917481
24	0x3f7c7669	0.9861818
25	0x3f82c969	1.0217716
26	0x3f834e34	1.0258241
27	0x3f74e12f	0.956561
28	0x3f7d27a3	0.98888606
29	0x3f8059d0	1.0027409
30	0x3f7d300d	0.98901445
31	0x3f7b502a	0.98169196

l3.1.bias f4 [32]
0	0xbe124f41	-0.14288045
1	0xbe0a4516	-0.13502917
2	0xbde01a14	-0.10942474
3	0xbdd734f7	-0.10508149
4	0xbe03fd75	-0.12889655
5	0xbdfa223c	-0.12213561
6	0xbe03cd71	-0.12871338
7	0xbdf6e619	-0.120556064
8	0xbe0cd672	-0.1375368
9	0xbdb4d162	-0.08828999
10	0xbdfeb649	-0.12437112
11	0xbded83e4	-0.11597422
12	0xbe0dab2f	-0.13834833
13	0xbe145f4e	-0.14489481
14	0xbe03042f	-0.12794565
15	0xbde197c3	-0.110152744
16	0xbde190ca	-0.110139444
17	0xbd987972	-0.07445039
18	0xbdfd6bd3	-0.123740815
19	0xbd85c5bd	-0.06531856
20	0xbdb265df	-0.087108366
21	0xbd1e7d41	-0.03869367
22	0xbdff7ce6	-0.12474994
23	0xbdc57fd3	-0.09643521
24	0xbe077909	-0.13229765
25	0xbdd7110b	-0.105012976
26	0xbdcddbf0	-0.100517154
27	0xbe277772	-0.16354159
28	0xbde2ff6f	-0.11083876
29	0xbe061fc3	-0.13098054
30	0xbdd71dd2	-0.10503735
31	0xbdffb031	-0.12484778

l3.1.running_mean f4 [32]
0	0x3e8848aa	0.26617938
1	0x3dcbd385	0.099524535
2	0xbea564a6	-0.3230335
3	0x3de24edc	0.110501975
4	0xbc7ae945	-0.015314405
5	0x3e4937a4	0.19650131
6	0xbe55faa7	-0.20896398
7	0x3f072439	0.52789646
8	0x3eb08f64	0.34484398
9	0x3f024146	0.5088085
10	0x3eeed463	0.46646413
11	0xbe8774a8	-0.2645619
12	0xbefe65d8	-0.49687076
13	0xbe827850	-0.25482416
14	0x3e9b9951	0.3039041
15	0x3ef74268	0.4829285
16	0xbd7485c6	-0.05969789
17	0x3ee77c81	0.45212176
18	0x3eea9650	0.45817804
19	0x3ef8b198	0.48572993
20	0x3ebdb4e3	0.37052068
21	0x3e9a6503	0.3015519
22	0x3edfc9b4	0.43708575
23	0x3e69d8e4	0.22836643
24	0x3eddc56e	0.4331469
25	0x3e61d117	0.22052418
26	0x3f0574bb	0.5213124
27	0x3da1250b	0.078683935
28	0x3f32473b	0.6963994
29	0xbe55cd1e	-0.20879027
30	0xbec73add	-0.38912097
31	0xbe5d41d9	-0.2160715

l3.1.running_var f4 [32]
0	0x3ebbcb93	0.36678752
1	0x3ecf0439	0.4043291
2	0x3e8950bd	0.2681941
3	0x3ea71fe7	0.32641527
4	0x3f2eb004	0.6823733
5	0x3ee37209	0.4442294
6	0x3f08255c	0.53182006
7	0x3eb56529	0.35428742
8	0x3e9949ce	0.2993912
9	0x3e63b80d	0.22238179
10	0x3e8bb68e	0.27287716
11	0x3e5b8afa	0.21439734
12	0x3ee5e0fc	0.44898212
13	0x3e8e60c0	0.2780819
14	0x3ebd1888	0.36932778
15	0x3e661865	0.22470243
16	0x3e865f44	0.26244557
17	0x3e69ca77	0.2283114
18	0x3e8be5a6	0.27323645
19	0x3e3da95f	0.18521641
20	0x3e6ffb1f	0.23435639
21	0x3e8fd572	0.28092533
22	0x3e62908a	0.2212545
23	0x3e906169	0.28199318
24	0x3e83d1b0	0.25745916
25	0x3e7f9d45	0.24962337
26	0x3ea11327	0.31459925
27	0x3f04e766	0.51915586
28	0x3e741d74	0.2383936
29	0x3ee79832	0.45233303
30	0x3ecb751f	0.39737794
31	0x3eb331da	0.3499897

l4.0.weight f4 [32, 32, 3, 3]
0	0x3d87baba	0.06627412
1	0xbd02a501	-0.03189564
2	0xbdc575b0	-0.09641588
3	0xbc033528	-0.008008279
4	0xbd387eaf	-0.04504269
5	0x3d014490	0.031559527
6	0x3d6f8f69	0.058486376
7	0xbc55b863	-0.0130444495
8	0xbd1ff9cd	-0.039056588
9	0x3cf238db	0.029568126
10	0x3bffb920	0.007804051
11	0xbd27e446	-0.040989183
12	0xba1ce970	-0.00059857126
13	0x3c9a3c78	0.018827662
14	0xbcea60fa	-0.028610695
15	0x3bd6bdd7	0.0065533924
16	0xbd655bfe	-0.055995934
17	0x3d32dd01	0.043667797
18	0xbbac471e	-0.0052575013
19	0x3c53b7b7	0.012922219
20	0x3d92c294	0.07166019
21	0xbd71ef45	-0.059066076
22	0xbc123edc	-0.00892612
23	0x3cb473ba	0.022027839
24	0x3d493688	0.04912427
25	0xbd654617	-0.055975046
26	0x3d3b3e2c	0.04571359
27	0x3d29f67e	0.04149484
28	0xbb342ef5	-0.002749381
29	0xbb9f86c4	-0.0048683602
30	0xbd4a2df2	-0.049360223
31	0x3cc1a48b	0.02363803
32	0xbd06ea9e	-0.032938592
33	0x3d02c202	0.0319233
34	0x3a473538	0.0007599178
35	0x3d072e92	0.033003397
36	0x3d47e781	0.048804764
37	0xbd15c476	-0.036564313
38	0xbd1d9570	-0.038472593
39	0x3cb38e56	0.021918457
40	0xbd3c4c4e	-0.045971207
41	0x3d197bd0	0.037471592
42	0xbc73fa26	-0.014891183
43	0xbcd6d7dd	-0.026225979
44	0x3bfbf8f5	0.00768959
45	0x3d0c6ef8	0.034285516
46	0xbcb1695d	-0.021656686
47	0xbd94cb8f	-0.07265388
48	0xbd989b23	-0.07451465
49	0x3d0ae4bb	0.03390954
50	0xbb7e6e07	-0.0038822906
51	0x3b801b5e	0.0039095124
52	0x3ceeff84	0.029174574
53	0xbd8ac892	-0.06776537
54	0xbd5f11b1	-0.05446023
55	0x3c89fe80	0.016844988
56	0x3d503b88	0.050838023
57	0x3d16e313	0.03683765
58	0x3d062850	0.03275329
59	0x3d06dc37	0.032924857
60	0xbd20f41b	-0.039295297
61	0x3ae900a6	0.0017776683
62	0xbcc39c0f	-0.023878125
63	0xbd18fe41	-0.03735185
64	0x3da2ce55	0.07949511
65	0x3b6a5f61	0.0035762417
66	0x3cc65de4	0.024214692
67	0xbd424abc	-0.047434554
68	0x39cc6bea	0.00038990314
69	0xbc264114	-0.010147352
70	0x3d2ce2d4	0.042208508
71	0xbbfedfca	-0.0077781426
72	0xbd71cbd0	-0.05903226
73	0x3d642e6f	0.055708345
74	0xbcea7902	-0.028622154
75	0x3c77fd43	0.015136066
76	0x3d24d89a	0.04024563
77	0xbcdcd6ca	-0.026957888
78	0xbd05e6cf	-0.03269082
79	0xbb8b3069	-0.0042477143
80	0x3d406dca	0.046979703
81	0x3d2651f1	0.04060549
82	0xbbbd9111	-0.0057851155
83	0xbddab663	-0.10679319
84	0x3ce59f8e	0.028030183
85	0x3d8741ae	0.06604324
86	0xbcb77631	-0.022395225
87	0xbd10f9ad	-0.03539436
88	0xbc89f764	-0.016841598
89	0xbd65bb34	-0.056086734
90	0xbd45706e	-0.048202924
91	0x3cdc59c3	0.02689827
92	0xbcb8d03f	-0.022560237
93	0x3d4f0a23	0.050546777
94	0x3d2b994f	0.041894253
95	0xbcdda125	-0.027054379
96	0x3d64b5ab	0.055837315
97	0xbce51514	-0.027964152
98	0x3c9ec161	0.01937932
99	0x3d36b009	0.044601474
100	0x3d65752d	0.05601995
101	0xbcb89c3a	-0.022535432
102	0x3c784926	0.015154159
103	0xbc5011d6	-0.012699565
104	0xbbd1171b	-0.006380928
105	0xbcad2fb0	-0.021140903
106	0x3d2a4e77	0.041578736
107	0xbd26ae3a	-0.0406935
108	0x3d12da85	0.035852928
109	0x3d84e4c2	0.064889446
110	0xbcaefa95	-0.021359721
111	0x3cbf38e1	0.023342552
112	0xbcb3b1ac	-0.021935306
113	0xbd1247f4	-0.03571315
114	0xbc9101af	-0.017700998
115	0xbbc90627	-0.0061347666
116	0xbb53ff1b	-0.00323481
117	0x3d8aedf4	0.06783667
118	0x3d2fac46	0.042888902
119	0xbccd1f95	-0.025039474
120	0xbd4d3fdf	-0.05010974
121	0x3ca98574	0.020693518
122	0xbc64fa1c	-0.013975646
123	0xbc90b79a	-0.017665673
124	0xbafdb37f	-0.0019355862
125	0x3b18299e	0.0023218165
126	0x3d3df1c0	0.04637313
127	0x3d2defa7	0.04246488
128	0xbd0993ac	-0.033588096
129	0xbd155b76	-0.036464177
130	0x3b5d3340	0.0033752471
131	0x3d6fbebb	0.058531504
132	0xbcfd0590	-0.030886441
133	0xbd3e18d7	-0.046410408
134	0x3cd06da7	0.025442911
135	0x3c338f29	0.010959425
136	0xbd96ca99	-0.07362861
137	0x3d20d1de	0.039262645
138	0x3c837a79	0.01604961
139	0xbdcc633b	-0.09979864
140	0xbc96db4c	-0.018415116
141	0x3d066923	0.03281511
142	0xbd57f4fe	-0.052723877
143	0x3cfdbb78	0.030973181
144	0x3c48e3d7	0.0122613525
145	0xbd204f15	-0.03913792
146	0xbd805446	-0.06266074
147	0xbd11645f	-0.035496112
148	0x3d4ef037	0.050522055
149	0x3bee4e25	0.007272499
150	0xbd317935	-0.043328483
151	0x3d87d278	0.066319406
152	0xbc2dd8d2	-0.010610776
153	0xbc28d375	-0.010304322
154	0xbdb52ebd	-0.08846805
155	0xbd56a942	-0.05240751
156	0x3d916eb2	0.071011916
157	0xbd9a877d	-0.075453736
158	0xbdaa9dab	-0.08330854
159	0xbc861cf6	-0.016371232
160	0x3d96d624	0.07365063
161	0x3d776af8	0.060404748
162	0xbc8e6a7a	-0.017384756
163	0x3d3c9485	0.046040077
164	0xbcc858fa	-0.02445649
165	0x3cbfd7ef	0.023418395
166	0xbd4b1dee	-0.04958909
167	0xbd1cfe78	-0.038328618
168	0x3d67f130	0.0566265
169	0xbc5c3397	-0.013440034
170	0x3da72e36	0.08163111
171	0x3db5b583	0.08872511
172	0xbde23830	-0.11045873
173	0xbd20ba7f	-0.039240357
174	0xbcb3aced	-0.021933043
175	0xbdeab6c2	-0.114606395
176	0xbdabe50e	-0.08393298
177	0x3d8aa169	0.06769068
178	0xba9338ca	-0.0011232134
179	0x3da293ce	0.07938348
180	0x3cad799f	0.021176158
181	0xbda13116	-0.078706905
182	0xbdc6c99a	-0.09706421
183	0x3b702286	0.0036641671
184	0x3d974bc6	0.073874995
185	0x38e905c8	0.000111113826
186	0x3d431ca0	0.04763472
187	0x3cbc4acd	0.022984887
188	0xbd829e13	-0.063778065
189	0x3cd28c02	0.025701527
190	0x3d9d7bee	0.07689653
191	0xbdceaab5	-0.100911535
192	0xbcfca907	-0.030842317
193	0x3c9f0652	0.019412193
194	0xbdf58cab	-0.11989721
195	0xbd1879df	-0.0372256
196	0x3dd5a7f3	0.104324244
197	0xbc62a920	-0.013834268
198	0xbcea64f0	-0.028612584
199	0xbc6d6da0	-0.014491469
200	0xbd81bfc7	-0.06335407
201	0xbbda02b5	-0.0066531547
202	0x3d3ddbb8	0.04635212
203	0xbbbfbf06	-0.005851629
204	0xbd677656	-0.05650934
205	0x3ce76cfa	0.028250206
206	0xbd2edfc7	-0.04269388
207	0xbd9fe600	-0.07807541
208	0x3c45323d	0.0120359035
209	0xbde96981	-0.113970764
210	0xbcf46fb0	-0.029838413
211	0xbc9bda93	-0.019025123
212	0xbb8dbdef	-0.0043256204
213	0x3d91734d	0.0710207
214	0x3d854cb3	0.0650877
215	0x3b9b506a	0.0047398107
216	0xbbba89e1	-0.005692706
217	0x3c5675d5	0.013089617
218	0x3b1f6122	0.002431937
219	0x3d5db814	0.05413063
220	0xbcc17901	-0.02361727
221	0x3d06f65d	0.032949794
222	0xbcd8c51e	-0.02646118
223	0x3d7357e0	0.059409976
224	0xbc8381d1	-0.016053112
225	0x3d46ecee	0.048565798
226	0x3c873049	0.016502516
227	0x3d7492ef	0.05971044
228	0x3cc0e664	0.023547359
229	0x3badc46d	0.005302957
230	0xbcd53d8a	-0.02603032
231	0xbc293fd6	-0.010330161
232	0xbc95152d	-0.018198574
233	0xbb4ef8a5	-0.003158131
234	0xbd084cef	-0.033276495
235	0xbc8b1ee9	-0.016982513
236	0x3c99c79b	0.018771937
237	0xbccc517b	-0.024941197
238	0xbdb1001c	-0.08642599
239	0x3d2367b2	0.039893813
240	0x3c0048fb	0.0078299
241	0xbd70a1e0	-0.058748126
242	0x3c5f9b89	0.013647922
243	0x3cac788b	0.021053573
244	0x3c231ada	0.009955132
245	0xbd988033	-0.07446327
246	0xbcb9fbe6	-0.022703122
247	0x3d0e1b4b	0.034693997
248	0xbd6f7642	-0.05846239
249	0xbc3f6768	-0.011682369
250	0x3b5a24b2	0.0033286032
251	0xbd4ce8b2	-0.050026603
252	0xbd9646aa	-0.07337697
253	0x3d03ebcf	0.032207306
254	0xbcdf1c50	-0.02723518
255	0x3b89c02c	0.004203817

l4.0.bias f4 [32]
0	0xbc5a1273	-0.013310063
1	0xbccde47c	-0.025133364
2	0xbcf8712e	-0.030327406
3	0x3cf03ed4	0.029326834
4	0x3d0967a1	0.033546094
5	0xbc027b5d	-0.007963982
6	0x3ce8c77a	0.02841543
7	0x3b8ac376	0.0042347265
8	0xbaa3cfa3	-0.0012497794
9	0x3d2ccea8	0.04218927
10	0xbc8d7f83	-0.017272716
11	0xbd69eaed	-0.05710881
12	0x3cef0b02	0.029180054
13	0xbccf7485	-0.025324116
14	0xbb76c114	-0.0037651705
15	0xbbd3e1fa	-0.0064661475
16	0x3cd8f9e1	0.026486339
17	0xbba676b3	-0.005080068
18	0xbd2e674b	-0.042578977
19	0x3c177adf	0.009245603
20	0xbd18fba0	-0.037349343
21	0xbca3823b	-0.01995956
22	0xbb84d0bb	-0.004053203
23	0xbd602cb1	-0.05473012
24	0x3cb71f7b	0.022353878
25	0xbd33f7bd	-0.043937434
26	0xbd603c30	-0.0547449
27	0x3cb081ca	0.021546263
28	0xbd3371f0	-0.04380983
29	0x3c6268d0	0.013818935
30	0xbd48e679	-0.04904792
31	0xbbbcedee	-0.005765668

l4.1.weight f4 [32]
0	0x3f816391	1.010851
1	0x3f8588a1	1.0432321
2	0x3f73435f	0.95024675
3	0x3f87b85c	1.0603137
4	0x3f81ac24	1.0130658
5	0x3f840098	1.0312681
6	0x3f7c650c	0.98591685
7	0x3f832e8a	1.0248578
8	0x3f803a0f	1.0017718
9	0x3f7bf179	0.98415333
10	0x3f7d690c	0.98988414
11	0x3f80ba0a	1.0056775
12	0x3f75686c	0.9586246
13	0x3f812397	1.0088986
14	0x3f7aa2f0	0.9790487
15	0x3f7c1daa	0.98482764
16	0x3f84ccc2	1.0374987
17	0x3f8224c2	1.0167468
18	0x3f801e96	1.0009334
19	0x3f84eab6	1.0384128
20	0x3f82467a	1.0177758
21	0x3f7d9b4f	0.9906511
22	0x3f7ade6b	0.9799563
23	0x3f826bd1	1.0189153
24	0x3f82d190	1.0220203
25	0x3f80b4de	1.0055196
26	0x3f802ef2	1.0014327
27	0x3f65e6bd	0.89805204
28	0x3f85d134	1.0454469
29	0x3f699adf	0.9125194
30	0x3f8163f6	1.0108631
31	0x3f6b1df9	0.9184261

l4.1.bias f4 [32]
0	0x399e9c59	0.00030252596
1	0x3cb8d096	0.022560399
2	0x3bf975e7	0.007612932
3	0x3dcf0f42	0.10110332
4	0x3d94c8a2	0.0726483
5	0x3e0a9f1b	0.13537256
6	0xbdcaa794	-0.09895244
7	0xbd0ffeef	-0.035155233
8	0x3e0476e5	0.1293598
9	0xbd456308	-0.048190147
10	0xbda50aaa	-0.08058675
11	0x3bcf8515	0.0063330033
12	0xbcee1373	-0.029062008
13	0x3d0536dd	0.032523025
14	0xbd5ca52f	-0.05386847
15	0x3cdea943	0.02718032
16	0xbddee77b	-0.10883995
17	0x3d62a037	0.055328574
18	0xbda720e6	-0.08160572
19	0x3ceeb9f5	0.029141406
20	0xbd6a52db	-0.057207923
21	0xbbc4a323	-0.0060008927
22	0xbc13cb1a	-0.009020591
23	0xbd89cc67	-0.0672844
24	0xbd203310	-0.039111197
25	0xbd1a3606	-0.037649177
26	0xbda74d99	-0.081690975
27	0xbd25a25a	-0.040438034
28	0xbd4f924c	-0.05067663
29	0xbda01244	-0.07815984
30	0xbda8e385	-0.08246521
31	0xbc9ae5e3	-0.018908447

l4.1.running_mean f4 [32]
0	0xbea22762	-0.31670672
1	0xbf410db9	-0.75411564
2	0xbd4530bb	-0.048142176
3	0xbea78fcc	-0.32726896
4	0xbe28f43c	-0.16499418
5	0xbe926055	-0.2858912
6	0xbf19b0ea	-0.60035574
7	0xbf71d6e2	-0.9446851
8	0xbe9dd598	-0.30827022
9	0xbf8a2060	-1.079113
10	0xbfcbddec	-1.59271
11	0xbec3f8c6	-0.38275737
12	0x3d5a8759	0.053351734
13	0xbf658893	-0.8966152
14	0xbd5c56e4	-0.053793803
15	0xbf907575	-1.1285845
16	0xbffae2cc	-1.9600463
17	0xbe8b6c7a	-0.272312
18	0xbf685696	-0.9075712
19	0xbf5c49d3	-0.86050147
20	0xbde0e77e	-0.10981654
21	0xbf335363	-0.70049113
22	0xbfb5c0e8	-1.4199495
23	0xbf87b7ae	-1.060293
24	0xbf9dea0b	-1.2337049
25	0xbf4aba19	-0.7919021
26	0xbf6b4b2e	-0.9191159
27	0xbeec1bb1	-0.46114877
28	0xbf8313cc	-1.0240417
29	0x3e9ff14d	0.31238785
30	0xbf89626d	-1.0733162
31	0xbd9e813f	-0.077394955

l4.1.running_var f4 [32]
0	0x3fa1b04a	1.2631924
1	0x404de5f3	3.21716
2	0x3fef6559	1.8702804
3	0x3efbd922	0.49189097
4	0x3f29af89	0.6628347
5	0x3ee39ed0	0.44457102
6	0x40dd1f18	6.9100456
7	0x4084a94f	4.1456676
8	0x3f15d99e	0.5853518
9	0x3fb04868	1.3772097
10	0x41114d8b	9.081431
11	0x4018d1f4	2.3878145
12	0x3f2a3e11	0.66500956
13	0x40be809f	5.953201
14	0x409c5b4f	4.886146
15	0x40cb485e	6.352584
16	0x417ded9c	15.87051
17	0x3f27c979	0.655418
18	0x40dbd8f8	6.8702354
19	0x402cdcdb	2.70098
20	0x40702b6f	3.752651
21	0x3fc99cc8	1.5750971
22	0x405c97fe	3.4467769
23	0x40a98d22	5.298478
24	0x410cf628	8.810097
25	0x4063493b	3.5513446
26	0x40ff75dc	7.983137
27	0x3ecad837	0.39618084
28	0x410f79cc	8.967236
29	0x40148b11	2.320988
30	0x40a03199	5.0060544
31	0x40203abc	2.5035849
