models/labweight-weak_000049.pth (torch_old, 173832 bytes, 32 tensors)

l1.0.weight f4 [32, 12, 3, 3]
00000000: 2350 bd3d 46b9 893b 2afc 023d b4de 023d
00000010: 8a0a d4bd 6df4 343d 0758 45bd 6d9e 813c
00000020: e34b 9dbc 31d1 0b3d bb21 953d bf55 503d
00000030: 6db6 c33c d81d 4dbd e229 b8bc 20cd 17bd
00000040: 8f0c b7bc 2155 16bd fddc e33d 4a7e 883d
00000050: dace 103c 3d38 a4bd 52a9 f9bc cfaf 55bd
00000060: c7c9 74bd 060c a8bc cad7 053d 8161 9c3d
00000070: f3c4 87bd df58 b03d 5b88 3dba 1680 893d
00000080: f015 133d b343 e3bd 24be eebd d80d 9abd
00000090: e046 be3d 6b7a 9cbc e37e 0e3d 6d4c 6bbd
000000a0: 894b 943d 301b 85bd 5004 803d d1af 65bc
000000b0: 2c97 90bd 3d66 ab3d c7dd 1abd b0fa 253d
000000c0: 5005 7fbc 0b23 97bc 24ab dabd db23 00bc
000000d0: 501e 8b3d b4e8 a3bc 5134 d03d f4f2 a63d
000000e0: c954 ba3c b40e ddbd 43a8 e43b 0be9 35bc
000000f0: 7c43 d4bd 97fa 103c 5498 9f3b 16ea f33d
00000100: c1c1 7dbc 93c5 ee3c 657e d3bc fad8 88bb
00000110: 760e b1bd 8a01 bbbd fc23 ce3c d65c 3fbd
00000120: 804d 873d 0d35 b73c f3cd 453d 86bd 33bc
00000130: 41e1 9cbb fbf6 27ba 7fb9 ebbd 9d40 743c
00000140: 66bd c5bd e1b5 74bd dbfd a23c 6794 a5bb
00000150: 4a10 763d 7f9e 38bd f04d a0bd 71b7 9c3d
00000160: 69a4 cbbb f90e 693d de37 1f3d 9325 70bd
00000170: 5036 173d 39d4 de3c afb3 5fbd 2868 10bd
00000180: 4c29 2e3d 7003 043d 0516 d7bc c97a 2bbd
00000190: d450 753d 1f30 adbc f3e1 483d 9eea 0a3d
000001a0: 01df 54bd be8f a8bd 1a59 ad3d 217c 473c
000001b0: 3f07 883d 2858 103d 79fc 463c 7a2c bc3d
000001c0: 982e ec3d 3c7e 92bd 9d77 023d d134 bb3d
000001d0: 5f9b 703d c21b d13d 2be8 3bbc 391b 63bd
000001e0: 1cce 173c bc5a a63d c5f6 fd3d 3099 66bb
000001f0: fa69 e33d 317d efbc f86f a1bd abb5 953c
00000200: 03b4 533d a069 ea3d 8974 94bc 9a72 d03c
00000210: 8c0e b73d c59f aa3d fa2f 423d af04 b43d
00000220: 9e08 e93d a6fe 213d 37e9 b3bc 1186 5fbc
00000230: abda 74bc b031 b03c 05a7 2bbc 0fa8 383d
00000240: 35f3 a5bb b18e 42bd c5cc 85b8 3aee b339
00000250: 5ada e13c 7a90 a13c bb84 7ebd 40ec 7c3d
00000260: c37e 6cbd fb99 14bc 3d06 8bbd e8ac 76bd
00000270: 1513 39bd c897 44bc 15a6 8c3d 20de d8bc
00000280: db0f 5dbd 270e 003d 81b5 b93d a983 283e
00000290: c6c5 293c 92f5 c43d 5c6c 853d e7a6 213d
000002a0: 178b ccbc 610e e63c a33a 1a3c 730f 643d
000002b0: 0a96 743d b4bb be3c e3a4 023e 11d1 193e
000002c0: e4b0 a53d 498c a83c 80a7 03bd ad89 9f3d
000002d0: f9d9 59bc c01e 423d e77e 39bd 95bb 0bbd
000002e0: 4e19 fdbc 8854 f13d b83e e9bd 0498 92bd
000002f0: 4604 203c d79d 61bd 4963 1f3d f7e9 fdbc
00000300: 09aa 84bd ccb5 41bc ee19 793d c53f abbd
00000310: 48d7 d53c 4eb9 463d 42d7 c43d b1bc 4abd
00000320: 1a4e 503d a363 abbd 3fbe a43d 2b64 b0bc
00000330: 74dd 273d d310 95bb dfe6 893b 3fd5 3ebd
00000340: 45d7 45bc 229b 983c 284a 98bb b62c 1f3d
00000350: 5f7e a5bd 2f00 4a3d 4a71 ba3d 00d7 a23d
00000360: 2965 a53d 0467 93bd d9a8 aabc fe7a aa3d
00000370: 5a7f b2bd 1e0e c03d 9ae4 aebd 2295 afbd
00000380: d143 533d ed0e 90bd f22e 1abd 1a10 9f3d
00000390: 64c3 683d 608b 713d e59d c5bc 42e5 d5bd
000003a0: 992a 703d 64ae e9bc d8b6 97bc e303 1c3d
000003b0: a9c8 f9bc 5bc2 8e3d 2da3 7c3d bb97 46bd
000003c0: bd36 adbd 7d8e 6dbc 0c14 813d 9c70 d03c
000003d0: 77d3 b9bc 7364 5a3d 8028 aabd 6813 6fbd
000003e0: 54e6 b9bc 9bbe 933d 1a65 ac3d 07fb 08bb
000003f0: 7edb 863c 0619 a13d 4799 a13d a97a 76bd
0.092438005 0.0042029945 0.031978764 0.031950668 -0.10353573 0.044178415 -0.048179653 0.015822614
-0.019201225 0.034135047 0.07281824 0.050863024 0.023890698 -0.05007729 -0.022480909 -0.037060857
-0.022344856 -0.03670228 0.111261345 0.06664713 0.00883838 -0.08018539 -0.030476246 -0.052169617
-0.059762742 -0.020513546 0.032676496 0.07635785 -0.06629362 0.08610701 -0.00072300964 0.067138836
0.035909593 -0.11096897 -0.1165736 -0.07522172 0.09290862 -0.019101342 0.034788977 -0.057445932
0.0724097 -0.06499326 0.062508225 -0.014018969 -0.07060084 0.0836911 -0.03780916 0.040522277
-0.015565231 -0.018449327 -0.10677174 -0.007821049 0.06792891 -0.020008422 0.101662286 0.081518084
0.022745507 -0.1079382 0.006978066 -0.011102925 -0.10364434 0.008848808 0.004870454 0.11909883
-0.015488089 0.029146945 -0.025817106 -0.0041762562 -0.08645336 -0.09131153 0.025163643 -0.046719395
0.06606579 0.022364164 0.04829211 -0.010970479 -0.0047875945 -0.00064073474 -0.1150999 0.014907983
-0.096552655 -0.059743766 0.019896438 -0.0050530913 0.06007413 -0.04507303 -0.078273654 0.07652176
-0.0062146676 0.056899045 0.03887164 -0.058629584 0.03691703 0.027200805 -0.05461472 -0.03525558
0.042519853 0.03222984 -0.026255617 -0.041865144 0.059891537 -0.02114111 0.049043607 0.033915155
-0.051970486 -0.08230542 0.084642604 0.012175591 0.06642007 0.035240322 0.012145155 0.09188171
0.115323246 -0.071529835 0.031852353 0.09140933 0.058741923 0.102103725 -0.011468927 -0.055445883
0.009265449 0.08122775 0.12400583 -0.0035186522 0.11104198 -0.0292345 -0.078826845 0.018275103
0.051685344 0.114459276 -0.018121975 0.025445271 0.089383215 0.08331255 0.047409035 0.08789956
0.11378597 0.039549492 -0.021961791 -0.013642804 -0.014944713 0.021508068 -0.010476832 0.04508215
-0.005064393 -0.047499362 -6.3800755e-05 0.00034319033 0.027569938 0.019722212 -0.0621383 0.061748743
-0.057738077 -0.009069915 -0.06788299 -0.06022349 -0.045184214 -0.011999078 0.06867615 -0.026473105
-0.0539702 0.031263497 0.09067822 0.16456474 0.010362094 0.09617151 0.065148085 0.03946581
-0.024968667 0.028083028 0.009413394 0.055678796 0.0597134 0.023282863 0.12758212 0.15021159
0.0809038 0.020574706 -0.032142162 0.077899314 -0.013296598 0.047392607 -0.04528704 -0.03411444
-0.030895855 0.11783701 -0.11388916 -0.07157901 0.009766644 -0.05508217 0.038913045 -0.030995352
-0.06477744 -0.011823129 0.060815744 -0.083617724 0.02610363 0.048516564 0.0961137 -0.049496356
0.050855733 -0.083686136 0.08044099 -0.021532139 0.04098268 -0.0045491247 0.00420843 -0.046590086
-0.01207525 0.01862866 -0.004647512 0.038861 -0.08080744 0.04931658 0.091036394 0.07951164
0.080759354 -0.07197383 -0.020832466 0.0832424 -0.08715697 0.09377693 -0.08539696 -0.08573367
0.051578347 -0.07034097 -0.037642427 0.07766743 0.056826964 0.05897081 -0.024123142 -0.10444118
0.058634374 -0.028525539 -0.018519804 0.038089644 -0.03049119 0.06970664 0.061679054 -0.048484545
-0.08457706 -0.014499304 0.06302652 0.025444321 -0.022683842 0.053318452 -0.08308506 -0.058368117
-0.022692837 0.072140895 0.08417721 -0.0020901577 0.016462084 0.07866101 0.078905635 -0.06017557

l1.0.bias f4 [32]
00000000: 9186 463c 702d 81bd 915b eebd c701 293d
00000010: bfb5 02bc 2f8a 193d 5b52 a3bb 668c 2f3d
00000020: ad8a 9fbd cd71 56bd 8b5c bbbd 7732 afbd
00000030: ee96 9e3d d246 28bd 24a3 32bd 0180 00bd
00000040: 1e91 afbc 309c b3bc 0586 bfbd 849a 573d
00000050: 835a 29bc f6c0 80bd 9f22 1b3c 5e29 bebb
00000060: 8ece 9ebc 2efe a8bd ca5e eabd f569 c13c
00000070: 98ec babd f10c 8e3d 402e a0bd 9632 28bc
0.012117044 -0.06307495 -0.11638559 0.04126146 -0.007977902 0.037485298 -0.004984183 0.042858504
-0.07790122 -0.052354623 -0.091485105 -0.08554547 0.07743631 -0.041083165 -0.043612614 -0.031372074
-0.021431502 -0.021925062 -0.09351734 0.052637592 -0.010336521 -0.062868044 0.0094687035 -0.005803271
-0.019385602 -0.08251606 -0.11443861 0.023610095 -0.09127158 0.06936062 -0.078213215 -0.010265967

l1.1.weight f4 [32]
00000000: 003c 743f d42f 703f 957d 6a3f 139d 823f
00000010: 90d5 603f bbb9 8c3f 7b61 823f 54c4 873f
00000020: 827b 5c3f 82de 8c3f 7539 8c3f a3dc 6f3f
00000030: 268c 7e3f bc3f 853f 191d 723f 95d6 833f
00000040: fbd3 803f a89a 853f 9651 7f3f 4bb0 723f
00000050: b0c8 843f 8b1c 873f bc56 793f c35a 723f
00000060: b7bc 7a3f 5dde 833f 43be 8a3f e35c 873f
00000070: df92 713f 0ddd 7f3f 2de9 823f 8233 7d3f
0.9540405 0.9382298 0.9159787 1.0204185 0.8782587 1.099418 1.0185999 1.060679
0.8612596 1.1005404 1.0955034 0.9369604 0.994326 1.0410075 0.9457565 1.029986
1.0064691 1.0437822 0.99733865 0.9480025 1.0373745 1.0555586 0.9739797 0.9466974
0.97944206 1.0302235 1.0839313 1.0575222 0.9436473 0.9994667 1.022741 0.9890672

l1.1.bias f4 [32]
00000000: 3d55 fdbc 1517 573d 6e5e ccbc 1e96 5f3d
00000010: dbd0 5ebd 6d95 063e 867e 26bc 5faf 08be
00000020: 6a35 12bd c5c2 853d 30bb b73d 1f20 9a3d
00000030: 8f90 ae3c bdb1 0d3e bec6 cbbc e38a 5b3d
00000040: 3b2d d23c 9ae3 253d 56ca 113e 21f7 2c3d
00000050: e8ea 4d3d 0ec4 223d 36c1 76bd 0ca5 50bd
00000060: fd7b 8fbd f13d b43d 6e15 e83c ef7b acbb
00000070: 1e54 19bd 470c 413e 5aa7 1b3c a0ce 403d
-0.030924434 0.052512247 -0.024947371 0.054586522 -0.0543984 0.13142939 -0.0101620015 -0.13348149
-0.03569547 0.0653129 0.0897125 0.07525658 0.021309165 0.13837333 -0.024875041 0.05359925
0.025656333 0.04050026 0.14237341 0.042227868 0.050272852 0.039737754 -0.060242854 -0.05093865
-0.07006071 0.08800877 0.028330531 -0.0052637975 -0.037433736 0.1885234 0.009500349 0.047072053

l1.1.running_mean f4 [32]
00000000: 8fed 283e 56c0 9bbf d3b9 9cbe 0463 b23d
00000010: 95cc 84be 165a 683e ab8a 423f 3501 243e
00000020: afea c3be 94b2 283f 4a4e 253e 5439 13bf
00000030: 5c8e 9c3f 9e7c 1b3e ed2e 5fbf 32ba 3e3e
00000040: ba9c e0bc 4686 543e 905b fb39 6ac2 b7be
00000050: 05eb 633f 9580 933e c0a7 e13d d6c7 493f
00000060: f1ad f6be 0727 0abe d5b2 a23e a2c5 503f
00000070: a395 1bbe ccc9 0c3e f504 a33e 4cfd 9b3e
0.16496871 -1.2168071 -0.30610523 0.08710292 -0.25937334 0.22690615 0.7599284 0.16016085
-0.38264987 0.6589749 0.16143146 -0.5750935 1.2230945 0.15184256 -0.8718098 0.18625715
-0.027418483 0.20754346 0.0004794267 -0.35890514 0.89030486 0.28809038 0.11018324 0.7882055
-0.48179582 -0.1349145 0.31777063 0.81551564 -0.151938 0.13748854 0.3183972 0.30466688

l1.1.running_var f4 [32]
00000000: aa25 b13c 94bd 913e 9162 e13c 0ce0 2e3c
00000010: 7633 1d3d 7619 113d 51aa dd3d ae11 4f3c
00000020: c28c e83c 2ca7 ad3d 0ac9 a93c 46e7 793d
00000030: 3f2a 8f3e d73c be3c 2456 373d edc3 a13c
00000040: 01a0 a83c 5e93 f53c a49f 983c ea59 843d
00000050: 8f82 163e 784a 1b3d 5e14 163d 0af3 b03d
00000060: 7c9c 4e3d 05b4 0b3c 9e20 193d 17f1 9a3d
00000070: c4cd 3a3d 1c4c 4f3c 285a 053d 137c ee3c
0.021624405 0.2846495 0.02751282 0.010673534 0.038379155 0.035424672 0.10823501 0.0126384925
0.028387431 0.08479151 0.020725746 0.061011575 0.2796192 0.02322237 0.044759884 0.019746745
0.020584108 0.029977497 0.01863081 0.06462462 0.14698242 0.037912816 0.036640517 0.08640106
0.050442204 0.008526807 0.03738462 0.075655155 0.04560639 0.012652423 0.032556683 0.029111898

l2.0.weight f4 [32, 32, 3, 3]
00000000: 077c ca3b e827 0f3c fc52 033c 2e72 10bd
00000010: 5d15 bebc 0359 89bc 6c6a a43c 7734 553d
00000020: c16e 063a 35bf 6aba 8135 ee3c 31f3 573d
00000030: 0c73 573d 0648 7cbd 77fa 53bd 84ff 203a
00000040: 6a14 82bc a724 d33c ee9f 363d cda3 f8bc
00000050: 2d74 3f3d 6ae5 cb3a 0810 953c 9858 f8bc
00000060: 69e5 f83c 69eb 31bd 3afd 7f3c 53df ca3d
00000070: ba6a 2a3d a876 3cbd 0be0 583d ab13 c83d
00000080: 52a4 6fbb a1c2 d2bd 2dac 47bd 0455 a6bd
00000090: 6221 093c f537 013c ed7c 563d 482e 53bd
000000a0: f38e 41bd f08b 2b3d fd8b acbc 828b 8fbd
000000b0: 93ba 8c3b 9aef 9abd 3320 1cbd 4104 5d3b
000000c0: 11ed 35bd ded4 89bd 0d71 2dbc ada1 05bb
000000d0: 74ad f0bb 124b 133d 67b3 96bc 28f8 183c
000000e0: cc1c 47bd d818 81bd b297 7dbd 6c06 4f3d
000000f0: 5c67 92bc 9685 3a3d d0a0 3c3d 9c9f 6ebd
00000100: 8300 713c 4ba9 0bbd 5fc6 b83b 8086 193b
00000110: 33b6 0ebd 51b0 1b3d a1cd 803c 7288 eaba
00000120: 4780 cf3c f61e 2f3c 2dd3 95bc 50b1 d33b
00000130: cef4 3c3b e758 963d 30fa 893d 77f6 03bd
00000140: 6798 a7bc d331 33bd d011 95bd cb41 ffbb
00000150: 2bcf 9b3c 8812 613c 90fa 323d 3dc5 b5bb
00000160: aa77 cdbc 0cf8 253c db6b 4cbd 95f6 bdbc
00000170: 62bc 18bd 3ba3 483d 622c 863c 1df0 d0bb
00000180: 56d0 0f3c 3b68 953d 703b 9d3d 8af9 583c
00000190: 64e6 5c3d 20b3 d63c 25a1 6dbc 1859 f33c
000001a0: 89ee 39bd 66eb 96bc 483c 48bc 82ce 08bc
000001b0: be74 73bd 1486 0dbd 13ab 27bc 8e7c 33bd
000001c0: 054e 6cbd 00e1 adbd ad59 71bd 145b a3bd
000001d0: 0b65 c0bc 6d9d f1bd 5aff 9abd d543 ecbc
000001e0: d4b4 05be 5e2f d1bb 4b7b 1abd 3958 8dbd
000001f0: 0cf6 ff3c 0c7a 3e3d c882 79bb db3d fc3c
00000200: 8f0a 0f3c 8588 55bd e470 073d bc44 053d
00000210: f448 593d 15cf debc 1d1a acbb 51c5 623d
00000220: 494c d9bc ba6f db3c 153b 1f3c b87c bc3b
00000230: bbb3 eebc 86f0 c8ba 3ebc c9bc 7ecd b8bd
00000240: a24f 823d a34c 13bc 155e d73c 2839 0abd
00000250: 81e6 983a ec7d 943d 7244 b3bb 03c5 723b
00000260: cd25 9dbc 123c 03bd 95c7 733d 1905 ebbc
00000270: 3239 883d 135b 263c 7f57 a43d a3ca 0f3c
00000280: c372 c2bc 5987 9b3d 5a77 19bc cbb4 c3bd
00000290: d216 bbbd 4b63 e33c 04b7 eb3c 2f9a 0f3d
000002a0: 9b5a b1bb 4384 4e3d 4135 573d 89d9 4c3c
000002b0: 0a58 28bd daef 1b3d dad5 d7bc 2611 c4bb
000002c0: 4edb 70bd ba5f 993c 168c 82bd d1fb fc3b
000002d0: 9e3b b9bd af23 cfbd d869 72bd 354d 183d
000002e0: 475d 073d 04ed 10bd 898e 353d 2544 803c
000002f0: 5c4f a93b 6d26 9bbd 29ab f6bc 6af2 613d
00000300: d6ce dbbc 7af1 733d 1cf4 413c 8b7c 3fbc
00000310: b4ab 14bc f4c6 633d 405a e2bb 3661 0cbd
00000320: c1d6 87bd 43a8 1dbd e1e5 0fbd 5248 69bd
00000330: f448 4abc 9758 0b3d 46e4 7f3c d68d 023c
00000340: 93a2 a83c 71b6 a6bd e62a 9abd 5f26 0fbc
00000350: 79aa 033c ef25 27bd 0a83 ebbc 8057 cbbc
00000360: 548f 98bb 5601 e8bc 4fa2 45bc 8dc2 6e3c
00000370: 6e27 213d ef3a edbc c4ad 633c 8710 0a3d
00000380: 52fe 8ebc a8dd 163d 1861 033d 00ed 5bbd
00000390: c380 b6bb 08b0 a23d cf38 753c a13c 05bc
000003a0: 3248 d83c 04f1 f5bb d34f 3abd 8046 cebc
000003b0: 9d1a 84bc 3212 92bd 1a6f a9bd df44 3b3d
000003c0: 267c 0a3c 4253 abbd a5bf 94bd 4e40 57bd
000003d0: 4ebd 80bd 1a00 88bd a87a 84bd 2a64 043d
000003e0: ba38 87bc 7c54 4c3d 79b8 eb3c aa70 7c3c
000003f0: 6d76 22bd 7f9a dc3c 7e98 dabc 93a9 24bd
0.006179336 0.008737542 0.0080153905 -0.03526514 -0.023203546 -0.016766077 0.020070277 0.052051987
0.0005128198 -0.00089548837 0.029078247 0.05272216 0.05259995 -0.061592124 -0.051752534 0.00061415904
-0.015878875 0.025774313 0.044586115 -0.030351544 0.046741653 0.0015556042 0.01819612 -0.030315682
0.030382829 -0.043437395 0.015624339 0.09905877 0.04160569 -0.046011597 0.05294804 0.09769376
-0.0036566448 -0.10291029 -0.048748184 -0.08121684 0.0083697755 0.007886876 0.052365232 -0.05155781
-0.047255468 0.0418815 -0.021062845 -0.07009031 0.0042947023 -0.075652316 -0.038116645 0.003372446
-0.044415537 -0.06730054 -0.010586035 -0.0020390556 -0.007344896 0.035960265 -0.018396093 0.009336509
-0.048611447 -0.06303567 -0.061912246 0.050543234 -0.017871551 0.045537554 0.0460518 -0.058257684
0.014709595 -0.034096997 0.005638882 0.0023426116 -0.034841727 0.038009945 0.015723052 -0.0017893447
0.025329722 0.010688534 -0.018289173 0.0064603463 0.0028832438 0.073411755 0.067371726 -0.03221747
-0.020458413 -0.043748688 -0.07278788 -0.0077898256 0.019019684 0.013737328 0.043695986 -0.0055471943
-0.025081474 0.01012994 -0.049907546 -0.023188869 -0.03728903 0.048983794 0.016378585 -0.00637628
0.0087776985 0.07295271 0.076773524 0.0132430885 0.053930655 0.02620846 -0.014503752 0.02970557
-0.0453935 -0.018422794 -0.012221403 -0.008350017 -0.059437506 -0.034551695 -0.010233658 -0.043819956
-0.057691593 -0.08490181 -0.058923412 -0.07976356 -0.023485681 -0.11797605 -0.07568236 -0.028840939
-0.13057262 -0.0063838204 -0.037715238 -0.06901593 0.031245254 0.04650311 -0.0038072336 0.030791214
0.008730545 -0.05213215 0.033066645 0.032536253 0.05304809 -0.027198354 -0.0052521364 0.055363957
-0.026525633 0.026786674 0.009718676 0.0057521723 -0.029138437 -0.0015330471 -0.024625894 -0.090235695
0.06362845 -0.00899044 0.026289979 -0.033745915 0.0011665375 0.0725058 -0.005470806 0.0037043698
-0.019183064 -0.03203971 0.059516508 -0.028688954 0.06651534 0.01015355 0.08024501 0.00877634
-0.023736363 0.07594175 -0.009366835 -0.09555968 -0.09135212 0.027757308 0.028773792 0.03505915
-0.0054124123 0.050419103 0.05254102 0.012503036 -0.041099586 0.038070537 -0.02634709 -0.0059834896
-0.058802895 0.018722404 -0.063743755 0.0077204485 -0.09044574 -0.10114228 -0.05918297 0.037183005
0.03304794 -0.035382286 0.044325385 0.015657494 0.005166931 -0.075756885 -0.030110912 0.055162825
-0.026832025 0.059556462 0.011837985 -0.011687408 -0.00907414 0.05560966 -0.0069077313 -0.034272395
-0.06632758 -0.038490545 -0.03513134 -0.056953736 -0.012346495 0.034020033 0.0156183895 0.007968387
0.020585334 -0.08140267 -0.075277135 -0.008737176 0.008036249 -0.04080766 -0.028749008 -0.024821997
-0.004655758 -0.02832095 -0.012062623 0.014572752 0.039344244 -0.028958766 0.013896409 0.033707168
-0.017455254 0.03683248 0.032075018 -0.053692818 -0.005569549 0.079437315 0.0149671575 -0.008132131
0.026401613 -0.007505538 -0.045486283 -0.025180101 -0.016125971 -0.07132377 -0.08273144 0.045719977
0.008452451 -0.083654895 -0.07263116 -0.05255156 -0.06286107 -0.06640644 -0.06468707 0.032322086
-0.016506542 0.049885258 0.028774487 0.015407721 -0.03966372 0.026929138 -0.026684042 -0.04020078

l2.0.bias f4 [32]
00000000: afb2 d5bc 1323 643d dbd3 313d 0e16 46bc
00000010: a090 1a3b 365f 9f3c 0990 cc3c 4654 4bbd
00000020: 10e9 79bd f70a 3d3d d084 32bd 3941 8abc
00000030: b019 5b3d cedc 72bc 61d9 603d 2dc4 51bc
00000040: 6279 43bb 2fb0 e7bc 33bc d93c ece4 4f3d
00000050: 815e 33bd 5340 8dbc cfe8 82bc 253d e03c
00000060: 328e 61bd a811 0b3d 97bf 993b 5161 e6bb
00000070: 0c3c 473d b330 ca3c 67e3 02bd f0f3 93bc
-0.02608618 0.055697512 0.04341493 -0.012090219 0.0023584738 0.01945458 0.024971025 -0.049640916
-0.06101328 0.046153035 -0.04358369 -0.016876804 0.053491294 -0.014823152 0.05489481 -0.01280312
-0.0029826988 -0.028282253 0.026578998 0.050755426 -0.043791298 -0.017242586 -0.015980152 0.027372906
-0.05506725 0.033952385 0.0046920287 -0.007030644 0.04864125 0.024681425 -0.03195515 -0.018060654

l2.1.weight f4 [32]
00000000: f79e 7b3f 959e 793f db82 8b3f f564 783f
00000010: 9a64 823f 3118 733f 23f3 753f 921d 743f
00000020: 0e8c 7a3f 63c1 793f 4362 823f 8f94 7a3f
00000030: 129b 813f 67ee 793f 696a 7c3f 2b3a 823f
00000040: b9db 833f 73d8 863f 9807 8a3f 006b 773f
00000050: 256c 703f 5d71 823f 19e9 793f b806 763f
00000060: f308 803f 57dc 7a3f 5ed9 6e3f 3044 843f
00000070: a058 723f 891b 753f 5a9e 8b3f 635c 6f3f
0.98289436 0.975076 1.0899309 0.9702905 1.0186951 0.9495879 0.9607412 0.9535762
0.97869956 0.9756071 1.0186237 0.9788293 1.0125449 0.976294 0.9859987 1.0174001
1.0301429 1.0534805 1.0783567 0.96647644 0.93915015 1.0190846 0.97621304 0.96104
1.0002731 0.9799246 0.93300426 1.0333309 0.9466648 0.9574514 1.09077 0.93500346

l2.1.bias f4 [32]
00000000: a791 f7bc 43c3 22bd b596 1cbe 73b7 05bc
00000010: 0c54 b0bc bfeb 7ebd 0e18 b2bc 03a5 2dbc
00000020: 3146 ffbb 710b 2739 ff39 12be f21e 3bbd
00000030: b0e8 34bd e490 09bd 76d8 9dbd 61ec b4bd
00000040: 9c7d e2bd 6193 ffbb 58df b4bb 5858 14bd
00000050: 0432 9abd 11e8 0cbd f4d2 32bd c815 d1bc
00000060: d8b5 d6bd ce69 a6bd 0bff 9dbc 0bd7 a4bb
00000070: 4a6d c1bd 3eec cfbd c09c 2dbe 8938 56bd
-0.03022082 -0.039736997 -0.15291865 -0.0081614135 -0.021524452 -0.062236544 -0.021739986 -0.010598424
-0.00779035 0.00015930623 -0.14279936 -0.04568381 -0.04416722 -0.033585444 -0.07707302 -0.08834148
-0.11059114 -0.0077995514 -0.0055197887 -0.036217064 -0.07529071 -0.034401003 -0.04365821 -0.025523081
-0.10483903 -0.081256494 -0.019286653 -0.005030518 -0.09444673 -0.101524815 -0.16954327 -0.05230001

l2.1.running_mean f4 [32]
00000000: 1cec 37bf 0fdd 37bf 5911 303c cca5 bbbe
00000010: c2ff b53e 37f9 953c d9f5 06bf 5c5a 733f
00000020: 1c94 8fbd d6ed ce3d 586c a6bd 380a b8be
00000030: 05a2 093d f983 11bf b152 38bd f78f 5d3e
00000040: 55c1 f23d 12b3 a23c e2fa 053e 2842 80be
00000050: aa73 803d 0100 e4bc b15d 593e 1314 e9be
00000060: 38e7 813f 70cd 243f 4a52 4fbe adbe 1e3e
00000070: f2a6 013e 355f e2bd ab7d b1bc c4aa 203f
-0.7184465 -0.71821684 0.0107463235 -0.3664993 0.3554669 0.018307311 -0.52718884 0.9505975
-0.070106715 0.10103957 -0.08126134 -0.35945296 0.03360178 -0.56842 -0.045000736 0.2163695
0.118532814 0.019860778 0.13083985 -0.25050473 0.06272061 -0.027832033 0.21227147 -0.45523128
1.0148687 0.6437597 -0.20246235 0.15502425 0.12661341 -0.110533156 -0.021666368 0.6276057

l2.1.running_var f4 [32]
00000000: 0bd0 0f3f 8d59 253f d06f f63d 80d0 2f3f
00000010: 4eea d23e 25e8 843e 3207 e03e c8c1 d93e
00000020: ec28 f93d 95e7 da3e 9433 483e 5293 8c3e
00000030: c0dc 333e 27a0 643f f9ad 5e3e e65d a23e
00000040: 2b1b 703e a5f7 573e 1405 fa3d daab 3b3f
00000050: 7059 1e3f 364c 013e cd6d 8d3e 3e53 573e
00000060: 53b5 9f3e bcda a03e 8363 893e 9425 223e
00000070: f0c0 363f 23cd a03d de79 f33d 92bc d93e
0.56176823 0.6458977 0.12033045 0.6867752 0.41194385 0.25958362 0.4375549 0.42530656
0.12166008 0.42754808 0.19550925 0.27456146 0.17564678 0.89306873 0.21746053 0.31712264
0.23447864 0.21090563 0.12208 0.733091 0.6185522 0.12626728 0.27622834 0.21027848
0.31193027 0.3141688 0.26833734 0.15834647 0.7138815 0.07851627 0.11888479 0.4252668

l3.0.weight f4 [32, 32, 3, 3]
00000000: 04ab d2bc 638c 6abb e6b9 28bc 5a95 5abd
00000010: 49d0 f3bb 7da0 32bc 97de e8bb d4d4 0ebd
00000020: 39f4 893c 2d15 a13c c46d 6ebd 9053 a1bc
00000030: 8841 bdbc 11b9 09bd 16c8 d23c b116 df3c
00000040: 74fd a2bc c8dc c1bc 400b 223d c838 69bb
00000050: 2a67 1cbd 26d9 b1bc 4a18 3cbd c6c5 49bd
00000060: 2b6e eebb 7585 aabc ff59 563d 1f32 993c
00000070: 158d 333d 45b3 eebc 97b3 093d b31c 483d
00000080: e5ae 8ebc fd48 823d 5d2c 6f3c 6c24 81bd
00000090: 84a2 8ebd bbd2 463d 7caa a03c dc48 15be
000000a0: 731d 45bd 3c23 85bd 8970 17be 45f9 e1bd
000000b0: 2f72 d2bd ef17 063c c7bc 83bd fdc7 97bc
000000c0: bdef 52bd cd4e 4bbd 00d0 203d fb42 d93a
000000d0: b1ed 203d 0261 4abd ad0a 55bd ae9b 09bd
000000e0: e4f9 283b 44f5 5d3d fb97 8fbc e43f c6bc
000000f0: 5923 293c a4f0 373d 5f1a 553d 0ce5 0c3c
00000100: 3abf f43b 318a 433d e6cc 2a3b 9510 33bd
00000110: 076d 293c fbae 31bb 2b7f 5dbd b7aa 80bc
00000120: d678 a5bd 0ceb 413a 2767 bdbb 7da4 933c
00000130: 30fd 2d3c f0b0 333d 0045 853d fb8c 3a3d
00000140: d4a8 8f3d e0ee 0dbd 405a 703d 69f1 9e3d
00000150: 8938 853d 773b 263d afdd bf3c 45ee d2bc
00000160: bb5e 513d 150e 023c 25fa 05bc 1476 3d3c
00000170: 6264 3b3d fb8d b33b 23de a4bc 6803 063d
00000180: bc64 79bc 75f0 123c b856 1f3d d618 afbc
00000190: 8c96 8cbd 28d2 b73c dae5 8a3c 334a 50bd
000001a0: 6913 983c 8a7c ddbb 47d1 82bc c2ac 0fbd
000001b0: 0b9c 2ebd f8f5 093d fdb1 2e3d 7e77 4c3c
000001c0: a9ad 3dbc 251e f7bc 9a4e 683d e44a 993c
000001d0: ad23 843d 0d4a 033d e206 44bd 048a 853a
000001e0: 0516 553c e05c 083d 2c7e b33c 607b e23c
000001f0: bfb3 c53c 80f9 c53b 7a86 80bd c922 6cbc
00000200: 6b61 973c 4a6e 673c 9b8b 26bc 81bd b4bc
00000210: bfda 5abd f3e4 813d 9813 dabc f1d8 5cbd
00000220: db6b 73bd 04a8 353b 9da3 dbbd 27fb b0ba
00000230: d620 59bc 76cc 99bd 8e7d d8bd 5dc4 04bd
00000240: e07b 55bd 47f0 35bd 778c 38bd 13f5 1dbd
00000250: 352c 75bb 8c09 d33c dd85 19bd f17c 54bd
00000260: 5a4e 643b 26fb 59bd d488 53bd a3bf 2fbd
00000270: de73 debd e0c7 38bd a77f 13bd 222a 413c
00000280: 3c47 66bc df4e 5f3d ecad a7bc dbd0 983b
00000290: 26c8 e5bb 48c9 523d 6bcb adbc e96e 2d3d
000002a0: 3b71 633c 63b2 593d e38e 10bd 1b9e 843d
000002b0: 6adc 4bbc 9011 a53c b546 61bc 0014 873d
000002c0: 3ff6 4e3d ef37 44bd d90f 62bd 47e2 e9bc
000002d0: ed43 15bc 411f e7bc cfbd df3c ee43 033c
000002e0: c538 503c 2848 83bc d782 903c e1a0 853d
000002f0: 0e7f 3f3d 2d16 2b3d 853b 453d d130 243c
00000300: 54f7 223d d606 473d 044a 34bc 9a9f 183d
00000310: 0c0d a93b 8aa1 0cbc 8039 bcbd 0a9c 91bb
00000320: 8bfb 1c3b f04e 8cbd 36d7 01bd 6806 d03c
00000330: e340 99bd 250c af3c 4187 a8bb 3112 68bd
00000340: fcd3 b63b 4f93 303b fa13 01bd dcac 69bc
00000350: 81ec ec3c d63d d2bc 62ac 173c 56ff 2abd
00000360: 751f 53bc f901 babb 78f1 b53d 3318 97bd
00000370: 7822 36bd 14cf 1f3d d82a bbbb 2aec 2dbd
00000380: 86b3 54bd 549a 833d bb7f 083c 6adb ed3d
00000390: d8a2 c4bc 54e3 873d 9f50 b13c aed8 603c
000003a0: fbca 103c ac3b e43c 25f4 75bc f0e8 653d
000003b0: de4e 383c c318 31bd 99d6 50bd ec55 d8ba
000003c0: 1d46 3fbc 6b0b 67bc 7b16 aabd d401 8c3c
000003d0: 9233 bebc 3e8b 75bc 2e6c 62bd 262d 22bd
000003e0: aec2 873d 5c8b adbd 3995 8a3a fb7a 0bbd
000003f0: 1de2 2a3d 0a47 74bd 0614 06bb 8724 56bd
-0.025716312 -0.0035789243 -0.010298228 -0.05336509 -0.007440601 -0.010902521 -0.007106613 -0.034870937
0.016840087 0.019663418 -0.05821015 -0.019693166 -0.023102537 -0.03362376 0.025730174 0.0272325
-0.019896246 -0.023664847 0.03956151 -0.0035586823 -0.038184322 -0.02170999 -0.0459216 -0.049260877
-0.0072763166 -0.02081559 0.05233192 0.018700657 0.04383572 -0.029138217 0.033618536 0.048855495
-0.01741738 0.06361578 0.014597979 -0.06305775 -0.06964591 0.048540812 0.019612543 -0.14578575
-0.048123788 -0.06500861 -0.14789023 -0.110338725 -0.10275685 0.008184417 -0.06432491 -0.018527979
-0.051498163 -0.049635697 0.039260864 0.0016575748 0.03928918 -0.04940892 -0.052012134 -0.033595733
0.0025783712 0.05418898 -0.017528525 -0.024200387 0.010323369 0.044907227 0.052027103 0.008599531
0.007469085 0.04773921 0.002606207 -0.043716986 0.010340936 -0.0027112353 -0.054076355 -0.015706403
-0.08079688 0.00073973904 -0.005780119 0.01802277 0.010619447 0.043869913 0.06507301 0.045544606
0.07014623 -0.034651637 0.05867982 0.07760889 0.06504924 0.040584054 0.023421137 -0.025748381
0.051115733 0.007937928 -0.008177315 0.011563797 0.04575003 0.005479572 -0.020125454 0.032718092
-0.015221771 0.008968462 0.03890106 -0.021374147 -0.06864652 0.022439077 0.016955305 -0.050852012
0.018563943 -0.006759231 -0.015968932 -0.035076864 -0.042629283 0.03368184 0.04265021 0.012479661
-0.011577048 -0.030165741 0.056715585 0.018712468 0.06452117 0.032053042 -0.047858126 0.0010188227
0.013005738 0.033291698 0.02191075 0.02764672 0.024133561 0.0060417056 -0.06275649 -0.01441259
0.01847907 0.014125416 -0.0101651205 -0.022063019 -0.05343127 0.06342497 -0.026620671 -0.05391783
-0.05942903 0.0027718553 -0.10724566 -0.0013502584 -0.013252458 -0.07509701 -0.10570823 -0.03241383
-0.05212009 -0.0444186 -0.045055833 -0.0385638 -0.0037410383 0.025761388 -0.037481178 -0.051876966
0.003483674 -0.05321803 -0.05164416 -0.04290737 -0.10861944 -0.04511249 -0.03601041 0.01178983
-0.01405507 0.054518577 -0.020468675 0.0046635694 -0.007012385 0.051461488 -0.021215161 0.0423421
0.013881977 0.05314864 -0.035292517 0.06475469 -0.0124426875 0.020149976 -0.013749768 0.065956116
0.050527807 -0.047904905 -0.055190895 -0.02855028 -0.009110433 -0.028213145 0.027312187 0.008011801
0.012708847 -0.016025618 0.017640514 0.06524826 0.04675203 0.041769195 0.048152465 0.010021404
0.03978665 0.048590504 -0.011003975 0.037261583 0.005159026 -0.008583436 -0.09190655 -0.00444365
0.0023953642 -0.06850994 -0.03169938 0.02539368 -0.07483079 0.021368096 -0.0051430766 -0.056657974
0.0055794697 0.0026943272 -0.03151319 -0.014262404 0.028921368 -0.025664251 0.009257408 -0.041747414
-0.012885918 -0.0056765047 0.08883947 -0.073776625 -0.044466466 0.039015844 -0.0057118945 -0.04246155
-0.05192902 0.0642592 0.008331235 0.116141155 -0.024003431 0.06635156 0.021644888 0.013723535
0.008837457 0.027860485 -0.015011822 0.05613035 0.011249272 -0.043236505 -0.050985906 -0.0016505099
-0.011674431 -0.014101843 -0.08305069 0.017090715 -0.02321795 -0.014986811 -0.05527895 -0.03959384
0.06628929 -0.08473846 0.0010573036 -0.03405283 0.041719545 -0.05963806 -0.0020458712 -0.05228093

l3.0.bias f4 [32]
00000000: fb62 00bd 7afd 413d d927 083d 1f1b 63bc
00000010: 5b70 1dbc 0b8f b03c 7513 f2bc 6e3d 3c3d
00000020: 0b32 403d 4f46 463d 3840 bd3c 5393 a83c
00000030: 2b46 d4bc 30a4 27bd b4c6 4a3d bdb3 4ebd
00000040: 3ab8 f7bc b17a 39bc 68c7 d83c f952 f53c
00000050: 0010 73bd acd2 c4bc 8496 4bbc 13e6 5ebd
00000060: 32ed 6e3c a9eb 91bc 41fe c5b7 c34f 573c
00000070: 041f c13c 8c6e c13c 4f28 babb bbc5 203d
-0.031344395 0.047360875 0.033241127 -0.013861447 -0.009609307 0.021552583 -0.029550293 0.04595702
0.046922725 0.048406895 0.023101911 0.020578062 -0.025912365 -0.040928066 0.049505904 -0.05046438
-0.030239213 -0.011320756 0.026462272 0.029946791 -0.05934143 -0.024026237 -0.012426022 -0.054418635
0.014582919 -0.017812567 -2.3602626e-05 0.013141575 0.02357436 0.023612283 -0.0056810747 0.03925107

l3.1.weight f4 [32]
00000000: 12a1 833f b945 803f 7b2d 7d3f 60c9 7f3f
00000010: dcb7 773f 2377 843f 6205 833f 1c2f 803f
00000020: 1191 7e3f 954c 7f3f 59ff 6e3f de0b 723f
00000030: 6181 723f a6b1 733f fab9 803f 3015 783f
00000040: fdd7 783f 7572 803f 2604 7e3f 196f 833f
00000050: 5a2f 823f 5f44 833f eb9b 803f 2aa6 843f
00000060: e4a7 833f c741 7c3f f9f9 823f 4e7e 743f
00000070: 7a26 803f e755 7c3f 5804 823f 35af 733f
1.028353 1.0021278 0.9889752 0.9991665 0.9676492 1.0348858 1.0236018 1.0014377
0.99440104 0.9972623 0.9335838 0.9454936 0.94728667 0.95192945 1.0056756 0.9690733
0.9720457 1.003493 0.9922508 1.0268279 1.01707 1.025524 1.0047582 1.0363209
1.0285611 0.9853787 1.0232536 0.95505226 1.0011742 0.98568577 1.0157576 0.9518922

l3.1.bias f4 [32]
00000000: 029f f6bc 36b5 b6bd f46a b8bd 515e c0bd
00000010: 1f39 ccbd cba9 acbd 879e 17be c24d b8bd
00000020: 77ff 02be 8357 26be ff6b 09be 8628 14be
00000030: d830 c1bd 864f 3bbe 376e eabd 3d1e 22be
00000040: 031f 07be ce6d 0fbe 3705 20be 663e 4bbe
00000050: 4cb7 2dbe f865 40be 319c 03be f90f f3bd
00000060: bc79 e4bd c3c6 c3bd d4a5 29be 6603 27be
00000070: 39a9 22be aada b7bd 4ff2 92bd daf4 1bbe
-0.030105118 -0.08921282 -0.09004775 -0.093929894 -0.099718325 -0.08430823 -0.14806567 -0.08999206
-0.12792765 -0.1624432 -0.13420103 -0.14468583 -0.09433144 -0.18292055 -0.11446803 -0.15831847
-0.13195424 -0.14006731 -0.1562699 -0.19848022 -0.16964453 -0.18788898 -0.12852551 -0.11868281
-0.111560315 -0.09559395 -0.16567165 -0.1630989 -0.15884866 -0.08977254 -0.07175123 -0.15230122

l3.1.running_mean f4 [32]
00000000: 738e dfbe 8c63 243e 2ab3 b8be 35d5 0a3e
00000010: f087 07be d2d4 f43e 6368 cd3e 12ad 693e
00000020: a63d 1b3e 3531 833e 2792 aa3e 29a8 663e
00000030: 9f0d 0abe 7af0 663f a4b0 a33c 401c a23e
00000040: c911 523e 6384 b33e 823f c63e 06e3 003e
00000050: 4351 483e c545 b23c 5400 61be 1685 e73d
00000060: 1ad5 673e b60e b33d a4fc bc3e 48e8 db3e
00000070: ea69 003f 4691 20bf 01b4 ffbd be89 19bc
-0.43663368 0.16053599 -0.3607419 0.13557895 -0.1323545 0.4781862 0.40118703 0.22819927
0.15160236 0.2562348 0.3331463 0.22525086 -0.13481759 0.9021069 0.01998169 0.31662178
0.20514597 0.3506194 0.38720328 0.12586603 0.19562249 0.021761784 -0.21972781 0.11304681
0.22639886 0.0874304 0.369115 0.42950654 0.5016161 -0.6272167 -0.12485505 -0.009371219

l3.1.running_var f4 [32]
00000000: f174 bc3e 069a 2d3e e001 793e d19a 3a3e
00000010: 9407 9c3e be8a 853e 2d55 803e 587a 933e
00000020: afd5 4d3e 6fc1 453e 384b af3e baa9 493e
00000030: b8b9 be3e 85a2 553e 6cd2 7a3e 3a62 8d3e
00000040: 65ef 883e baad 363e 68b5 163e 7833 773e
00000050: 24d0 953e a201 663e 4c82 a63e 6e07 5f3e
00000060: 50f6 573e ed59 4c3e 4df1 d03e f4ea 343e
00000070: 6967 ae3e b15c 183f 60ee 8a3e 6bec a83e
0.3680797 0.16953287 0.24317122 0.1822312 0.30474532 0.26082414 0.25064984 0.28804278
0.20101045 0.1931207 0.34237075 0.19693652 0.37251067 0.20862778 0.24494332 0.27614003
0.26745144 0.17839709 0.14717638 0.24140728 0.2926036 0.2246156 0.32521284 0.21780178
0.21090055 0.19956179 0.40809098 0.17667753 0.3406327 0.59516436 0.2713499 0.32992873

l4.0.weight f4 [32, 32, 3, 3]
00000000: f473 0b3d 685f 2dbd b50a 68bd ee07 93bc
00000010: 0338 53bd 8bf0 3b3d fb5c 483d 4d4c 70bc
00000020: de7d f5bc dd8b 9c3c 9ee1 993b 82f5 6dbc
00000030: 5229 4abc 1e63 a23c 6184 603c 7b2e d03b
00000040: 5ac6 1dbd 3557 df3d 6b1a f3bc d480 3a3c
00000050: 0aed 873d b9a4 90bd a18a a83b 3af3 133d
00000060: 73f7 213d cbf3 1cbd 1137 893d 9a80 cb3c
00000070: e2f0 6bbd 02b8 d9bd 88dd acbc 3d3c 603c
00000080: 90e4 c8bd 2976 033e 4d97 693d eee9 cd3c
00000090: 3f8e 493d d1ce 11bd c18e 0fbd 59ca f43c
000000a0: cc8e 19bd cb31 3a3d 9f52 d9bb 3311 6ebc
000000b0: e4bf 9a3c 3b69 1f3d 922d 12bc 7444 1bbd
000000c0: cc25 87bd 1551 413d d572 0b3d 643b d1bc
000000d0: 6e72 fd3b 0dbf 52bd 21a1 a6bd adf6 383c
000000e0: 450b d43c 1430 b03c 4e64 eb3c aa01 8c3c
000000f0: e30c f6bc 4084 883c 0834 2abc de50 2fbd
00000100: 1d45 9a3d 258b bd3c 7c0e 97bb a683 97bd
00000110: 4925 99bc 5068 60bc f4f8 7c3c 39e8 4fbd
00000120: 1873 80bd 7966 4d3d 3ad5 41bc 6b5a 60bb
00000130: 6d89 a43c 6aa4 0abd 66c9 c7bc 360e b43b
00000140: 374a 9b3d d2d4 413d 0163 253c e20d 32bd
00000150: f6e1 543c f427 353d 89d0 a9bb 5746 b8bc
00000160: 6ab4 55bc 7062 9cbc 992e 46bd 9bef 4b3c
00000170: 670a 38bd d17a 963d 2079 703d d8a2 dabc
00000180: c13c 533d 5e24 febc 5986 373a 30d5 5d3d
00000190: 6447 853d 4624 fbbc 3156 be3c 85cf 10bc
000001a0: 81e6 37bc b7f6 f1bc ce34 d13c 26aa 88bd
000001b0: e9e7 d13c c5e0 7c3d 43f6 26bd ccbf eb3c
000001c0: 9ad6 debb 13d9 0abd 9547 45bc 05d0 4e3c
000001d0: 2c0d c13b 6b01 233d 6d90 1a3d 60ec a2bc
000001e0: 02b3 6bbd b73e b83c c78a 1abc 77b0 b23b
000001f0: 8dfa 833c fc13 6e3c b27b 353d a7db c43c
00000200: 4d91 19bd 1e32 1cbd 9ac0 76bc 1c2f e13c
00000210: cb44 edbc 04db 63bd 5fdb 413c 6a0e 86bc
00000220: 6935 37bd f68a 433d 92a1 96bb da47 85bd
00000230: 9b2b 30bb 2fe1 2a3d 2319 32bd ce07 da3c
00000240: 83c1 113d 6367 26bc 24f1 01bd 0dbf babc
00000250: 5c4e 863d 1c9a dc3c 2f7a 56bd 9936 273d
00000260: 3d78 2fbd 5e1d 613c a61b 90bd e4c8 7dba
00000270: 381c a13d cd34 92bd fcc8 41bd b49a 0dbd
00000280: 3953 463d cdb6 833d 23b3 3cbd 4426 043d
00000290: 3cc3 66bd 65a4 8e3c 50aa 5fbd 3ac4 7bbd
000002a0: e1d6 c33d ce0b 863c a41c da3d 62a3 863d
000002b0: 091a 9abd 41cf 84bc 9238 05bd 6b1f 70bd
000002c0: 3762 2ebd 981e 393d c5fe 183b 9545 8d3d
000002d0: 25fb f5ba 0f94 9fbd b8bf 1bbd a617 bbbc
000002e0: 029a 2c3d ac52 513c 2f0e 633d 294f 553c
000002f0: 9619 68bd eb64 e83b 33cc 533d c326 c7bc
00000300: 5056 2abd f1d8 efbb cc39 51bd 5ce5 56bd
00000310: e071 8a3d faf9 4d3c b729 903c b0dc 373d
00000320: d0f1 36bc ee4c 73bb b00e 8c3d b106 a33c
00000330: e49a dabd 0b8c 513c 2f56 15bc dd52 8abd
00000340: ed53 c73c ac4a 92bd 14c6 00bc f722 85bc
00000350: 404b 3a3c ac51 5c3d ce45 db3c 61b9 c1bc
00000360: 88d3 1ebd 43d3 e8bc 1373 0abd 0354 da3c
00000370: 6ead 6bbd 20f0 603b c95b 67ba aeaa 913d
00000380: 69d1 c8bb 784d 7f3d 367f d03c 80c9 8c3d
00000390: aebd ed3c c5d4 483c 3c65 55bc 9861 05bc
000003a0: b458 41bc 0c3b 99bb aaad d03c 3a21 c43c
000003b0: 7ec2 2c3d b8a2 2abb 76c1 87bd 8bd9 683d
000003c0: f946 f339 aab7 b0bd 0427 26bb 0d12 bc3c
000003d0: 3c55 2eba 3bdf 4cbd 7723 79bc 26d6 883c
000003e0: c818 68bd 354b a33d 34d3 6f3d 879d 613c
000003f0: 0b9d 6cbd 3541 813d c039 f9bb 6bca 68bc
0.03404613 -0.042327315 -0.056650836 -0.017948117 -0.05156709 0.045883697 0.048916798 -0.014666629
-0.029967245 0.01910966 0.004696085 -0.014523866 -0.012338953 0.019822653 0.013703437 0.006353197
-0.03851924 0.10905305 -0.029675683 0.011383254 0.066370085 -0.07062668 0.005143479 0.03612063
0.039542627 -0.038318437 0.06699956 0.024841595 -0.05760277 -0.106308 -0.021101728 0.013686237
-0.0980922 0.12838043 0.057029057 0.02513596 0.049207922 -0.035597626 -0.03504825 0.029881643
-0.037489697 0.045457643 -0.0066321637 -0.014530468 0.018890329 0.038918715 -0.008921998 -0.03790708
-0.06599006 0.047196466 0.03404506 -0.025541015 0.0077345883 -0.05145173 -0.08136202 0.011289281
0.02588428 0.0215073 0.028734352 0.017090637 -0.030035442 0.016664624 -0.010388382 -0.04280173
0.075327136 0.023137638 -0.004609881 -0.07398157 -0.018694537 -0.013696745 0.015440214 -0.050758574
-0.062719524 0.050146554 -0.011830622 -0.003423358 0.020085061 -0.033848204 -0.024388026 0.005494858
0.07582515 0.047322102 0.010094405 -0.04347027 0.012993326 0.044227555 -0.00518233 -0.022494478
-0.013043502 -0.019089907 -0.048384283 0.012447263 -0.044931795 0.07347644 0.058709264 -0.026688978
0.05157161 -0.0310232 0.00070009154 0.05415839 0.06507757 -0.030656945 0.023234459 -0.008838539
-0.01122439 -0.029536588 0.025537875 -0.06673078 0.025623279 0.061737794 -0.040762197 0.02877798
-0.006800485 -0.033898424 -0.012040992 0.012622838 0.005891463 0.039796274 0.03773539 -0.019888103
-0.057543762 0.022490842 -0.009432501 0.005453165 0.016110683 0.014531132 0.04430742 0.02403052
-0.037492085 -0.038133733 -0.015060568 0.027488284 -0.028963467 -0.05562879 0.011832087 -0.016364295
-0.04472867 0.047739945 -0.0045968974 -0.06507845 -0.002688146 0.041718658 -0.043481003 0.02661505
0.035584938 -0.010156485 -0.03172411 -0.022796178 0.065579146 0.026928954 -0.052362617 0.040823553
-0.042839278 0.013739912 -0.070365235 -0.0009681119 0.078667104 -0.07138977 -0.047310814 -0.034571365
0.04841921 0.06431351 -0.046069276 0.032263055 -0.056338534 0.017412374 -0.054605782 -0.061466433
0.09562469 0.01636305 0.10649994 0.065741315 -0.07524497 -0.016212108 -0.032524653 -0.058623713
-0.042574134 0.045195192 0.0023345214 0.06898037 -0.0018766864 -0.07791912 -0.038024634 -0.022838425
0.04213906 0.012776058 0.05543345 0.0130193615 -0.056665026 0.0070921085 0.05170841 -0.024310475
-0.04158622 -0.0073195626 -0.05108051 -0.052464828 0.06760001 0.012571806 0.017598016 0.0448882
-0.011166051 -0.003712471 0.06838739 0.019900652 -0.10674074 0.0127897365 -0.009114786 -0.06754086
0.024332011 -0.07143149 -0.0078597255 -0.016252024 0.01137048 0.053788826 0.026766684 -0.023647966
-0.03877595 -0.02842105 -0.03380115 0.026651388 -0.057538442 0.0034322813 -0.0008825628 0.07112633
-0.0061284793 0.06232974 0.025451284 0.068743706 0.02902111 0.012257759 -0.013024624 -0.008140944
-0.011800934 -0.0046762284 0.025473434 0.023941625 0.04217767 -0.002603693 -0.066286966 0.05684809
0.0004640145 -0.08628781 -0.0025352845 0.022957826 -0.0006650274 -0.050017577 -0.015206209 0.016703676
-0.05666426 0.07973329 0.05855103 0.013770468 -0.057766955 0.063112654 -0.0076057613 -0.014208416

l4.0.bias f4 [32]
00000000: a6ed 3dbc 46ee e1bc 2964 f0bc 68d4 f03c
00000010: b73e 053d 2d12 e8bb 0cd1 df3c b481 a33b
00000020: e6ca 5bbb 7052 383d 7d9c 9cbc 0de1 6bbd
00000030: 52d0 f03c e4a6 d1bc fe5a 4cbb 214c e6bb
00000040: a3a8 f23c d030 8dbb 93b9 2dbd 4671 153c
00000050: 23be 16bd 1a63 95bc 9949 acbb 3a01 5cbd
00000060: 3ae4 b23c c5e4 34bd ac51 61bd 6deb a93c
00000070: 8962 26bd 33bf 6d3c d5e6 40bd 627e a8bb
-0.011592304 -0.027579438 -0.029344635 0.029398158 0.032530513 -0.007082245 0.027321361 0.004989827
-0.0033537685 0.045000494 -0.019117588 -0.057587672 0.02939621 -0.025592275 -0.0031182165 -0.0070281182
0.029621428 -0.0043087974 -0.042413305 0.009121245 -0.036802422 -0.018235732 -0.005257797 -0.053712107
0.021837343 -0.044163484 -0.05500953 0.020742143 -0.040621314 0.0145109175 -0.04709514 -0.005142019

l4.1.weight f4 [32]
00000000: b6b8 7d3f 8db2 833f 962e 783f 8d9c 833f
00000010: 7e74 773f b484 7c3f 7bbc 743f c915 803f
00000020: 9845 7a3f 4cc1 813f ebe4 783f d376 833f
00000030: bd7c 823f 45b0 813f 2abe 7e3f 9a25 7f3f
00000040: 4ace 843f 8709 773f a7f8 7d3f e079 823f
00000050: aa3d 803f 9d5a 753f 498d 703f 5b6b 813f
00000060: df9e 833f 3cf6 803f 212a 813f e15b 7e3f
00000070: 853e 823f c408 823f 2ecb 7c3f 5f59 7b3f
0.9910997 1.0288864 0.96946084 1.028215 0.9666213 0.9863999 0.956001 1.0006648
0.9776244 1.0137115 0.972243 1.0270637 1.0194317 1.0131918 0.9950892 0.9966675
1.0375454 0.9649891 0.9920754 1.0193443 1.0018818 0.9584139 0.93965584 1.0110887
1.0282859 1.0075145 1.0090982 0.99358946 1.017533 1.0158925 0.9874753 0.98183244

l4.1.bias f4 [32]
00000000: e63f 463c 2d25 4f3c 863e 94bd 26a7 febb
00000010: 8cb5 26bd 424e e2bc 5367 d7bc 02e1 69bd
00000020: a71a a93d 21cc 95bc 3b67 d7bc cdc5 a0bc
00000030: fc4f 903d 4988 763b 246c 10bd 2281 f7bc
00000040: 2e01 92bc f789 5ebd 05ef 71bd 64b2 1e3c
00000050: 7473 70bd 3372 43bd c2b9 95bd b383 7fbd
00000060: 8a7b 8ebc 7362 62bd 4fd2 bbbd 38e9 243d
00000070: 286a 4e3c d12f cdbc 1231 feb8 74f8 73bd
0.0121001955 0.012643141 -0.07238488 -0.0077713905 -0.04070048 -0.027625207 -0.026294386 -0.05709935
0.08257037 -0.018285813 -0.026294341 -0.019625569 0.07046506 0.0037617853 -0.03525938 -0.030212943
-0.017822828 -0.054330792 -0.059065837 0.009686086 -0.058703855 -0.04771633 -0.07310821 -0.062381458
-0.017392892 -0.05526967 -0.091709726 0.040261477 0.012598552 -0.025047215 -0.00012120804 -0.059563115

l4.1.running_mean f4 [32]
00000000: a53f 7bbd 1532 15bf b09c ef3d deb2 dcbe
00000010: ae93 2fbe 9189 f13d d93b cd3e ab0d 40bf
00000020: 8c58 f13c 0a1b 50be 2b6e 92bf e666 24be
00000030: afaf 8bbe 1a78 2dbf 49aa 96be 9885 a9be
00000040: 50a1 44bf b15e 77bd 00b4 a6be cfa6 74bf
00000050: 6c05 8dbe 1767 6cbf ff71 11be 5b6d 0bbf
00000060: 5133 3ebf 37ea 63be 28d5 e3be b187 60bd
00000070: ea10 7bbe 746f 3c3e 68dd a5bf 19cf 8ebe
-0.061339993 -0.58279544 0.11699808 -0.43105215 -0.17146179 0.11793817 0.40084723 -0.75020856
0.029461168 -0.20322815 -1.143987 -0.16054878 -0.27282473 -0.67761385 -0.29426792 -0.33109736
-0.76808643 -0.06039304 -0.32559204 -0.9556703 -0.275432 -0.923448 -0.14203642 -0.5446374
-0.7429705 -0.22257315 -0.44498563 -0.054816905 -0.24518171 0.18401891 -1.2958193 -0.27892378

l4.1.running_var f4 [32]
00000000: cc29 8e3e dac5 9f3f db74 633f 75c2 483f
00000010: cd48 b63e 4316 9b3e fe30 ac3f b99b 0d40
00000020: 8e1f aa3e a4cc e93e b0c6 ed3f 2c2f 283f
00000030: f295 273f 45ba 0b40 c077 d33f 8340 bf3f
00000040: 5a4a 1340 23e8 023f 0ebc ad3f 0c36 2040
00000050: 79e6 b83f cb58 653f e1cb fa3e 70d6 1340
00000060: 1b62 1840 f099 773f 88a8 0640 aaaf bc3e
00000070: 319f 453f 4f81 3f3f 9c97 ab3f d663 4f3f
0.27766263 1.2482255 0.8885018 0.7842172 0.35602418 0.30290422 1.3452451 2.2126296
0.332272 0.4566394 1.857626 0.6569698 0.65463173 2.183244 1.652092 1.4941562
2.301413 0.5113546 1.3573015 2.5032988 1.4445335 0.8958861 0.48983672 2.3099632
2.380988 0.96719265 2.1040363 0.3685277 0.7719603 0.74806684 1.3405643 0.8101171

l5.0.weight f4 [32, 32, 3, 3]
00000000: 788b 91bc 85d8 d63c c3f3 9dbb 1382 2c3c
00000010: 0c0c 303d 849f 533c 1285 dfbc 5f6d e63c
00000020: 5a38 5ebc e178 a33c 6983 27bd 573d 49bd
00000030: 5046 a73c 72de 023d 49d9 41bd d4bb 5abd
00000040: 914d 1dbd 5ba1 75bd c25b 433b 9a51 e43c
00000050: 006a 8b3c f605 413c 7f19 343d ea33 5f3c
00000060: ed07 febc b87d a0bc 27c8 153c 9ec4 86bb
00000070: b459 473d 3020 ea3c de32 9d3c d337 0d3d
00000080: ecac 1c3c 792c 5fbc 11eb 893d fec6 79bc
00000090: cdb6 f73c b3c4 933d 0e64 ff3c 3815 cf3d
000000a0: 5512 bd3d fca1 d53c 5bf4 923c 622b 89bc
000000b0: 5c77 3e3d 23e6 55bd ce36 46bd 4e20 edbc
000000c0: 86fd 7fbc 0a7c 02bd fe7f 88bd 1e68 f1bd
000000d0: 822c 52bd a674 f6bb 18ca c6bb 8d43 7b3c
000000e0: 34b0 4ebc 69e2 5e3d b0e0 7a3d 04eb bd3c
000000f0: d866 67bc 1667 d53c c598 d5bc 7e8c 8fbc
00000100: 949e dd3b b767 2fbc d4d5 943d 614f f53c
00000110: 0c8d 3c3d a3d7 963d 068e 0f3d 7876 1c3b
00000120: 1f60 60bd 61a6 ccbd 076d 13be f0b6 063d
00000130: 39fa 4ebd 8e28 adbd 5f3d 61bd 8300 4abd
00000140: ef35 a1bd 8ff9 413d b99d 9a3b ab68 f2bc
00000150: 37a6 e03c 91bd 333b 6f26 033b 4d0c dbbc
00000160: a4bc 84ba 4b7b 16bd 7700 13bc 72b8 24bd
00000170: 059c 2bbc 622e 383d b2ce 5bbc b114 c73c
00000180: d4b3 bf3c 9a5d 0a3c c0fe b73c 79ae d7bb
00000190: d971 3a3d fe24 4ebb 5694 363c 4701 cdbc
000001a0: 3ae3 22bd 9f35 aebc 9da2 113d 289e b3bd
000001b0: 8bbb 4b3c 5ace b0bd db64 89bd 9742 83bc
000001c0: b5be 93bd b132 3abd 7d69 fdbc 4a6d c3bd
000001d0: d89b 6dbb 80ff f039 11a0 c73b 7abc bd3c
000001e0: ac2f 1ebd 56aa 1bbd c012 993c 3d65 123c
000001f0: 3a0b 0c3d d8a0 61bd 617e c8bb fd1e 2f3d
00000200: 26be 4d3d 165b a5bb f8c7 90bc a7a0 b53c
00000210: 21e1 f73c 5901 233d 1485 04bd 6b37 4c3c
00000220: 0033 953a 120f 47bd 89e3 7dbc 9480 87bc
00000230: 0a24 b2bc b487 043d 93cc 65bc bb13 29bd
00000240: d07d 883d c947 b93c 561d 96bb d418 8b3c
00000250: 55e4 5e3d aee5 4a3d 846b c6bc 77ca b73c
00000260: 1bcd 463d e1f7 a9bc 5fa3 96bb a3d9 30bd
00000270: c0db f53c d4aa c63b ff9f 7ebc b685 503d
00000280: 6cc9 9d3c dc7f 593d f722 573d a30e 94bc
00000290: 93e6 293d 0594 973d 2ca5 9fbc c62d 173d
000002a0: edee 6d3d 7483 7c3c 7740 103d da2b ebbc
000002b0: 0a15 933c 0044 2cbd 1e41 423d 1d6c 39bd
000002c0: 1b13 55bb d68c 7abd 81ee bbbc dc37 81bb
000002d0: 1c7e af3c 87ff 4dbb 4262 053d e0a5 aa3c
000002e0: bc01 6bbd 46b6 083d a573 653d ed7e 253d
000002f0: 75fa c43c de13 25bd a910 87bc 1d3f 61bd
00000300: 1675 033d 91f2 493d 0217 b9bc af3f 9dbc
00000310: a303 59bc cf75 0dbd 2620 073c 8975 debb
00000320: 7ab3 28bd e3cf 3abd c693 adbc ce67 42bd
00000330: a29e d23c 5bd2 f53a cc22 203d f878 37bd
00000340: 54c0 a43c ac2a 12bd 3e53 d63c c78a 683c
00000350: 2e9f 2dbd 358e 8a3d cd3d 6c3d 0c37 1e3d
00000360: aefe 993d 8f25 603c 01fd 5d3d a51a 3f3d
00000370: dde5 39bc b03a 77bc 265f a13b 465b e03c
00000380: eaf1 643d 4fc4 253d 616c 783c 0ff8 823d
00000390: 603f 8c3c 19c9 9b3b 7c34 ea3b 8b16 0fbc
000003a0: 9e63 393d 93ff a23a 0879 17bb edae 7f3d
000003b0: 2890 4d3d 3371 183c 2717 943c 5a49 0c3d
000003c0: c286 843d 0c68 c83d 66b3 863d 62dc 8bbc
000003d0: c744 3dbd 8916 ff3b 413e 42bd 092e f93c
000003e0: 91f1 133d 6f91 9cbc a6d5 04bd 4bc0 433d
000003f0: 3108 193b 9333 2abd 41bb 9a3c 0735 39bd
-0.0177667 0.026226291 -0.0048203184 0.010529059 0.04298024 0.012916449 -0.027285133 0.028128324
-0.01356324 0.0199551 -0.040896807 -0.049130764 0.02041927 0.03195042 -0.04732636 -0.053401783
-0.03840405 -0.059968334 0.002980933 0.027870942 0.017018318 0.011781206 0.043969627 0.013623217
-0.031009639 -0.019591197 0.009141958 -0.004112794 0.048669532 0.028579801 0.019189294 0.034477066
0.009562712 -0.013621443 0.067342885 -0.015245197 0.030238533 0.07215252 0.03117564 0.10111469
0.09232012 0.026078217 0.017938783 -0.01674432 0.04650055 -0.05222143 -0.04839211 -0.028946068
-0.01562441 -0.031856574 -0.066650376 -0.11787437 -0.051311977 -0.00752123 -0.006066572 0.01533593
-0.012615252 0.05441514 0.061249435 0.023183353 -0.014123641 0.026050132 -0.026073823 -0.017523047
0.0067632888 -0.01070588 0.07267347 0.029945077 0.04603295 0.07365348 0.035047553 0.0023874324
-0.05477917 -0.09992672 -0.1439706 0.032889307 -0.0505316 -0.08455001 -0.05499017 -0.049316894
-0.07871615 0.04735714 0.004718509 -0.029590925 0.027423007 0.0027426223 0.0020011922 -0.026739264
-0.001012702 -0.036738675 -0.008972279 -0.040214963 -0.01047421 0.04496611 -0.013415979 0.024301859
0.023401178 0.008445168 0.022460341 -0.006582078 0.04551873 -0.0031455155 0.0111437645 -0.025025023
-0.03976748 -0.021265803 0.03555547 -0.087704 0.01243485 -0.086331084 -0.0670869 -0.016022963
-0.07214109 -0.0454585 -0.03093409 -0.095423296 -0.003625622 0.0004596673 0.0060920794 0.023161162
-0.038619682 -0.038004242 0.018685699 0.00893527 0.034190394 -0.055085033 -0.006118581 0.042754162
0.050230168 -0.0050462587 -0.017673478 0.022171332 0.030258717 0.039796207 -0.032353476 0.012464385
0.0011382997 -0.048598357 -0.015496143 -0.016540803 -0.0217457 0.03235598 -0.014025825 -0.041278582
0.06664622 0.022617238 -0.004581134 0.016979612 0.054416973 0.049535446 -0.02422119 0.02243541
0.048535448 -0.02074808 -0.004597112 -0.043176305 0.030012012 0.006062845 -0.015541076 0.050908767
0.019261084 0.05310045 0.05252358 -0.018073386 0.04147966 0.07401279 -0.01948794 0.036908887
0.058089186 0.0154122 0.03521773 -0.028707433 0.017954368 -0.042057037 0.04742538 -0.04526912
-0.0032512608 -0.061169468 -0.022940876 -0.0039434265 0.021422438 -0.0031432824 0.03256441 0.020831048
-0.0573747 0.033376954 0.05601849 0.04040425 0.024045208 -0.04030215 -0.016487436 -0.05499183
0.032094084 0.049303595 -0.022593979 -0.019195406 -0.013245496 -0.03453618 0.008247411 -0.0067889136
-0.041186787 -0.045608412 -0.021188628 -0.047462277 0.025710408 0.0018754707 0.039095685 -0.0447931
0.02011124 -0.035685226 0.02616274 0.014193243 -0.042388134 0.06765405 0.057676125 0.038626716
0.075192794 0.01368083 0.05419636 0.04665627 -0.011346308 -0.015089676 0.0049246727 0.027387273
0.05589477 0.040470418 0.015162558 0.0639497 0.017120063 0.0047541973 0.00714737 -0.008733402
0.045261018 0.0012435786 -0.0023112912 0.06242268 0.050186306 0.009304333 0.018077446 0.03424964
0.064710155 0.0978547 0.06577186 -0.01707286 -0.04620817 0.007784669 -0.04742265 0.03041746
0.036119048 -0.019112317 -0.032430314 0.047790807 0.002335083 -0.04155309 0.018888118 -0.045216586

l5.0.bias f4 [32]
00000000: 472b 693d c9d6 7a3c 8854 67bd d978 20bd
00000010: 4bfd 2dbc 8a54 443d 7065 10bd 019e 1ebd
00000020: 5e23 19bd f178 9cbc 98bd 113c ab46 4e3d
00000030: 6d41 e6bc 4255 433d e911 b7bc f539 4dbd
00000040: 0e1b 5abd 0e33 603d 0f93 80bd ae6a 96ba
00000050: b601 b63b 7963 b53b f6e9 f13b c36a 3e3d
00000060: aeb2 8bbc 9bd9 0d3d 8250 9e3c c13c 33b9
00000070: 15a1 11bc 6c34 d4bc 12d6 3ebd 5997 2c3d
0.056926038 0.015309998 -0.0564771 -0.03917775 -0.010619472 0.047932185 -0.03525299 -0.038724903
-0.037387244 -0.019100638 0.0088953 0.050360363 -0.02810737 0.04768873 -0.022347407 -0.0501041
-0.053248458 0.05473619 -0.06278049 -0.0011475885 0.005554403 0.0055355397 0.0073826266 0.046488535
-0.017052975 0.034631353 0.019325498 -0.00017093403 -0.008888503 -0.025903903 -0.046590872 0.042136524

l5.1.weight f4 [32]
00000000: 2b1f 7c3f 89c6 843f 9f1e 893f 872b 803f
00000010: 0060 833f d9e7 803f ae90 823f 6e40 843f
00000020: 0eb9 793f 8478 7e3f 573b 813f 3480 833f
00000030: d38d 823f 5dfe 823f c4e9 8a3f b538 853f
00000040: 712d 853f 6a3c 7f3f 44e7 803f 91de 823f
00000050: 6e01 883f 40c5 823f dfa1 823f abaa 8b3f
00000060: a4a9 823f 8c99 853f 5e66 7e3f b545 833f
00000070: c95b 8d3f ff31 823f 91b9 883f 8063 853f
0.9848506 1.0373088 1.071247 1.0013283 1.0263672 1.0070754 1.0200403 1.0332162
0.97547996 0.9940264 1.0096234 1.02735 1.0199531 1.0233876 1.085259 1.0407931
1.0404493 0.9970156 1.0070577 1.0224172 1.0625436 1.0216446 1.0205649 1.0911459
1.020802 1.0437484 0.9937495 1.0255648 1.1043636 1.0171508 1.068163 1.042099

l5.1.bias f4 [32]
00000000: e6b6 2dbd ef7f c03d f126 ee3d 89cb f73b
00000010: 810b 1d3c 5e5a 633d c15b 4a3d 091c 043d
00000020: 36fa 5d3d f0bb 35bd 1e33 673b 7555 703c
00000030: 04c8 273b ec95 f8bb c36b 123e 1a9a 903d
00000040: 8f4a 44bd cfe3 203d b211 433d f62c e4bc
00000050: a467 ef3d 9b62 d0bc bdf6 2abd ad26 c33d
00000060: bc49 6e3d 782b 37bc 1868 003d 001b 703d
00000070: 57cd 2f3e 826b 2b3d 4560 beb9 5319 9a3b
-0.042410754 0.093994014 0.11628521 0.007562105 0.009585262 0.055506103 0.04940391 0.0322533
0.054193698 -0.044368684 0.003527827 0.014668812 0.0025601396 -0.0075862315 0.1429892 0.070606425
-0.047922667 0.039279755 0.047624297 -0.02785347 0.1168969 -0.025437644 -0.041739214 0.09528861
0.058175787 -0.011179797 0.03134927 0.0586195 0.17168175 0.041850574 -0.0003631135 0.004702726

l5.1.running_mean f4 [32]
00000000: 3ca3 85bd 0fe4 bb3e 3eb4 e0bd 4eb3 97be
00000010: 593e a6be a7d9 1c3d 5a81 263d 9f0d fdbe
00000020: 15b8 fcbe d9f0 493e 79f1 623e 9bbc d3bd
00000030: 1ce4 cc3e 1e0e 3fbe 6c5a 88be f806 e6bd
00000040: 0992 b5bd a15a 9e3e c82f 9fbe 2fdb 61be
00000050: 9f3a 83be 1691 acbe d777 373e 2b4b ec3d
00000060: 161a fdbe b113 d83e 147e 26bf d15a 96be
00000070: b1bd 763d fdb4 91bc 612e 003e 4aaf 2cbe
-0.06525275 0.36697432 -0.109718785 -0.29628986 -0.32469442 0.038293507 0.040650703 -0.49424455
-0.49359193 0.19720782 0.22162427 -0.10338708 0.40017784 -0.18657729 -0.26631486 -0.11231798
-0.088657446 0.3092852 -0.31091142 -0.22056268 -0.25630662 -0.33704442 0.17916809 0.11537775
-0.49433964 0.42202523 -0.6503613 -0.29366162 0.060239498 -0.017786497 0.12517692 -0.16863742
