models/labweight_000049.pth (torch_old, 173832 bytes, 32 tensors)

l1.0.weight f4 [32, 12, 3, 3]
000000 2e 6a e7 3d 05 df 93 3c f2 d6 35 3d 46 b2 12 3d
       0.11299549 0.01805068 0.04439444 0.035814546
000010 51 10 c2 bd 91 53 43 3d 6b 7d ac bc d7 9b 66 3d
       -0.09475768 0.047687117 -0.021055898 0.056300964
000020 5a 92 31 3c 49 dc 01 3d 29 76 84 3d 1d d6 3c 3d
       0.010838116 0.03170422 0.0646785 0.04610263
000030 70 3c 4c 3c 7f 9a 66 bd 17 19 fd bc f1 50 9c bc
       0.012465581 -0.056299683 -0.030895753 -0.019081565
000040 91 5d 31 3c a2 97 50 bc a5 7b 01 3e 88 42 92 3d
       0.010825531 -0.012731465 0.12644823 0.07141596
000050 1b 93 a3 3c 89 e6 9c bd 46 2c ea bc 30 69 47 bd
       0.019967606 -0.076611586 -0.028585564 -0.0486843
000060 94 5d 00 bd b3 29 50 3c ff 0a 7f 3d 44 d9 a9 3d
       -0.031339243 0.012705254 0.062266346 0.08293393
000070 3e a6 8f bd e1 6b c7 3d 9a c5 df 3a 32 e1 87 3d
       -0.0701413 0.09737373 0.001707244 0.066347495
000080 5a 33 35 3d b2 30 b5 bd f8 f9 b6 bd ed c9 3c bd
       0.044238426 -0.088471785 -0.089343965 -0.04609101
000090 b2 c5 bc 3d 47 c6 27 bc 6b f5 80 3d a2 46 8a bd
       0.09217395 -0.010240144 0.0629681 -0.067517534
0000a0 7e f4 90 3d 97 f8 58 bd 3a 65 87 3d 76 81 66 3b
       0.07077883 -0.05297145 0.06611104 0.003517238
0000b0 52 e4 3c bd cc 92 93 3d 68 a9 1e bd 7d 4b 88 3d
       -0.04611618 0.07205734 -0.038735777 0.06655023
0000c0 58 df 1d bd b2 30 d6 bc 9d 42 bb bd 68 e8 c6 bc
       -0.038543075 -0.026146267 -0.09143565 -0.024280742
0000d0 a4 72 8d 3d 8c ea cc 3a 6e 66 d5 3d 18 42 9a 3d
       0.069066316 0.0015633865 0.104199275 0.07532138
0000e0 9c 68 da 3c 78 ed ea bd 7c 24 a4 3b 56 a7 14 bc
       0.02666121 -0.11471075 0.005009232 -0.009073099
0000f0 12 50 ab bd 9a 97 25 3d 9e 5d 26 3d 33 e5 05 3e
       -0.083648816 0.04042778 0.040616624 0.13075714
000100 56 4c 31 bc 55 6c 34 3d e1 9b 94 bc 41 29 53 3b
       -0.010821423 0.044048626 -0.018140735 0.0032220634
000110 22 77 96 bd 61 56 73 bd 98 a2 8d 3d 63 45 4a bb
       -0.073469415 -0.05940855 0.06915778 -0.0030864112
000120 45 a4 be 3d 52 ae 48 3d da db b9 3d fb 26 a5 bc
       0.09308676 0.04899437 0.090751365 -0.020160189
000130 92 5f 46 bc 75 b6 14 3c aa d8 05 be 45 23 1e 3c
       -0.012107747 0.009076704 -0.13070932 0.009651964
000140 91 d3 c5 bd 33 57 98 bd 7d b5 9f 3b 26 11 d0 bb
       -0.09659494 -0.07438507 0.00487393 -0.0063497005
000150 23 6b 11 3d 11 92 98 bd 43 8c ca bd 10 5b 4c 3d
       0.035502564 -0.07449735 -0.09890034 0.04989153
000160 7e 8e f9 bc eb 24 2e 3d ca 3e f7 3c ee 47 96 bd
       -0.030463453 0.042515676 0.030181307 -0.07337938
000170 5e 00 03 3d 22 4f 9b 3a 23 8a ac bd 35 89 6f bd
       0.031982772 0.0011849145 -0.08424785 -0.05848046
000180 b7 f8 27 3c 15 d3 95 3a 71 71 56 bd c1 ef 37 bd
       0.010252169 0.0011430705 -0.05235428 -0.04490638
000190 b2 4c 4d 3d 9a e9 19 bd 0a 49 1c 3d b1 91 85 3b
       0.05012197 -0.037576295 0.038155593 0.0040762057
0001a0 1d b8 a5 bd 31 40 9d bd dd 0f 93 3d 7e c9 d1 bb
       -0.080917574 -0.07678259 0.0718076 -0.0064021936
0001b0 56 10 e7 3c df 97 b9 3c de d3 9d bc 5d cb 86 3d
       0.028206032 0.022655426 -0.019266065 0.06581757
0001c0 9c 47 ed 3d 50 18 bf bd ee 22 9e 3b 40 4f c4 3d
       0.11585924 -0.09330809 0.0048259413 0.09585428
0001d0 25 a5 0e 3d 3e 15 a0 3d 42 17 0f bc 34 ce 93 bd
       0.034825463 0.078165516 -0.008733572 -0.072170645
0001e0 d5 95 92 bb e6 72 c8 3d d0 90 f3 3d 29 92 94 bc
       -0.004473428 0.0978754 0.11892855 -0.0181361
0001f0 42 48 04 3e a9 b2 26 bd 9e f3 c3 bd b5 82 ea 3c
       0.12918189 -0.040697727 -0.09567951 0.02862678
000200 d0 6b 12 3d 5e fc ec 3d f4 90 7d 3c 65 42 00 3d
       0.03574735 0.11571573 0.015476454 0.03131332
000210 b0 1f c1 3d cb 90 fc 3d 15 14 61 3d c6 40 7d 3d
       0.09429872 0.123323046 0.054950792 0.06182935
000220 54 5d ea 3d c6 44 82 3c d3 33 f6 bc 11 3b 43 3c
       0.11443582 0.015901934 -0.030054009 0.011915938
000230 a2 92 5a bc bf 61 6c 3c e8 22 91 3c 66 32 3a 3d
       -0.013340624 0.014427601 0.01771684 0.04545822
000240 87 dd e8 3b 23 f6 8c bb 88 bc 12 3c 46 d7 0d 3d
       0.0071064862 -0.0043018027 0.008956082 0.03462913
000250 57 13 cb 3d 2d a7 6a 3d 23 40 19 bd 94 3c 02 3e
       0.09915798 0.057288337 -0.03741468 0.12718421
000260 3c 72 f8 bc f0 19 2b bc 7c 69 30 bd 5d 49 8a bd
       -0.030327909 -0.010443196 -0.043069348 -0.06752274
000270 ee fe c6 bc ba 18 2a 3d a8 bc c2 3d 0c 63 77 bc
       -0.024291482 0.041527487 0.095086396 -0.015099298
000280 c0 c1 b2 bb 47 34 3f 3d e3 ce 4f 3d 4d 05 19 3e
       -0.0054552257 0.046680715 0.050734412 0.14943428
000290 37 5c d1 bc a7 30 8f 3d 56 ad 9f 3d 81 72 ea 3c
       -0.025556667 0.069917016 0.07796733 0.028619053
0002a0 d0 0a 51 bd 3e 25 19 3d ce 5f 10 bc 80 7e 47 3c
       -0.051035702 0.037389033 -0.008811904 0.012176156
0002b0 d5 58 3e 3d dd f1 b2 bc db c6 e2 3d ed 51 2a 3e
       0.046471436 -0.021843845 0.11073085 0.16632815
0002c0 e8 ae 74 3d a3 03 e3 3b 3a f0 ed bb 35 7a 6f 3d
       0.059737116 0.0069279238 -0.0072613033 0.058466155
0002d0 99 14 7d bd 5d ab be 3c 37 c9 d1 bd 98 1e 29 bd
       -0.06178722 0.023275072 -0.10243457 -0.041288942
0002e0 d4 2e 19 bc e4 77 b7 3d 38 d0 e0 bd c9 4e 1c bd
       -0.009349544 0.08958414 -0.109772146 -0.038161073
0002f0 6f ac 3d bc d9 64 b4 bd c5 74 48 3c 29 ad 87 bd
       -0.011576756 -0.08808298 0.012234871 -0.066248246
000300 9c 72 a7 bd 92 b1 a3 bc 23 f0 20 3d 89 2a d9 bd
       -0.08176157 -0.019982133 0.039291512 -0.10603816
000310 3a b2 7f 3c 05 6a d1 3c 68 76 6b 3d 17 2c a1 bd
       0.015606457 0.02556325 0.057485968 -0.078697376
000320 02 dd 5b 3b ca d8 dc bd ac 5e 85 3d 44 49 69 bd
       0.003354848 -0.10783537 0.06512198 -0.056954637
000330 e3 d2 83 3c 95 a3 91 bc ac 72 f6 bc 04 f9 3d bd
       0.01609177 -0.017778197 -0.030083977 -0.046380058
000340 e1 89 d0 bc 0f d5 bc 3c 61 53 77 bc 55 1a 46 3c
       -0.02545637 0.023050813 -0.015095563 0.012091239
000350 85 b0 b3 bd c6 58 28 3d cc e4 8e 3d b8 bd 90 3d
       -0.08773903 0.041100286 0.06977233 0.07067436
000360 07 03 b5 3d 2c 53 73 bd e6 40 a0 bc e3 a1 a9 3d
       0.08838468 -0.05940549 -0.019562196 0.082828306
000370 45 d7 ad bd 3e d1 ad 3d a2 a4 eb bd 42 96 fa bd
       -0.08488325 0.084871754 -0.115060106 -0.12235691
000380 ba ac 08 3c 61 9c 68 bd 16 ee de bc 16 9b a1 3d
       0.0083419625 -0.05678976 -0.027213138 0.078909084
000390 2a 08 6b 3d aa ba 5b 3d 86 8f f7 bc 97 c0 08 be
       0.057380833 0.053644814 -0.030219804 -0.13354717
0003a0 9e d0 9e 3c 73 13 93 bd 54 c4 8d bc ea e6 b3 3c
       0.019386586 -0.07181444 -0.01730553 0.021960694
0003b0 59 84 3b bd 8a 7a 86 3d c2 03 25 3d 2a 2f 89 bd
       -0.045780513 0.06566341 0.040286787 -0.06698449
0003c0 06 a6 cc bd d0 b9 48 bd fe fe b0 3c 5d e6 06 3d
       -0.09992604 -0.04900533 0.021605965 0.032934535
0003d0 db e6 ba bc 10 d6 51 3d 94 46 b4 bd ba e5 9d bd
       -0.022815159 0.051229537 -0.08802524 -0.077098325
0003e0 8e 2b 19 bd 4d 3e 19 3d ec 9c 0c 3d c1 cd 1f bd
       -0.037395053 0.03741293 0.03432934 -0.03901458
0003f0 f1 3a 2f 3b c8 ef 1a 3d dd 79 c0 3b 0c e3 27 bd
       0.0026738013 0.03782633 0.0058739022 -0.040988013

l1.0.bias f4 [32]
000000 f8 71 5b bc de 0b 5e bd 1a f9 cc bd e3 c9 62 3d
       -0.0133938715 -0.054210536 -0.1000845 0.055368315
000010 14 c7 d7 bb 0e 61 6e 3d 5d 1a a3 b9 e2 6d 72 3d
       -0.0065850113 0.058198027 -0.00031109425 0.059186824
000020 8f 4b 93 bd 5b ea 43 bd 12 24 b1 bd 30 7c c6 bd
       -0.07192146 -0.04783092 -0.08649458 -0.09691656
000030 7f b6 8b 3d 6c 1b 60 bc fb 24 66 bd d5 f2 10 bd
       0.06821918 -0.013678413 -0.05618761 -0.035387833
000040 0c ad a6 bb 60 0e a9 bc 16 87 99 bd ab e9 79 3d
       -0.0050865468 -0.020636737 -0.07496469 0.06101386
000050 bc c9 5a bc 25 58 72 bd 29 96 92 3c 2a 34 46 bc
       -0.013353761 -0.059166092 0.017893868 -0.012097398
000060 56 a2 c9 bc 85 43 82 bd ce 71 c5 bd a2 09 a9 3c
       -0.02461354 -0.063605346 -0.09640847 0.020634476
000070 ff a0 98 bd a0 ff 78 3d 24 6e 94 bd a2 25 e1 bb
       -0.074525826 0.060790658 -0.0724757 -0.0068709413

l1.1.weight f4 [32]
000000 a5 54 77 3f 54 79 71 3f 6d 6d 81 3f 6f 10 86 3f
       0.9661353 0.9432576 1.0111519 1.0473765
000010 ed 0a 7a 3f 8a b8 8a 3f 61 7c 6d 3f 2b 9c 83 3f
       0.9767292 1.0837567 0.9276791 1.0282034
000020 df dc 60 3f 55 fc 8a 3f 9a 1d 72 3f a9 b1 5f 3f
       0.8783702 1.0858256 0.9457642 0.8738046
000030 ee 02 79 3f a0 e4 85 3f 84 07 80 3f 6a 35 73 3f
       0.97270095 1.0460396 1.0002294 0.9500338
000040 32 d5 73 3f 00 76 77 3f 72 45 7c 3f ef dd 71 3f
       0.95247185 0.9666443 0.98543465 0.9447927
000050 29 2f 89 3f 6c c1 83 3f d3 48 80 3f f1 6a 76 3f
       1.0717517 1.0293403 1.0022224 0.9625693
000060 41 5d 7e 3f 99 4e 84 3f 86 e9 8e 3f a9 b0 8e 3f
       0.99361044 1.0336486 1.1165016 1.1147662
000070 62 6d 85 3f 33 ba 6e 3f c5 f7 83 3f 9d ad 80 3f
       1.0424006 0.9325287 1.0309988 1.0052983

l1.1.bias f4 [32]
000000 18 bd d2 bd 20 f5 44 3d 79 32 a7 bc 99 67 68 3d
       -0.10289973 0.048085332 -0.02040981 0.056739423
000010 86 39 46 bd c8 e4 ee 3d 9e fa ea bd dd d5 b3 bd
       -0.048394702 0.1166473 -0.11473583 -0.087810256
000020 84 e6 65 bc d1 6f 83 3d 2c 57 0c 3a b3 9c 70 3c
       -0.01403201 0.06417812 0.0005353566 0.0146857975
000030 4f f6 2a 3c d9 a8 0c 3e 28 da 82 bd 21 18 36 3d
       0.010434701 0.13736285 -0.06389266 0.044456605
000040 2d b2 f9 3c 68 cd 14 bd 08 86 a2 3c be 6f 33 3d
       0.030480469 -0.036328703 0.019839302 0.043807738
000050 92 bb 9d 3d d2 02 07 3d f0 b2 d3 bc 0c 4a 72 bd
       0.07701792 0.032961674 -0.02584216 -0.059152648
000060 61 0e 0c bd ca ec 94 3d a3 94 33 3d 09 cf 14 3d
       -0.0341934 0.072717264 0.043842923 0.036330257
000070 8d 98 be 3d 2e 71 1c 3d 7f 59 87 3d b6 35 6e 3d
       0.093064405 0.038193874 0.06608867 0.05815669

l1.1.running_mean f4 [32]
000000 27 a6 7c be c9 36 80 bf 09 89 51 3e e8 cd e5 3d
       -0.24672757 -1.0016719 0.20462431 0.11220914
000010 a3 b1 40 3e b4 05 b1 3e 15 5b 72 3f 5e 0c 66 3e
       0.18817763 0.34574664 0.9467023 0.22465655
000020 22 76 fb be 4b 58 c6 3e d8 13 ab be 09 16 de be
       -0.49113566 0.38739237 -0.33413577 -0.43376186
000030 a6 19 8b 3f 0c 52 74 3e 21 40 87 be 40 35 fc bd
       1.0867202 0.23859423 -0.26416114 -0.12314844
000040 3e bb bc 3d 24 f6 db 3e 29 6b 83 be 5a 33 e6 be
       0.09215401 0.42961228 -0.25667694 -0.44961053
000050 40 f4 eb 3e 8f 7f 93 3e 55 5e 31 3e ff c5 52 3f
       0.46084785 0.28808257 0.17321141 0.8233337
000060 39 22 68 bf 70 72 e9 bc a1 e7 ca 3e 9e 68 76 3f
       -0.9067722 -0.02849695 0.39629844 0.96253383
000070 ed 89 26 3e ed 89 5e be ee 87 cb 3e 95 c7 46 3e
       0.16263552 -0.21732302 0.39752144 0.19412072

l1.1.running_var f4 [32]
000000 ae 64 32 3d 22 ac 98 3e 58 84 f2 3c 29 fb fd 3b
       0.043553047 0.29818827 0.029604122 0.007750888
000010 e3 f4 a9 3c 1f ac 11 3d c7 45 16 3e 99 ed 40 3c
       0.020746654 0.035564538 0.14675055 0.011775398
000020 08 f3 fa 3c b0 7f 49 3d fb 16 dd 3c ff 4c 80 3d
       0.030633464 0.049194038 0.026988497 0.06264686
000030 d5 8c 59 3e f2 f3 db 3c af 5d 02 3d c7 e3 9d 3c
       0.2124513 0.02684972 0.031827625 0.019273652
000040 e6 ed 39 3c f7 f1 2d 3d 37 d3 3f 3c 6c db cc 3d
       0.011348223 0.042467084 0.011708072 0.10002789
000050 d5 8c 57 3d c4 58 13 3d f2 6d ef 3c 1c 77 db 3d
       0.052624542 0.035973325 0.02922723 0.10716078
000060 e6 49 d1 3d 63 0e 14 3c 74 ca 54 3d f2 b5 0d 3e
       0.10219173 0.009036633 0.051950887 0.13838938
000070 4e 33 5f 3d 50 57 88 3c 74 51 57 3d a6 f7 80 3c
       0.054492287 0.016643196 0.052567914 0.015743088

l2.0.weight f4 [32, 32, 3, 3]
000000 92 85 b9 bc 0f 42 d8 bb 78 26 f6 bb b5 05 d3 bc
       -0.0226467 -0.0065996717 -0.00751191 -0.025759557
000010 78 3d 40 3c 35 6c 5f 3c 35 b7 56 bc 30 e7 33 3d
       0.011733405 0.013636638 -0.013105203 0.04392165
000020 79 49 ed bb 68 5c 5a bc 12 0f be 3c 1d ce 54 3d
       -0.0072414246 -0.013327695 0.023200545 0.051954377
000030 14 2a 51 3d 84 db 62 bd 00 14 2a bd 1d 71 2c 3b
       0.05106552 -0.055385128 -0.04152298 0.0026312538
000040 61 c0 10 bc 4e 35 11 3d 26 f9 83 3c 11 13 90 bd
       -0.008834929 0.035451226 0.016110014 -0.07034887
000050 d7 d7 c5 3c dc d8 8a 3c ff 7f 1f 3d 0f f8 25 3c
       0.024150772 0.01694911 0.038940426 0.010129943
000060 a5 6e c1 3d 07 b9 0b 3d 31 50 ab 3d a4 26 02 3e
       0.09444932 0.034112003 0.08364905 0.12710053
000070 17 f1 6e 3d f2 82 38 bd 84 0a 89 3d e5 e3 b7 3d
       0.05833539 -0.045046754 0.06691459 0.08979014
000080 e6 ab 64 bc e1 72 b4 bd 83 6f 5c bd c8 ad 89 bd
       -0.013956999 -0.08810974 -0.053817283 -0.06722599
000090 43 f2 08 3d d4 ae 41 3d b3 5d 92 3d 67 74 3a bd
       0.033434164 0.04728587 0.07146778 -0.045521166
0000a0 7b f9 e1 bb fa e7 61 3d 5b e6 09 bc c6 69 e9 bc
       -0.0068961955 0.05515287 -0.008416737 -0.02849282
0000b0 60 70 5a 3d a2 79 7e bd 2e 5e d5 bc e5 88 70 39
       0.053329825 -0.062127717 -0.026045885 0.00022939181
0000c0 25 6f 64 bd 37 8d 6f bd 2c 69 b4 bc d8 09 c4 bc
       -0.05577006 -0.058484282 -0.022022806 -0.023930475
0000d0 2c e3 24 bc b9 0b a4 3c 94 07 11 3c db b4 af 3c
       -0.010063928 0.020025121 0.008851904 0.021448543
0000e0 d5 85 2c bd cb bb 49 bd a4 ab 73 bd 30 cf 5e 3d
       -0.04211982 -0.04925136 -0.05948986 0.05439681
0000f0 8d 65 ca bc dc 65 15 3d 0e bb 47 3d 9d 95 41 bd
       -0.024706626 0.036474094 0.048762374 -0.047261823
000100 cf d8 64 3c b9 99 26 bd 7d 8e 55 3d 72 26 01 3d
       0.013967707 -0.040673945 0.05213784 0.031530805
000110 c0 43 bd bc bf c5 2c 3d c9 98 ab ba 80 3d 9f bc
       -0.023103595 0.042180773 -0.0013091798 -0.019438505
000120 4f 17 d7 bb 4d 96 6b bc 62 e8 f9 bc 9e 16 a6 bb
       -0.006564058 -0.014379096 -0.030506317 -0.005068614
000130 bb c6 3b bc 82 3f 68 3d 95 da 29 3d e0 cd 77 bd
       -0.011460955 0.05670119 0.04146822 -0.060499072
000140 4e 4d 67 bd 5b dc 81 bc 2c 1d a0 bd 64 0f d0 bc
       -0.056470208 -0.015852144 -0.07818064 -0.025397964
000150 44 5a 2b 3d 60 29 98 3b 79 be a8 3c 10 03 a5 3c
       0.04183413 0.004643604 0.020598637 0.020143062
000160 a9 91 00 bd 11 0a 7d ba ab 33 4e bd e9 fe a6 bc
       -0.031388912 -0.0009652684 -0.050342243 -0.020385223
000170 15 7c c3 bc 3c e3 66 3d ec 9d fa 39 33 64 c4 bb
       -0.023862878 0.05636905 0.00047801377 -0.00599339
000180 e5 1e 24 bd d4 f2 18 bc 3f 2f c3 3b 91 da bd 3c
       -0.040068526 -0.0093352385 0.00595656 0.02317551
000190 53 2a 91 3d a3 d8 27 3d c5 61 a5 3b 45 b6 66 3d
       0.07088151 0.040978085 0.0050470554 0.05632617
0001a0 80 4f ad bc 1c 21 6d 3b e8 e1 96 3c 20 46 b5 3c
       -0.021156073 0.0036183065 0.018418267 0.022128165
0001b0 80 f7 a5 3b 31 8c 84 3c 65 c5 a3 3c 05 57 96 3c
       0.0050649047 0.01618013 0.019991586 0.018352041
0001c0 cf d5 71 bc 1f b8 64 bd 35 71 0d bc 84 e5 49 bd
       -0.014760449 -0.055839654 -0.008632948 -0.04929115
0001d0 c3 3e bb 3a f6 4e 9d bd be 10 e1 bc 0b 26 08 3d
       0.0014285672 -0.07681076 -0.027473804 0.033239406
0001e0 99 ee 8a bd d7 e4 28 3d 54 1b dd 3b 68 e1 03 bd
       -0.0678379 0.041233864 0.0067476425 -0.032197386
0001f0 f5 ef 7e 3d 70 1a 81 3d f0 dc 1b bc d2 02 3b bb
       0.06224056 0.06303871 -0.009513125 -0.0028535617
000200 34 88 1c 3c e2 89 42 bd f9 e7 42 3c ee dc 37 3d
       0.009553958 -0.047494777 0.011896127 0.04488843
000210 fa 9e 4b 3d c8 a9 4e bd 23 45 00 3b bb 48 5d 3d
       0.04971216 -0.050454885 0.0019572459 0.05402444
000220 fc b5 09 bd 2d 2d 45 3d 52 f5 40 3c 6e 38 57 3c
       -0.03362082 0.048138786 0.011777239 0.0131360125
000230 df eb a9 3c 23 fe 0b 3d 9d 93 94 3c f5 ec 06 bd
       0.020742355 0.03417791 0.018136794 -0.032940824
000240 b3 36 8d 3d 75 d8 a7 bc 70 ee 8c 3b 80 e5 01 bd
       0.06895199 -0.020488957 0.004300885 -0.03171301
000250 e5 5d 16 bb 2a 55 82 3d 3d e6 9e 3c 7d da 0a 3d
       -0.002294415 0.063639 0.019396896 0.033899773
000260 56 4e 20 3b 56 11 0b bd 77 ba 39 3d 05 3c 32 bd
       0.0024460754 -0.03395208 0.045343842 -0.04351427
000270 23 fd 3d 3d fd 1c 0b bd c0 b3 3d 3d 0c d0 d1 3b
       0.046383988 -0.033963192 0.046314 0.006402975
000280 b7 a5 0f bd 92 c4 93 3d 27 17 e6 3c 40 15 ee bc
       -0.035070147 0.07215227 0.028087212 -0.029062867
000290 b3 24 90 bd ac ea 99 3c 19 64 11 3d c4 57 20 3d
       -0.0703825 0.018788658 0.03549585 0.0391462
0002a0 97 66 9d bc 16 ff 33 3d 32 ef 5b 3d 98 e0 6c 3c
       -0.019213958 0.04394444 0.05369491 0.014457844
0002b0 a1 23 f6 bc 1e 3a 64 3d 59 ed 75 bc e2 1b 3e 3c
       -0.030046286 0.055719487 -0.015010201 0.0116033275
0002c0 d5 7a 2a bd 7d d1 be 3c 90 89 69 bd 54 d5 55 3c
       -0.041621048 0.023293251 -0.057015955 0.01305135
0002d0 56 40 5c bd 72 6e b1 bd 1f 8c 67 bd bf a0 87 3d
       -0.053772293 -0.08663644 -0.056530114 0.06622457
0002e0 78 e0 34 3d b2 7d 0e bd dc fa 73 3d 70 97 b5 3c
       0.044159383 -0.03478784 0.05956541 0.022166938
0002f0 b7 53 87 bb b6 5a 73 bd 64 71 a9 bb 42 1c 81 3d
       -0.0041298526 -0.05941268 -0.005170988 0.06304218
000300 58 4f 10 bd 32 b6 55 3d b7 1f 90 3a c3 92 d8 bc
       -0.035231918 0.052175708 0.001099578 -0.026437169
000310 8e 4c 8b bc 09 48 5a 3d d6 92 17 3d ef 86 2c bd
       -0.017004278 0.053291354 0.037005268 -0.04212087
000320 00 91 b7 bd fb 8f 5a 3d 6f a5 21 3c f2 e9 f1 bc
       -0.089632034 0.053359967 0.009866103 -0.0295305
000330 4f 50 aa 3d 52 c6 bb 3d 3b 21 85 3d e3 3c 5c 3d
       0.08316099 0.09168686 0.06500479 0.053769004
000340 0c 5b 58 3d 14 80 86 bd b0 b8 36 bd f8 8c b1 3c
       0.052821204 -0.06567398 -0.044609725 0.021673664
000350 a8 50 ca 3c 27 3b cb bc 3a 63 1d bb 8b 88 2e bc
       0.024696663 -0.02480848 -0.0024015442 -0.010652672
000360 e6 29 0d bc 75 cf d0 bc a7 27 a0 bc 4e 59 ef 3c
       -0.008615946 -0.025489548 -0.019550158 0.029217388
000370 3e c1 81 3d 96 e5 92 bc bc c9 df 3c 95 b8 5a 3d
       0.06335686 -0.01793174 0.027317874 0.053398687
000380 93 ff f7 bb 93 0f 01 3c 01 8b 36 3d e0 a1 89 bd
       -0.0075683086 0.007877248 0.04456616 -0.06720328
000390 79 3f fb 3b ea 5d d2 3d ae b4 45 3b 31 93 7c bc
       0.0076674786 0.10271819 0.0030167508 -0.015415953
0003a0 78 61 76 3d a5 02 dd b9 7c b0 e0 3a 4d 09 84 bc
       0.060151547 -0.00042154375 0.001714244 -0.016117716
0003b0 dc 98 f5 bb 5e b0 15 bd e5 28 a5 bd f8 21 74 3d
       -0.007495029 -0.03654515 -0.08064441 0.059602708
0003c0 25 84 32 3d 01 64 5e bd 28 a4 f5 bc c1 92 5a bc
       0.043583054 -0.05429459 -0.029985502 -0.013340653
0003d0 60 c2 18 bd f4 e5 72 bd af 3d f7 bc 7a ff 72 3d
       -0.037294745 -0.05930133 -0.03018078 0.059325673
0003e0 19 7a a3 bb 56 35 97 3d 57 4a 4b 3d 22 f8 02 3d
       -0.0049889204 0.0738322 0.049631443 0.03197492
0003f0 d8 20 75 bd 0c 9d c4 3c 4e c3 e8 bc a0 f0 60 bd
       -0.059845775 0.024000667 -0.028413441 -0.054916978

l2.0.bias f4 [32]
000000 11 5b d2 bc 00 6f 6e 3d ba 01 30 3d bc 97 3d bc
       -0.02567819 0.058211327 0.042970397 -0.011571821
000010 b0 8a 0b 3b d7 8a 98 3c 54 ca c4 3c 76 6e 64 bd
       0.002129238 0.018620891 0.024022259 -0.055769406
000020 d5 c1 72 bd e0 77 42 3d 9c fb 3f bd 89 ae bc bc
       -0.059266884 0.047477603 -0.046870813 -0.023032444
000030 ae 67 5a 3d f7 44 80 bc d5 70 57 3d e0 73 a1 bc
       0.053321533 -0.015657885 0.05259784 -0.019708574
000040 9e 12 16 bc d0 68 0e bd 97 07 29 3d f8 08 4b 3d
       -0.009159712 -0.034767926 0.041267004 0.0495691
000050 4a d1 32 bd ac 73 9c bc b0 33 8d bc fd 5e e9 3c
       -0.043656625 -0.019098125 -0.01723656 0.028487677
000060 01 d3 5e bd 8b 58 08 3d ea e0 26 3c 79 9d f5 ba
       -0.054400448 0.033287566 0.01018546 -0.0018738947
000070 65 0a 40 3d e0 9b b7 3c 56 fd ef bc 44 e2 a5 bc
       0.046884913 0.022413194 -0.029295605 -0.020249493

l2.1.weight f4 [32]
000000 0c 65 78 3f b4 07 7f 3f cd bc 7a 3f bd 32 7a 3f
       0.97029185 0.9962113 0.9794434 0.9773367
000010 0e 89 82 3f da c6 70 3f 7a c1 7b 3f 6b af 74 3f
       1.0198076 0.94053423 0.98342097 0.95580167
000020 4b 75 73 3f 20 71 80 3f 76 1f 84 3f 57 bd 7f 3f
       0.9510085 1.0034523 1.0322101 0.99898285
000030 fd e1 7c 3f 1e f1 79 3f f6 9c 7d 3f 18 ab 7a 3f
       0.9878233 0.9763354 0.9906763 0.9791732
000040 50 3e 80 3f bc b0 8d 3f 57 81 7d 3f 75 fb 80 3f
       1.0019016 1.106956 0.9902548 1.0076739
000050 eb 53 72 3f ca 7e 80 3f 0d b2 7b 3f 37 c3 7a 3f
       0.946593 1.0038693 0.9831856 0.97954124
000060 a9 f1 83 3f 29 85 7e 3f 20 25 70 3f 02 5a 8a 3f
       1.0308124 0.99421936 0.9380665 1.0808718
000070 32 41 78 3f 75 53 84 3f 7a b8 8c 3f fb 71 75 3f
       0.9697448 1.0337969 1.0993798 0.95877045

l2.1.bias f4 [32]
000000 e0 72 b1 bd 03 a4 15 3b 0a 70 5e bd b5 00 a5 bb
       -0.08664489 0.0022833354 -0.054306068 -0.0050354847
000010 a2 60 1d bc 28 5d 86 bd ee 2d e4 3c f8 6c 06 be
       -0.009605559 -0.06560737 0.027853932 -0.13127506
000020 ef f6 df 3b 2f a2 27 3d f3 ed e6 bd 68 a6 14 bd
       0.0068348567 0.040926155 -0.11275854 -0.03629151
000030 a7 ed 52 bd 3d 0c 4f bd d0 7e e4 bc ab 14 85 bd
       -0.051496174 -0.05054878 -0.0278925 -0.06498083
000040 53 cf 41 be c8 5d 81 3d 71 ee 06 be da dc 14 bc
       -0.18926744 0.063167155 -0.13176896 -0.009085858
000050 08 95 82 bd 9d df 21 bc eb 85 e8 bd b2 28 1b bd
       -0.06376082 -0.009879974 -0.11353668 -0.037880607
000060 7e 60 8a bd 28 dd 2c bd 5d e9 47 3c 89 7f 2d 3d
       -0.06756686 -0.0422031 0.012201634 0.042357955
000070 c1 49 a2 bd 2b ca 15 bd a3 ac 56 be 84 45 25 bd
       -0.07924224 -0.036569756 -0.20964293 -0.0403495

l2.1.running_mean f4 [32]
000000 2b f8 c1 3d bd df 34 be a4 71 62 bf 7c 12 98 be
       0.094711624 -0.17663474 -0.8845465 -0.29701602
000010 a4 b4 76 3e 28 a9 62 be f0 20 3c 3f 30 8e b7 bd
       0.24092346 -0.2213484 0.7348776 -0.08962667
000020 48 27 fb be 32 f1 a7 3d 4e 66 e6 3d 77 4b c5 be
       -0.49053407 0.08200301 0.11249982 -0.38534138
000030 79 b2 10 be f2 63 29 bf 24 a7 08 bf 0b b1 5f 3e
       -0.14130582 -0.6616813 -0.53380036 0.2184488
000040 13 f6 b9 3d 59 05 b8 bd 53 b0 4d 3d cd 93 5a be
       0.09080138 -0.08985395 0.050216984 -0.21345444
000050 72 c1 c0 3d 97 24 40 be 1e 4e 59 3f 30 b0 44 bf
       0.09411897 -0.18763958 0.8488482 -0.7683134
000060 91 e1 a9 3e ff 9b 10 3f d5 3d e8 be ab 95 98 3d
       0.33179906 0.5648803 -0.45359674 0.07450422
000070 d8 7c 4d 3e 30 10 39 3e 5d 7d ab 3a b7 32 6e 3f
       0.20067155 0.18072581 0.0013083626 0.93046135

l2.1.running_var f4 [32]
000000 a9 ff 7f 3e 66 50 d7 3e 6f 73 cf 3e 87 76 2f 3f
       0.2499987 0.42053527 0.40517756 0.68540233
000010 fa 1b b4 3e fc 08 33 3f c9 4d 9d 3e 41 65 60 3e
       0.35177594 0.69935584 0.30723408 0.21913625
000020 1a 23 2b 3e 77 85 a9 3e 63 66 3a 3e d8 59 7a 3e
       0.16712609 0.33109638 0.1820312 0.24448335
000030 d1 88 c6 3e 90 30 4d 3f 3c 96 8e 3f 7e 3a 63 3e
       0.38776258 0.80152225 1.1139598 0.22190282
000040 6c 93 09 3e 3a b8 5b 3e e3 69 81 3e 57 14 96 3e
       0.13435143 0.21456996 0.25276098 0.29312393
000050 7c f8 0b 3f 24 8d 29 3e af 3b 8d 3e 33 9c 72 3f
       0.5467603 0.16557747 0.27584597 0.9476959
000060 72 71 23 3e d1 09 c3 3e 28 71 01 3f 3f 9f 41 3d
       0.15961245 0.38093427 0.5056329 0.04727101
000070 fd 52 ec 3e bb 43 b9 3d 11 46 ef 3d 17 24 c5 3e
       0.46157065 0.09046122 0.11683286 0.38504097

l3.0.weight f4 [32, 32, 3, 3]
000000 fc 59 31 bc 5d e9 96 bb 8d fa cf 3b d4 b6 26 bd
       -0.010824677 -0.004605456 0.0063470067 -0.040701702
000010 5f 52 2c bc e3 d0 95 3b d2 90 76 bc 4c 08 51 bd
       -0.010517686 0.0045720204 -0.015049176 -0.051033303
000020 bd 0c 90 3c a8 91 be 3b e9 7d 7b bd 9b 69 4a bc
       0.0175842 0.0058157034 -0.061399374 -0.01235428
000030 7f 9b fe bc 8b 04 15 bd 48 5d 03 3d 8f b7 35 3c
       -0.031080006 -0.036381286 0.03207138 0.011091127
000040 39 35 10 bd 81 9d 00 bd 9d 2e 9f 3d 95 a1 db 3c
       -0.035207007 -0.031400207 0.07772563 0.026810447
000050 09 c1 33 bc a6 35 8b 3c b2 3b 0f bd 82 0b 3b bd
       -0.010971316 0.016993355 -0.03496904 -0.04566527
000060 90 c1 1c 3d b5 c0 83 bc 09 7b 33 3d 2b 0a 67 3c
       0.038270533 -0.0160831 0.043818507 0.014101545
000070 8f f6 20 3d 7d 73 ae bc ce b8 2a 3d 73 f1 5c 3d
       0.039297637 -0.021295303 0.04168015 0.0539412
000080 b8 11 8e bb c9 bd a8 3d 46 15 ea 3c 4d 79 13 bd
       -0.0043356083 0.08239324 0.028574597 -0.036004353
000090 1a f4 ca bd f4 a0 fb 3c 77 72 bd 3b 38 a5 16 be
       -0.0990984 0.030716397 0.0057814675 -0.14711463
0000a0 2f 24 f1 bc 4e 3c 1f bd 4c 86 02 be 83 6d 5d bd
       -0.029436199 -0.03887587 -0.12746543 -0.054059517
0000b0 bd c8 2e bd 3e 85 5d 3d de 9c 8a bc cf f5 c7 3b
       -0.042671908 0.054082148 -0.016920503 0.0061023007
0000c0 ee f0 1c bd bd 51 06 bd 6d f4 14 3d 53 bf 31 3c
       -0.038315706 -0.032792795 0.036365915 0.010848838
0000d0 43 1c 48 3d 01 19 82 bd 0c 43 8b bc 75 98 19 ba
       0.048855077 -0.06352425 -0.016999744 -0.00058592047
0000e0 cb 22 31 3d 2b a8 96 3d 13 81 46 bb 75 d2 90 39
       0.04324607 0.07356294 -0.0030289337 0.00027622623
0000f0 df 9a c8 3c d7 55 72 3d ed 84 9c 3d 37 0f 68 bd
       0.02448791 0.059163895 0.07642541 -0.056655135
000100 ef f3 2c bd 02 01 d9 3c 77 cb 24 bd cf 3d 98 bd
       -0.04222482 0.026489738 -0.0402331 -0.07433664
000110 64 87 f9 3a 27 2f 87 bc fb 7d 5e bd a4 83 9b bb
       0.0019037542 -0.016501976 -0.054319363 -0.0047459174
000120 f9 ee 10 bd a1 58 12 3d c0 9b 28 3d aa dc 22 3d
       -0.035384152 0.035729054 0.04116416 0.039761223
000130 e7 82 c1 3c d2 de 7b 3d fa 0f 34 3d f9 fe fd 38
       0.02362199 0.061491795 0.04396055 0.000121114725
000140 30 40 02 3d b6 3b a8 bc ea 3c 67 3d c8 fc 49 3d
       0.031799495 -0.020536285 0.056454577 0.049313337
000150 37 b7 96 3d 3f 24 05 3d 9e 8e d0 b9 7f 4b 50 bc
       0.07359164 0.03250527 -0.0003977911 -0.012713312
000160 31 18 40 3d 7a 5b d4 bb a4 33 53 bd c1 96 ec bc
       0.04689807 -0.0064806314 -0.05156292 -0.028880479
000170 b6 c9 89 bc 3c cf 0e bc d7 ad 03 bd a6 41 0a ba
       -0.016819816 -0.008716401 -0.03214821 -0.00052740646
000180 11 93 ad bc 0d 9c 0e bc f5 91 86 bb b2 5b 9a bc
       -0.02118829 -0.008704198 -0.004106755 -0.018842552
000190 97 1a 84 bd 30 78 82 3c 97 40 8b 3b 65 d1 63 bd
       -0.06450384 0.01592645 0.004249643 -0.055619616
0001a0 7b ef 1d 3c 67 84 21 3b 45 e0 76 bc 65 4f 3e bd
       0.009639616 0.0024645568 -0.015068118 -0.046462435
0001b0 4e d2 02 bd 9b 0e 15 3d 05 2a 70 3d 49 9a 90 3c
       -0.031938843 0.036390882 0.058633823 0.017651694
0001c0 4b 2e 8b bc 2c b2 ea bc 3e 03 89 3d c7 8c 17 3c
       -0.016989848 -0.028649412 0.066900715 0.0092498725
0001d0 1a 06 77 3d 69 f8 2f 3d 0c 8f 26 bd 4f 9c c9 3b
       0.060308553 0.04296151 -0.040663764 0.0061526666
0001e0 c5 a6 7e 3b fb a1 bf 3c 31 5f 62 3c 45 2a 64 3c
       0.0038856727 0.023392668 0.013816641 0.0139260935
0001f0 d3 37 0f 3c fd 0c 8f bb a3 3b 6a bd 5f 3e ef 3a
       0.008741337 -0.004365562 -0.05718578 0.0018252841
000200 ab 9f 25 3d 12 67 78 3c 96 ca 03 ba ed df 1b bc
       0.040435474 0.015161293 -0.0005027441 -0.009513837
000210 79 eb 79 bd 14 b9 87 3d 08 ec c5 bc 19 c2 4a bd
       -0.06101558 0.06627098 -0.0241604 -0.049501512
000220 3d 91 61 bd 7d 94 11 3c b7 1e a5 bd 15 63 9a 3c
       -0.05507015 0.0088855 -0.08062499 0.018846074
000230 42 25 19 3c 2d f3 8a bd 21 c6 d6 bd 4e c9 d3 bc
       0.009347262 -0.06784663 -0.10487009 -0.025852825
000240 d4 71 da bd 0b bc 98 bb ae a4 f6 bc 77 23 ad bd
       -0.10666242 -0.0046610883 -0.030107822 -0.0845403
000250 46 5b b9 3c 8b b8 f1 3c a6 13 d3 bd 65 8d 6e bd
       0.02262653 0.029506942 -0.10306482 -0.058240313
000260 c8 a6 7e bc 90 3c 86 bd f6 74 6a bd dd 9c 5e bc
       -0.015542693 -0.0655452 -0.05724045 -0.013587204
000270 9b 83 eb bd 50 7a 81 bd a4 bd df bc 55 57 8a bc
       -0.11499711 -0.063221574 -0.027312107 -0.016887346
000280 fc b3 92 bd 99 28 b9 3c 12 1e 04 be 4f aa cc bc
       -0.071632355 0.022602366 -0.12902096 -0.024983553
000290 91 41 56 bb 0a 75 41 bd 80 9d d1 bc 4f 3d a9 3d
       -0.003269289 -0.047230758 -0.025587797 0.08263647
0002a0 a1 3e d8 bd 8a 25 aa 3c 75 46 05 bd 6d ca 4b 3d
       -0.105588205 0.020769853 -0.032537896 0.049753595
0002b0 3d ea 08 bd 4d b4 3e 3c 4d 46 73 bc 59 0a 63 3d
       -0.033426512 0.011639667 -0.014848304 0.05542979
0002c0 9e aa 4a 3d 43 45 11 bd 6a 38 4d bd d5 fe 8f bc
       0.04947912 -0.035466444 -0.05010263 -0.017577568
0002d0 88 14 76 bb 04 2b 3e bd 47 c5 0d 3c 1a 73 1b 39
       -0.0037548859 -0.04642774 0.008652992 0.0001482483
0002e0 60 5f 8e bc 0c 7c 2c bd 8b f9 a8 3c 0e be 3d 3d
       -0.017379463 -0.042110488 0.020626804 0.04632383
0002f0 40 54 15 3d 80 1f 4c 3d 47 71 04 3d 1c b3 1e 3c
       0.0364573 0.04983473 0.032334592 0.009686258
000300 84 84 2c 3d ed b9 f9 3c 58 16 75 bc c7 aa 38 3d
       0.042118564 0.030484164 -0.01495894 0.04508474
000310 d2 cb ac bb e2 b0 c6 bb b0 81 a3 bd 6f 35 28 3c
       -0.0052733207 -0.0060635665 -0.0798372 0.010266646
000320 f3 d2 54 bc b4 7a 82 bd b6 bc 5e bc 4c de 90 3c
       -0.012989747 -0.0637106 -0.013594797 0.017684124
000330 50 d8 4d bd d2 c0 62 3d 6f ad d9 3a 12 30 d7 bc
       -0.05025512 0.05535967 0.0016607473 -0.026268039
000340 90 04 79 3c 12 ed d7 3c 6c f2 95 bc 6c 79 99 bc
       0.015198842 0.026358161 -0.018304072 -0.018734656
000350 15 0b 1a 3d 83 62 e3 bc b7 71 e8 bb 00 7e 4d bd
       0.037608225 -0.027756935 -0.007093634 -0.05016899
000360 6e 15 eb bc a3 f9 32 bc df 3b aa 3d e4 58 74 bd
       -0.028696742 -0.010923776 0.08312201 -0.059655085
000370 7d 53 88 bc 26 83 94 3d 28 1d 16 3d 5c 6a 89 3c
       -0.016641373 0.07251577 0.0366489 0.016774349
000380 ea 5e ca 3c ae ca 6c 3c 97 30 28 bd 2a 2a 82 3d
       0.024703462 0.0144526195 -0.041061964 0.063556984
000390 57 97 20 bd ed 97 44 3d 46 bb bd 3a 2c 50 af 3c
       -0.03920683 0.04799645 0.0014475367 0.021400534
0003a0 ce ca 62 3c e8 68 f9 3c cb 34 1f bd 0e 4e 67 3b
       0.013842298 0.030445531 -0.038868707 0.0035294327
0003b0 31 cf 0f bd d2 89 19 bd cc 3c 84 bd 1f 45 13 bb
       -0.035109702 -0.03748495 -0.064569086 -0.002247162
0003c0 c8 77 ca 3c f7 92 18 3b 2f a3 3d bd 60 d1 1d 3d
       0.02471532 0.0023280957 -0.046298202 0.038529754
0003d0 d6 b9 b0 3c 3c 3d 6c bd 59 75 f2 bc 12 8c 95 bc
       0.021572988 -0.057675585 -0.029596971 -0.018255267
0003e0 3d b1 ba bb 60 2f 04 bd 65 da dc 3c 1d 13 d6 bd
       -0.005697398 -0.032271743 0.026959607 -0.10452864
0003f0 23 3a 8e 3d 39 c5 1d bd b4 01 d5 3b 31 0b 41 bd
       0.069446824 -0.038518164 0.006500447 -0.047129814

l3.0.bias f4 [32]
000000 85 20 05 bd ca d3 36 3d 3e 1b 0e 3d f9 47 6e bc
       -0.032501716 0.04463557 0.03469395 -0.014543527
000010 9e 70 e6 bb 78 7d a8 3c e1 f3 da bc b2 45 36 3d
       -0.007032468 0.02056764 -0.026727619 0.04450006
000020 64 76 4a 3d cc 59 41 3d a7 76 b3 3c d3 fe b1 3c
       0.049429312 0.047204778 0.021907164 0.021727955
000030 30 e3 f0 bc 84 dc 1d bd f6 c1 43 3d 54 bd 5c bd
       -0.029405206 -0.03854038 0.047792397 -0.053891495
000040 10 7b ea bc c3 0d 49 bc 67 bd d9 3c 8c 39 00 3d
       -0.028623134 -0.012271347 0.026579572 0.03130488
000050 38 e8 7e bd 2d 96 cd bc 61 ca 4e bc 9f 91 5e bd
       -0.06223318 -0.025096023 -0.012621493 -0.054338094
000060 8c 59 71 3c bf 9c a5 bc 6b 6b 95 ba 8d cf 6d 3c
       0.014730822 -0.020216344 -0.0011399811 0.014514816
000070 38 d9 de 3c e4 06 b8 3c 40 39 a3 bb 0d 0d 1c 3d
       0.027203187 0.022464223 -0.00498119 0.038098384

l3.1.weight f4 [32]
000000 4d 25 7c 3f b4 c8 83 3f b3 75 7d 3f 41 71 7a 3f
       0.98494416 1.0295625 0.9900772 0.9782906
000010 32 aa 7e 3f 52 00 82 3f d6 e3 81 3f 49 a1 6f 3f
       0.9947845 1.0156348 1.0147655 0.93605477
000020 67 10 7a 3f 5c da 7c 3f 49 51 71 3f d9 43 7c 3f
       0.9768128 0.9877069 0.94264656 0.9854103
000030 c8 a8 6e 3f 21 ff 7a 3f 26 e5 7b 3f 00 6b 80 3f
       0.9322629 0.98045546 0.9839653 1.0032654
000040 ab 33 79 3f 4c 2e 7a 3f ff a5 7f 3f ea 0a 8a 3f
       0.97344464 0.97726893 0.99862665 1.0784581
000050 c7 09 82 3f 52 7b 81 3f 03 1d 6e 3f c0 a3 7f 3f
       1.0159234 1.0115759 0.9301302 0.9985924
000060 9e 2c 81 3f 50 1d 7a 3f d8 e3 87 3f 3c 62 75 3f
       1.0091741 0.9770098 1.0616407 0.9585302
000070 97 0f 7e 3f e3 28 80 3f 85 f9 75 3f d9 33 81 3f
       0.9924254 1.0012478 0.9608386 1.0093948

l3.1.bias f4 [32]
000000 17 79 c0 bd 7a 76 da bd 35 60 be bd 15 97 d0 bd
       -0.09398096 -0.10667129 -0.09295694 -0.101850666
000010 5b a0 64 bd cb cd 26 be be b1 8f bd ac 05 b8 bd
       -0.05581699 -0.16289441 -0.070163235 -0.08985457
000020 0a 5c c9 bd 97 4f 4a be b8 b2 22 be 97 06 b7 bd
       -0.09832008 -0.19756924 -0.15888488 -0.08936804
000030 7c fc c8 bd 4e 4f 4f be 80 22 b3 bd 1b fb 2a be
       -0.098137826 -0.20245096 -0.08746815 -0.16697352
000040 fc 58 f9 bd e8 23 11 be 82 60 fb bd d0 e1 35 be
       -0.121751755 -0.14173853 -0.12274267 -0.17761922
000050 9c 24 34 be 25 e3 2b be b8 ae 1b be 8f 11 4e be
       -0.1759209 -0.16785868 -0.15203369 -0.20123886
000060 f9 6b db bd bb 89 97 bd 56 39 1a be ab 85 3f be
       -0.107139535 -0.07399317 -0.15060934 -0.18703334
000070 e2 1d 0c be 4f 39 42 be fc 18 de bd bb ae 1d be
       -0.13683274 -0.18967174 -0.10844609 -0.15398686

l3.1.running_mean f4 [32]
000000 fc 2d d7 be fc f8 1f 3f 0d 9f 8d 3d 08 f5 01 3e
       -0.4202727 0.62489295 0.06915102 0.12691128
000010 53 a7 ba be ef d6 53 3e c9 ca f1 bd 2d bd 0d bd
       -0.36455783 0.2068746 -0.11806256 -0.03460424
000020 e0 ac 05 3e d2 ca 20 bd 50 ec 07 3f b1 85 3f be
       0.13054228 -0.039255925 0.5309496 -0.18703343
000030 c9 e7 e8 be 24 ab 2b 3f d7 3b 5b 3d c0 b3 0a 3f
       -0.45489338 0.67058015 0.053523865 0.54180527
000040 fd 5e d2 3e 09 46 5c 3e 10 ba fa 3d 0e 59 bd 3e
       0.41088095 0.21511091 0.1224252 0.36982006
000050 ca 4c b5 3c b1 92 9c be fa f4 85 be fa a5 84 3e
       0.022131342 -0.30580667 -0.26163465 0.2590788
000060 9d 5c 59 3e f5 78 47 bd 3c a1 f1 3e 4f 3d ca 3e
       0.21226735 -0.048699338 0.47193325 0.394999
000070 9a 5c 05 3f 63 c3 62 3d 23 34 4c 3e 12 21 f7 3e
       0.52094424 0.055362117 0.19941764 0.48267418

l3.1.running_var f4 [32]
000000 9d cc f5 3e 52 1d 82 3e 71 5b 52 3e 38 af b6 3e
       0.4800767 0.25412995 0.20542695 0.35680556
000010 4d e5 b1 3e 55 99 8c 3e a5 f8 6c 3e 07 9f 67 3e
       0.34745255 0.27460733 0.23141725 0.22619258
000020 a7 38 d6 3e 9a 55 d0 3e 2d 4b a8 3e 69 0b a4 3e
       0.41840097 0.4069031 0.32869855 0.32039955
000030 4c 0f 9f 3e 31 0d 53 3e e8 db 8a 3e 21 30 c2 3e
       0.31066358 0.20610501 0.271209 0.37927344
000040 4e b4 64 3e 97 be 5b 3e 10 2e 46 3e b6 69 cf 3e
       0.22334406 0.21459423 0.19353509 0.4051034
000050 4c 3c 7c 3e b7 31 9f 3e 49 60 67 3e fe de 7e 3e
       0.24632376 0.31092617 0.22595324 0.24889752
000060 2b f0 64 3e fe 07 93 3e 84 7d b6 3e 40 4e 95 3e
       0.22357242 0.28717035 0.35642636 0.29161263
000070 30 3b c8 3e a3 8d e3 3e d8 0f 88 3e 89 26 1e 3e
       0.39107656 0.44443998 0.26574588 0.15444387

l4.0.weight f4 [32, 32, 3, 3]
000000 bc d5 8a 3d 07 04 6f bd f2 68 41 bc 67 77 3c bc
       0.06779048 -0.05835345 -0.011804806 -0.011503077
000010 4c 8e b8 bd 90 23 b3 3d 6d 92 3e 3d 57 b6 94 bd
       -0.09011516 0.087470174 0.04652636 -0.07261341
000020 e8 f5 33 bc e3 e7 3b 3d 73 be 07 bc f2 93 8a b9
       -0.010983922 0.04587544 -0.008285153 -0.0002643164
000030 43 3d 0d 3d 05 10 8a 3c 11 e4 e1 3c 7e 75 e0 3c
       0.03448225 0.016853342 0.02757457 0.027399775
000040 04 8c 99 bd 80 01 a4 3d c0 a6 04 bb 8c b3 01 3b
       -0.07497409 0.080080986 -0.0020240992 0.0019790856
000050 bb 73 41 3d 65 a3 62 bd c5 01 da bc 84 0f 56 3b
       0.04722951 -0.055331606 -0.026612172 0.0032663057
000060 83 a4 8d 3d 7e 9c 3a bd f6 36 77 3d b7 8a 82 3d
       0.06916144 -0.0455594 0.06035515 0.06374114
000070 ed d2 28 bb 3a 7e b6 bc 80 ed 5e bd d3 1e 70 3c
       -0.0025760487 -0.022276986 -0.054425716 0.014655787
000080 0f 13 78 bd 2c 2c 0a 3d cb 5c 0c 3c 97 06 e9 3c
       -0.06056505 0.03373353 0.008567045 0.028445525
000090 0b 04 9c 3d 77 b7 a2 bc 35 10 3f bc 1d 5d 57 3d
       0.07617959 -0.019862873 -0.011661579 0.052579034
0000a0 a1 69 ca bc 6e 72 88 3d 24 63 ef 3b 38 16 42 bc
       -0.02470857 0.06662451 0.0073055197 -0.011846118
0000b0 af 91 d9 3c b1 42 7a 3d 3b 47 0d bc 45 25 fa bc
       0.026558725 0.061098758 -0.00862294 -0.03053535
0000c0 44 89 ae bd 40 36 0e 3d 40 d3 2a 3d 9f 28 f4 bc
       -0.08522275 0.034719706 0.04170537 -0.029804526
0000d0 00 27 b4 3c ac 59 8b bc 7c 81 88 bd 7f 8f 85 3b
       0.021991253 -0.017010532 -0.06665322 0.004075944
0000e0 56 44 d7 3c 51 b7 23 3d 36 6b 06 3d d2 12 bc 3c
       0.026277702 0.039969746 0.032817088 0.022958193
0000f0 ac 65 c2 bc 87 84 50 3c 88 ac 83 bc 66 66 9f bd
       -0.023730122 0.0127269095 -0.01607348 -0.07783203
000100 2f 2a 20 3d a4 a9 d3 bc db 38 8c 3c 68 e2 36 bd
       0.03910273 -0.025837727 0.017116955 -0.04464951
000110 43 ae 12 bb bf 71 b2 bc ea 4e 12 3d 3b b0 84 bc
       -0.00223817 -0.021782754 0.03571979 -0.016197314
000120 1a a8 5a bd c2 b1 47 3d 0c e5 28 bd 09 ab ee 3c
       -0.05338297 0.048753507 -0.04123406 0.02913429
000130 44 b9 2d 3d a8 f9 10 bd fe 7a 6b bc 21 31 f9 ba
       0.04241301 -0.03539434 -0.014372585 -0.0019011834
000140 21 5c 11 3d 08 e3 25 3d 64 09 8b bb 2a f2 24 bd
       0.03548825 0.040499717 -0.004243063 -0.04027001
000150 18 42 23 3b 16 99 4d 3d 1c 84 02 3d a1 35 6e bd
       0.002491122 0.050194822 0.03186427 -0.058156613
000160 cf c2 b7 bc 52 ef 02 3c 0d a9 96 bd d7 c2 b5 3c
       -0.02243176 0.007991629 -0.07356463 0.022187633
000170 04 48 32 bd 30 c6 12 3d 72 29 79 3d a9 aa 03 bd
       -0.04352571 0.035833538 0.06083054 -0.032145176
000180 96 1d c1 3c b0 4e b9 bc 69 f0 04 bc ec 57 49 3d
       0.023573678 -0.022620529 -0.008113959 0.049156114
000190 76 2d 80 3d 21 38 b0 bc b1 b8 98 3c 06 62 b0 bb
       0.06258671 -0.02151114 0.018642755 -0.005382779
0001a0 c2 d3 97 bb 71 9c 0a bc 0c 1e 5a 3d fa 67 1c bd
       -0.004633398 -0.00846015 0.05325131 -0.038185097
0001b0 02 bb 29 bb 1d 02 94 3d 9c e4 62 bd c9 17 26 3b
       -0.002589882 0.072269656 -0.0553938 0.0025343767
0001c0 65 d8 03 b9 45 04 4e bd 84 8a 11 bd 45 b0 9d 3c
       -0.00012573747 -0.05029704 -0.03553249 0.01924909
0001d0 cb 35 96 bc 67 af 0a 3d 3f f4 38 3d 39 34 d5 bc
       -0.018336197 0.033858683 0.045154806 -0.026025878
0001e0 d2 4e 4c bd e4 f0 4a 3d 4e ec 87 ba 6e 2a 03 bd
       -0.049879856 0.049546137 -0.0010370107 -0.032022886
0001f0 26 2f 58 3c d8 c9 05 3c fb 5d 0c 3d 63 fd b8 3c
       0.013194835 0.008165799 0.034269314 0.022581762
000200 15 4e 20 bd 5f d3 09 bd 19 18 4f bc b5 ca 35 3d
       -0.039136965 -0.033648845 -0.012640023 0.04438277
000210 bf bc 05 bc a3 52 85 bd 45 40 06 bb 58 a7 7e 3c
       -0.008162676 -0.06509902 -0.0020485085 0.015542828
000220 36 db 4b bd 0f c8 aa 3d 7f 68 36 3c 14 d0 be bd
       -0.049769603 0.083389394 0.011133312 -0.093170315
000230 00 3c 0f 3c 37 1d 9a 3c 72 5c ba bd 30 13 99 3c
       0.008742332 0.018812759 -0.09099664 0.018685907
000240 3f 6c 9a 3b 5f e3 84 bc 74 37 6c bd 05 63 50 bd
       0.004712611 -0.0162217 -0.05767007 -0.050875682
000250 06 52 90 3d fd bc 4c b8 4a d0 57 bd d9 d3 b4 3d
       0.07046895 -4.88134e-05 -0.052688874 0.08829469
000260 7b 8a b5 bc e9 64 20 3c 34 63 4c bd d9 52 e0 3c
       -0.02216076 0.009789684 -0.049899295 0.027383255
000270 f4 89 56 3d 28 b3 90 bd 0b a2 d8 bc 55 eb 69 bd
       0.052377656 -0.07065421 -0.026444456 -0.057109196
000280 17 43 12 3d 41 04 58 3d fe e5 24 bd fa ad ab 3c
       0.035708513 0.05273843 -0.0402584 0.020956982
000290 3e 49 cb bc 7d b6 b6 3c 12 1c 61 bd 4d 41 2d bd
       -0.024815198 0.022303814 -0.05495841 -0.042298604
0002a0 68 29 34 3d bf 3b 8b bc 96 52 a3 3d cd 8c ac 3d
       0.0439848 -0.016996263 0.079747364 0.08425293
0002b0 14 21 e1 bd 69 23 1d 3b 94 7c 37 bb b5 e9 b9 bd
       -0.10992637 0.0023977405 -0.0027997838 -0.09077779
0002c0 a6 d4 7a bc 19 a6 2b 3d b4 27 8a bd 6e 1f a1 3d
       -0.015309488 0.04190645 -0.06745854 0.07867323
0002d0 86 0f 11 3d 24 e1 91 bd 7c 62 33 bd bd ef 9d bc
       0.035415195 -0.0712302 -0.043795094 -0.019279355
0002e0 eb d4 40 3d fe 55 ba 3b cc 3a f9 3c d5 bd 75 3c
       0.047078054 0.0056865206 0.030423544 0.014998873
0002f0 52 f0 48 bd 15 b8 4a 3d 13 62 72 3d 7e 37 5b bd
       -0.049057312 0.04949196 0.059175562 -0.05351972
000300 49 c0 e8 bc 5e 0d 06 bb b0 84 88 bd cb 4a a1 bd
       -0.028412001 -0.0020454745 -0.06665933 -0.07875594
000310 e1 20 6d 3d ad 8e cc 3c 2a 4b 3f 3c 42 de cd 3c
       0.057892684 0.024970377 0.011675635 0.025130395
000320 54 71 22 bd 6b 7c 04 3a 32 f5 61 3d 31 52 a5 bc
       -0.03965886 0.000505394 0.055165477 -0.020180793
000330 89 67 70 bd 5c 25 1d 3d c7 3d 39 bd 41 98 28 bd
       -0.05869249 0.038365707 -0.04522493 -0.041160826
000340 c9 74 34 3c a2 35 32 bb 4b 21 a2 bc f2 c9 76 bd
       0.011014172 -0.0027192612 -0.019791266 -0.060251184
000350 cc b7 70 3d f0 88 b7 3c 1b d1 a7 bc 92 0b f4 3b
       0.058769032 0.022404164 -0.020485451 0.0074476684
000360 2d df c0 bb dd dd 40 3b 43 cf a3 bb a7 31 54 3d
       -0.0058859796 0.0029429116 -0.0049990728 0.051805165
000370 4a 96 db bc 44 e8 8b 3c cc ea bb bc 8b 58 5e 3d
       -0.026805062 0.017078526 -0.022939108 0.05428366
000380 d7 0b 23 bd da 6f 5a 3d 38 ca 2d bc d9 5d 4b 3d
       -0.039806213 0.053329326 -0.010607295 0.049650047
000390 ca 42 ed 3c 56 08 42 bc 37 12 fb bc 14 8b 05 bc
       0.028962512 -0.011842808 -0.030648334 -0.008150835
0003a0 5e 31 c6 bc cc 93 08 bb d0 9b 53 bc 7c 62 4c bd
       -0.024193462 -0.0020840047 -0.012915567 -0.04989861
0003b0 ca ba 74 3d 7b c0 41 3b 07 7e 19 be 61 ad 19 3d
       0.05974845 0.002956419 -0.14989482 0.037518863
0003c0 40 a7 83 3d c3 53 b5 bd 6c 18 d2 3c f5 83 4f 3d
       0.06428385 -0.08853867 0.02564641 0.050662953
0003d0 bd b6 8e bc e7 d9 40 bd cc a8 82 3a e6 50 8f 3b
       -0.01742112 -0.047082808 0.0009968518 0.0043736575
0003e0 a9 1f 3c bd fb 4f 03 3d 75 71 83 3a 41 2c c4 bb
       -0.04592863 0.032058697 0.001002832 -0.005986721
0003f0 aa 18 89 bd b1 83 25 3d 2a e7 31 bc 18 9f af bc
       -0.066941574 0.040408794 -0.010858336 -0.021438166

l4.0.bias f4 [32]
000000 1e 8e 5f bc dd ec d5 bc 85 b6 f7 bc 4b 49 e8 3c
       -0.013644723 -0.026113922 -0.0302384 0.028355261
000010 8a 34 0a 3d 34 e1 02 bc 83 b2 e6 3c cb 6d 88 3b
       0.03374151 -0.007988263 0.028161293 0.004163479
000020 10 d4 62 b9 fb fb 25 3d 36 70 9a bc a8 a0 63 bd
       -0.00021632039 0.04052351 -0.018852334 -0.055573136
000030 01 85 eb 3c 56 45 d4 bc 73 e1 4b bb c1 6f ce bb
       0.028749945 -0.025911968 -0.003110972 -0.006299943
000040 c2 af ea 3c 78 49 71 ba 87 b8 2c bd 06 80 1b 3c
       0.028648261 -0.0009204368 -0.042168166 0.009490972
000050 52 36 12 bd af 94 99 bc 5e 66 b7 bb 10 74 63 bd
       -0.035696335 -0.018747656 -0.00559692 -0.055530608
000060 1a 87 c2 3c 7f 46 36 bd 13 37 59 bd e3 6e b6 3c
       0.023746062 -0.044500824 -0.05303104 0.022269672
000070 a9 94 23 bd 7b a6 6f 3c 11 48 42 bd 86 32 cc bb
       -0.039936695 0.014627094 -0.04743201 -0.006231609

l4.1.weight f4 [32]
000000 a2 88 7d 3f 05 35 82 3f 40 3e 7e 3f b9 6e 7d 3f
       0.9903661 1.017243 0.99313736 0.98997074
000010 aa 0f 76 3f 7b bc 74 3f 8b ed 6b 3f 85 b5 7f 3f
       0.9611765 0.956001 0.92159337 0.9988635
000020 2e 9d 7c 3f 6a fe 82 3f c3 6b 7f 3f d6 40 7f 3f
       0.9867734 1.0233891 0.99773806 0.99708307
000030 c4 c2 82 3f 15 52 85 3f 53 d7 83 3f 24 d7 7c 3f
       1.0215688 1.0415674 1.0300087 0.9876578
000040 7f 08 86 3f b8 0e 7c 3f 5c 3b 80 3f 6a 66 82 3f
       1.0471343 0.9845996 1.0018115 1.0187504
000050 dd 53 77 3f e3 af 79 3f 81 2d 7c 3f 20 f7 80 3f
       0.9661234 0.97534007 0.98506933 1.0075417
000060 37 b3 83 3f 5d 40 85 3f 26 95 7b 3f a4 63 7d 3f
       1.0289067 1.0410267 0.9827446 0.98980165
000070 82 1c 83 3f 0c 9f 80 3f b3 82 79 3f 68 40 73 3f
       1.0243075 1.0048537 0.97465056 0.9502015

l4.1.bias f4 [32]
000000 fc d1 a0 bc c1 1d 81 3d 32 42 c5 bd bc e5 07 be
       -0.019631378 0.06304503 -0.096317664 -0.1327123
000010 e4 8f 87 bd 51 09 a3 bc 82 fc 63 bc 5c 8b 3b bd
       -0.06619242 -0.019901903 -0.013915183 -0.0457872
000020 34 06 33 3d e7 2f 77 bd 9c 2d 9f bd 6a 3b 6c 3d
       0.043707088 -0.060348418 -0.07772371 0.05767385
000030 c7 0c 07 3e 6e aa 03 3d 18 81 97 bd 8b a8 67 bd
       0.13188468 0.032144956 -0.073976696 -0.05655722
000040 ff b4 7a 3b 47 a3 3a bd be e6 55 bd e2 f3 f4 3c
       0.0038254855 -0.04556587 -0.052222006 0.029901449
000050 d8 ec 7d bd 7a e5 6c bc dc 88 88 bc de db d1 bd
       -0.06199345 -0.014459008 -0.016666822 -0.102470145
000060 9c 61 44 bd 41 6f d5 bd fc c0 04 be 83 ea 18 bc
       -0.04794465 -0.104216106 -0.12964243 -0.009333256
000070 d3 e8 d4 3c ad 85 3f ba 5c 49 05 3d 7a c8 93 bd
       0.025989925 -0.0007305991 0.032540664 -0.07215972

l4.1.running_mean f4 [32]
000000 1b dc 9e bd 1b b7 eb be f8 69 ef bd 81 1c fb be
       -0.077568255 -0.46038136 -0.11690134 -0.49045184
000010 dc c3 32 be 5c 84 e3 3d 80 71 c1 bd 10 e2 66 bf
       -0.17457527 0.1110923 -0.094454765 -0.90188694
000020 75 f6 51 bf 94 16 45 be 21 cc 90 bf 46 f0 8f bb
       -0.8201669 -0.19246894 -1.1312295 -0.0043926565
000030 cc b7 c2 bd a2 33 22 be 43 54 bb be 1e 72 b8 be
       -0.09507713 -0.15840009 -0.36587724 -0.36024565
000040 59 e1 1d bf b7 15 76 3c 3f a9 6e bf 50 98 07 bf
       -0.6167198 0.015019826 -0.93227 -0.52966785
000050 1a 16 3b be 05 6b 09 bf 3c c4 02 3d b0 e5 ad be
       -0.1827015 -0.53678924 0.031925425 -0.339643
000060 db c5 70 bf 36 79 e3 bd 07 ef 7f be 1b 9d c7 be
       -0.94051903 -0.111071035 -0.24993525 -0.3898705
000070 83 0e 84 bf 3e 5a 8a 3e d4 d7 cd be 53 33 c1 3c
       -1.0316929 0.27021974 -0.40203726 0.023584044

l4.1.running_var f4 [32]
000000 64 4d fa 3e 12 19 32 3f 76 26 9f 3f 1c 69 f1 3f
       0.4888717 0.69569504 1.2433612 1.8860202
000010 75 53 ca 3e 27 79 2c 3f af dc 26 3f 3d be 44 40
       0.39516798 0.67372364 0.65180486 3.0741112
000020 98 62 62 40 47 63 5a 3f 88 9c 65 40 09 1e a6 3f
       3.5372677 0.85307735 3.587679 1.2977916
000030 2f 6f 9b 3e e3 76 03 3f a4 c1 1b 3f f1 ee a2 3f
       0.30358264 0.5135328 0.6084235 1.2729169
000040 c7 71 a6 3f be 96 51 3f 67 eb 4b 40 61 8b 86 3f
       1.3003472 0.8187064 3.1862428 1.0511285
000050 65 ae 1b 3f c3 82 07 40 3c a1 90 3f 9e 0c ad 3f
       0.6081298 2.117356 1.1299205 1.3519475
000060 da 7f 35 40 95 7d 14 3f a8 7c d8 3e 10 ec 2c 3f
       2.8359284 0.5800412 0.42282605 0.675477
000070 f2 cd 0c 40 a2 60 2d 3f a7 63 4e 3f 3d a4 9b 3e
       2.20007 0.67725575 0.8062081 0.3039874
